backend/best_risk_score_model.pt (torch, 32571 bytes, 11 tensors)

shared.0.weight f4 [32, 6]
00000000: 347c 7c3e 9af8 073e 8e31 3bbb 3861 ad3d
00000010: e641 3dbc 553b 903e 065d d1bc aa6a 583e
00000020: 8c05 a13e 6100 32be abcb 33be 1499 a73e
00000030: a7b5 833d a166 703e 728a 393e db27 07be
00000040: 668a 5ebd 2049 763e be50 8c3e ae73 a9bd
00000050: 5cd8 b3bd 12f9 77be b0a0 b83e 666f d43e
00000060: 4f08 d63e 8d8f e0bd 5cc9 883e e783 933e
00000070: 0b14 8ebe 8f23 c0be 2c56 8dbe 8d7b c53e
00000080: eb65 333e f092 3dbe 5be2 a2be 0fe3 a5bd
00000090: ef60 893e b6cf 69be ab4e 5fbe d69c c93e
000000a0: 0d20 ad3d a258 403e de44 a1be 0a9a 903e
000000b0: 73be e43a 96b5 d93e 525e 9ebe e138 3bbd
000000c0: 5dc5 7e3d a594 833e 8670 42be 6955 aa3e
000000d0: fde0 073e 6f78 e8bc 6454 1b3e cbec 9abd
000000e0: d45c f3bd fb06 a1bd 1324 833e ad03 173e
000000f0: f453 a13d fae8 4bbe b331 f83d 73e6 b93d
00000100: 71f6 05be a8e0 d53d 3f22 bd3e ae87 963d
00000110: 95d5 c43e 2a82 343d d484 e63c acb1 86be
00000120: e56a ac3e ebae 653e 718c c7bd 9195 74be
00000130: 788d 7cb9 993b a4be 419e 0b3e 9702 89be
00000140: 3ac5 c2bd eac0 b1be 7b45 9bbe e922 343d
00000150: 3732 a7be b764 83be 920c a33e 0d31 f3bc
00000160: 13c8 c0be 9d79 99bd 5f27 4b3e 4e74 f23d
00000170: 8420 9ebe b164 7cbe e8be f7bd 5e80 7fbe
00000180: 721f f9bd a310 bc3e a7c9 e63c 1eed cdbb
00000190: 4b71 a8be 5709 073d 9f97 afbe f7e8 8fbe
000001a0: a4f4 87be b618 45be 3d23 7fbe 8c8c 6a3d
000001b0: b3f0 2e3e 2e7f b1be 5c90 99be 141e 78bd
000001c0: 14df ef3c 7a65 56be 44a5 47be ff59 883e
000001d0: 6786 acbd 7285 31be f758 003e d7a6 ca3e
000001e0: b20f d0bd 6671 213e f3fc 7bbe 61c9 9a3e
000001f0: 7aca a5be edb9 87be beeb 27be c920 933e
00000200: 589b 4a3e fef4 3d3e 482e 373e abfd 973e
00000210: 51db 923e 80cc 763e 4770 c0bc 9c4e c1bd
00000220: a4f2 1dbe 04c3 ccbc 67d1 cd3e 4255 8abe
00000230: ceb1 4c3e 3b6e d93e bd29 67be 5bb7 90bd
00000240: 9130 d23e 71ad 3a3e 27af 35be 2599 37be
00000250: 3d3e 873e 8524 9c3e fe4f 42be 9268 04bc
00000260: 5fe7 68be 0cc5 8c3c d7de d0be 76cc 1ebe
00000270: dd7c 833d 0e3f 073e bb42 81be 1ad8 873e
00000280: f089 c9be 07c6 c83e e7c4 9bbe 19fe cabe
00000290: d01f af3e aecf 06bb c95f b7bd 158c b63e
000002a0: a807 9cbd e313 b43e bcb6 873e 0c90 0f3e
000002b0: 30df fe3d e2d3 b0bd cf0f 58be 0454 94be
000002c0: 93f4 813e bbf3 eebc 1cf2 d6bd 568a 743e
000002d0: 10f1 0c3e 7b2a c7be b462 5cbe 8af6 bfbe
000002e0: 49f2 9f3c 06df ae3e 0f98 88bd ab12 063e
000002f0: 50d8 45be 8ced ac3e 82f0 833e 028e 47be
0.24656755 0.13278428 -0.0028563472 0.08465809 -0.011551356 0.28170267 -0.025557052 0.21134439
0.31449544 -0.17382957 -0.17558162 0.32733977 0.06431132 0.2347665 0.18119219 -0.13198797
-0.054331206 0.24051332 0.2740535 -0.08274017 -0.08781502 -0.24216107 0.36060095 0.4149124
0.41803214 -0.1096488 0.26716125 0.2881157 -0.27749667 -0.3752713 -0.27604806 0.38570824
0.17519347 -0.18513083 -0.3181332 -0.080999486 0.26831767 -0.22833142 -0.21807353 0.3937747
0.08453379 0.1878381 -0.31497854 0.28242522 0.0017451778 0.42521352 -0.30931336 -0.04570854
0.06219994 0.25699344 -0.18988237 0.33268288 0.1326942 -0.02837774 0.15168911 -0.07564696
-0.1188294 -0.078626595 0.2561346 0.14747496 0.07877341 -0.19913092 0.121188544 0.09077158
-0.13082291 0.104432404 0.3694019 0.073500976 0.384442 0.044069447 0.02813951 -0.26307428
0.33675304 0.22430007 -0.09743584 -0.2388518 -0.00024085294 -0.3207672 0.13634588 -0.26759788
-0.09510274 -0.34717494 -0.30326447 0.043978605 -0.32655498 -0.25662777 0.31845528 -0.029686475
-0.37652645 -0.07493899 0.19839238 0.118385896 -0.30884182 -0.24647786 -0.12096959 -0.24951312
-0.12164201 0.36731443 0.028172327 -0.00628437 -0.32898936 0.03296789 -0.34295365 -0.28107426
-0.26553833 -0.19247708 -0.24915786 0.057262942 0.17084007 -0.34667343 -0.2999295 -0.06057556
0.029281177 -0.20937148 -0.19496638 0.26631162 -0.08424073 -0.17336062 0.12533937 0.39580414
-0.10159244 0.15765914 -0.24608211 0.30231765 -0.3238104 -0.26509038 -0.16398522 0.2873595
0.19785821 0.18550488 0.17888749 0.2968572 0.2868295 0.24101448 -0.023491038 -0.09438822
-0.15424591 -0.024995334 0.40198824 -0.27018172 0.19989702 0.42466912 -0.22574516 -0.07066222
0.41052678 0.18230225 -0.17742597 -0.17929514 0.26414672 0.30496612 -0.18975827 -0.008081572
-0.22744511 0.017183803 -0.40795013 -0.15507683 0.064203 0.13207647 -0.25246224 0.2653206
-0.3936305 0.39213583 -0.30423662 -0.39646986 0.3420396 -0.0020570564 -0.089538164 0.3565375
-0.07618648 0.35171422 0.26506603 0.14019793 0.124449134 -0.086341634 -0.2109978 -0.2897035
0.25381908 -0.029168954 -0.104953974 0.23880896 0.13763833 -0.38899598 -0.21522027 -0.37492782
0.01952471 0.34154528 -0.06669628 0.13093059 -0.19320798 0.33774984 0.2576943 -0.19487765

shared.0.bias f4 [32]
00000000: 7f65 15bd 433b ce3e 1b09 c9bd ecea 853e
00000010: f26c d9bc 0b2b 81bd a833 63be 212c 4f3e
00000020: 556f 98be cf1a 653e def2 8ebe 1c5b c03d
00000030: ae6e 74be 2d0d 853d a90b 893d ca83 d83e
00000040: a32f d13d 319b b4bd 440a 46bd 72b4 c83e
00000050: 4c85 63bd 72e0 d93e 5677 67bc 2652 843d
00000060: 0680 95be 7040 6c3e d13d c7be 2d87 cabd
00000070: d049 ae3e 6104 9c3e 5f89 acbe 6a63 173e
-0.036473747 0.40279588 -0.0981619 0.26155794 -0.026541207 -0.06307038 -0.22187674 0.20231678
-0.2977244 0.22373508 -0.27919668 0.09392378 -0.23870346 0.06496654 0.06691677 0.42288047
0.10214164 -0.08818663 -0.048349634 0.3920017 -0.055547044 0.4255405 -0.014127573 0.06460981
-0.29199237 0.23071456 -0.3891435 -0.09889064 0.3404069 0.3047209 -0.33698556 0.14784017

shared.2.weight f4 [64, 32]
00000000: 2ee2 653c b53a e53c b54c a93d 1ddb 9a3d
00000010: 48f2 2e3d c492 103e 4f5d d93d 3a70 913c
00000020: a333 90bc 94ff 083d a840 d0bd 0d4c a0bd
00000030: aed7 b7bd 1ec8 813c aee1 273e 5795 45bd
00000040: 16ce 063e aa2b 70bd 9066 8d3b cf4b 19be
00000050: a30a c6bd c1b8 5c3d 6816 fa3b 5905 df3d
00000060: 9f2b 5f3d 3a5f ef3d af61 473d 395d 223e
00000070: 0f1f d43d a5eb 52bd a019 fe3c 534c f2bd
00000080: baad 1c3e 5f40 f83d 822b a03d 16d0 923d
00000090: d9ae 583d 145c 0e3e 3e26 2c3e 8904 033e
000000a0: dfff 313e a403 193e 0f89 15bd 9390 f5bd
000000b0: fcc5 21bd fb94 1b3e 45b0 0d3e a0e5 15be
000000c0: b968 de3d 8319 bd3d ec26 1ebd d770 f33c
000000d0: efaa 13be e879 b5bb a4d1 3d3d 34a8 af3d
000000e0: 0e42 0d3d e806 5cbd a8b1 4b3d 4678 35bd
000000f0: 5c58 37be e3f6 8dbd b3a9 cfbd 7f82 0fbe
00000100: f28a 0dbe 28af f33d 2379 12be fc91 153e
00000110: f785 b93d 31a9 223e c063 223e 965e 983c
00000120: 94d5 2d3d 88cc 93bd 24a5 6ebd 73aa 403e
00000130: 43d8 01be e73c 2bbe f50a 03bd 95bf b33d
00000140: 8688 1c3e 3cc4 d0bc 414c ee3d 3887 0fbd
00000150: d726 863d 8cf3 003e ac42 1a3c 97fb 363e
00000160: b350 ca3d b8e8 c13d 0a5d f8bd a174 0abe
00000170: f3a3 53bd 82b0 393e 6cf7 e33d 20c6 21bc
00000180: 964b eabd 5a00 b5bc 5a74 8fbb 7ba9 e83c
00000190: 89b9 44bd f5c5 c8bc a05a 043e 4429 9dbd
000001a0: fef5 1cbd c1ca 2e3d 47ca 933d edaf e03d
000001b0: 6e09 333e 52b5 84bd 78af 75bd d918 2f3c
000001c0: a521 ecbd 23b0 2cbc 1e97 c9bd 702f 18bd
000001d0: bdb3 17bd a43e 333e 9707 e8bc 0af7 673d
000001e0: 89f5 0ebe 6796 f5bd 79e8 00bd 362e b6bd
000001f0: 3eef 2c3e 3bdc 78bd 5d13 813c 417b debd
00000200: a336 ccbd f761 893d f8b9 a0bd 6290 933c
00000210: 9f1a efbd da1f dfbd fe92 bb3d fdb8 323e
00000220: 8319 9ebd 0163 ea3c 4007 28bc 08d5 f1bd
00000230: 78f5 5cbd 572b 85bc 1731 aabc d1ec edbd
00000240: 181b 1fbd 51c2 253d 9ecc d7bc 2631 b83d
00000250: acb7 8d3d fa6e 10be 3dc0 8a3d 4596 b33c
00000260: c78f 80bd 6850 5cbd 8df0 c3bd 36eb 2b3c
00000270: 09a6 1a3e ad6b 30be 5ee2 efbd 9b2b eebc
00000280: 34e1 373d 57ac 0e3e 8862 28be 1045 0ebe
00000290: 7b30 113e 66d4 ddbd ef91 0ebc e67c cf3d
000002a0: a713 0a3e 3d16 c03d d0db 023e d83e 07be
000002b0: 75c0 ed3d cd40 113e 7390 78bc e0b6 6c3c
000002c0: 322e d6bd 64c6 e73d 388c b73d d087 04be
000002d0: f960 12be 3539 c0bd ed63 da3d c749 79bd
000002e0: 7424 8e3d 1421 463d 044b 533c e45a 143e
000002f0: 2dca af3c 6f8b e1bd 5deb 3cbc c00c 91bd
00000300: ae45 ee3d 52ab dc3d 3973 1f3d 00ee 063e
00000310: f6af 123e dd3b f8bc 59e8 273e a344 a83d
00000320: 57c3 9cbd ae2d a0bd 3f73 313e bf31 95bd
00000330: a5f0 f9bd 717b 16bc ccf6 cbbc 41db 0a3e
00000340: ac59 20bc 3cfb e13d f600 b93d fa67 11be
00000350: 150d 523d 1ed2 b43d 78e5 c2bd 0889 ce3c
00000360: 72d6 fcbd a285 003d c780 033d cea5 22be
00000370: 996f 223e 04a0 813d 93bf 473c d991 d83d
00000380: a26d d13d b172 a13d a5d2 253e a77c d23c
00000390: c0b0 223e 30ce 1f3e 5016 6abc c261 96bd
000003a0: 9ccf e4bd dc91 1bbe 525b 4bbd 16af ef3d
000003b0: 8a90 183e 88bb 363c 4bbc d63c aaa1 223e
000003c0: 7123 f93c 4c6f cb3d 1933 d3bd 282d 8f3d
000003d0: b49e e3bd ef96 263e fcdf 363d 12f9 e93c
000003e0: 343d ff3d e9b4 11be 4f63 323e 7306 9e3d
000003f0: 1e6c cbbd e3ff 283e 5b4a 193e 88f4 0c3e
0.014030976 0.027982095 0.08266584 0.07561324 0.042711526 0.14118487 0.106135 0.01775371
-0.017602747 0.033446863 -0.10168582 -0.078270055 -0.089766845 0.015842494 0.16394684 -0.048238125
0.13164553 -0.05863539 0.004315205 -0.14970325 -0.096699975 0.053887133 0.0076320656 0.10889692
0.05448496 0.11688085 0.048677143 0.15855874 0.103574865 -0.05149426 0.031018078 -0.11830964
0.15300646 0.12121653 0.078207985 0.071685955 0.052901123 0.13902313 0.16811463 0.12794699
0.17382763 0.14942795 -0.036507662 -0.11990466 -0.039495453 0.1519355 0.13836773 -0.14638376
0.10859818 0.092333816 -0.038611338 0.029716892 -0.14420675 -0.005538214 0.046342507 0.08577004
0.034486823 -0.053717524 0.049729973 -0.044304155 -0.179048 -0.069318555 -0.101397894 -0.14014624
-0.13822535 0.11898643 -0.14304022 0.1460647 0.09058755 0.15884854 0.15858364 0.01859979
0.042440012 -0.072167456 -0.05826296 0.18815021 -0.12680154 -0.16722451 -0.03199287 0.08776776
0.15286455 -0.025484197 0.11635638 -0.035041064 0.06550377 0.12592906 0.00941531 0.17869411
0.098786734 0.09468216 -0.12127121 -0.13521053 -0.051670026 0.18133739 0.11131176 -0.009873897
-0.11440198 -0.022094894 -0.004377884 0.028401127 -0.048028503 -0.024508456 0.12925196 -0.076738864
-0.038320534 0.04267383 0.07216316 0.10971055 0.17484066 -0.064798966 -0.059981793 0.0106870765
-0.11529855 -0.010540041 -0.098432764 -0.037154615 -0.037036646 0.17504364 -0.028323932 0.05663208
-0.13960852 -0.119915776 -0.031471703 -0.08895533 0.16888139 -0.060756903 0.015756303 -0.108633526
-0.099713586 0.067081384 -0.07847971 0.018013183 -0.116749994 -0.10894747 0.09158896 0.1745338
-0.0771971 0.028611662 -0.010255635 -0.118082106 -0.053945035 -0.016256018 -0.020775361 -0.11617435
-0.038844198 0.040468518 -0.026342686 0.08993749 0.06919798 -0.14104834 0.06774948 0.02192224
-0.06277423 -0.05378762 -0.09567366 0.01049309 0.151024 -0.17228575 -0.11713098 -0.029073527
0.044892505 0.1393293 -0.16443837 -0.13893533 0.1417865 -0.108315274 -0.0087017855 0.10131244
0.1348406 0.093792416 0.12779164 -0.13207567 0.11608974 0.14184876 -0.015171158 0.014447898
-0.1045803 0.11317137 0.089622915 -0.12942433 -0.14294805 -0.093859114 0.106635906 -0.060861375
0.06940547 0.04837139 0.012896303 0.14487797 0.02145871 -0.11012923 -0.011530724 -0.0708251
0.11634384 0.10774864 0.038928244 0.13176727 0.14324936 -0.030301983 0.16397227 0.082162164
-0.076544456 -0.07821213 0.17329119 -0.07284879 -0.122041024 -0.009184704 -0.024897955 0.13560201
-0.009787004 0.11034247 0.090333864 -0.1419982 0.051282007 0.08829139 -0.09516424 0.025211826
-0.1234559 0.031377442 0.032105234 -0.15883562 0.15862884 0.06329349 0.012191671 0.10574693
0.10225989 0.07883204 0.16193636 0.025694204 0.15887737 0.15605998 -0.014287546 -0.073428646
-0.11172411 -0.1519236 -0.049647637 0.11703317 0.14898887 0.011153109 0.026212832 0.15881982
0.030412408 0.099333376 -0.103124805 0.06991035 -0.111142546 0.16268514 0.044647202 0.028561149
0.124628454 -0.14229168 0.17420696 0.07716074 -0.09932731 0.16503863 0.1496977 0.13765156

shared.2.bias f4 [64]
00000000: 0187 ab3d 3c49 8abb c60f 423e 658c b63d
00000010: 7722 86bd 4deb 0fbe 34e8 74bd 7ce5 8c3d
00000020: 5725 96bd 22db 98bc c004 35bd 9346 e6bd
00000030: d291 163e 5153 c2bd 4335 4c3d 01c0 c3bd
00000040: 396c e33d 4098 b0bd 04c1 10bd cfd0 543b
00000050: 3ffa 26be 65d1 18be 5189 dc3d e25e 043d
00000060: c4f8 cfbc c2bc c3bd 40d6 ccbd e362 04be
00000070: e586 34be 6bcd 06bd 1fd2 1abd a0b9 143e
00000080: dc01 06be 3230 823c 0a7e 393e 2f5a 513d
00000090: 48a6 c63c 0ef4 7abd df76 a53d f911 c03c
000000a0: fdfa 003d 63a1 10be bc93 69bd f623 403e
000000b0: c8f4 e1bc 5781 ab3d 7274 df3d d666 23be
000000c0: ed2b 333e 4190 69bc c886 283e b384 d33d
000000d0: 3752 13bd 198f 153e 7011 13bd d8d1 ea3d
000000e0: d628 b9bd 53d8 0dbe 0e68 23be e9d4 23bd
000000f0: 0415 113e e0ed dbbd 0ec3 873d 443e af3c
0.08375359 -0.004220156 0.1895133 0.08913497 -0.065495424 -0.14054604 -0.05979176 0.06879708
-0.07331341 -0.018659178 -0.044193983 -0.1124393 0.14704064 -0.094885476 0.04985548 -0.09558106
0.11104626 -0.086227894 -0.035340324 0.0032473092 -0.16306399 -0.14923628 0.107683785 0.03231705
-0.025387175 -0.09557487 -0.100018024 -0.12928347 -0.17629583 -0.032910746 -0.037798043 0.14523935
-0.13086647 0.015892122 0.18114486 0.051111396 0.024249211 -0.061267905 0.080793135 0.02344607
0.03148936 -0.14124064 -0.057025656 0.18763718 -0.027582541 0.08374279 0.10910882 -0.15957198
0.17497225 -0.014255584 0.16457665 0.10328045 -0.035967078 0.14605369 -0.0359053 0.11465806
-0.09040992 -0.13852052 -0.15957662 -0.03999797 0.14168173 -0.107387304 0.066290006 0.021391995

index_head.0.weight f4 [32, 64]
00000000: 326d 8fbd 00d3 3cbd 2a09 cbbd e662 d0bd
00000010: 2a6e d4bd 2447 8cbd e02e d23c a017 d43c
00000020: 7855 d0bd 5a64 8f3d 6082 d03b 4836 d23d
00000030: 961f f33d 50d4 81bc b442 8c3d 6073 c33d
00000040: 4c04 68bd 6e88 893d ea0b 823d dab7 e4bd
00000050: dc38 193d e0d4 6ebd f212 ce3d 001e ff3d
00000060: 42cc f23d 1c78 193d 9266 b5bd ba2c 96bd
00000070: 80cb 1bbc 00fa fcbc 48b3 9cbc 44e9 833d
00000080: e027 cf3b 8609 e8bd a08f a8bd 8826 403d
00000090: dc50 c03d 40ed 473d 2a2e 83bd a871 74bd
000000a0: bcda 07bd aaa7 e43d 70dc f2bc 8076 b5bb
000000b0: f093 d7bd c84b d33d 1222 803d 8862 8fbc
000000c0: a432 5fbd 682a adbd 921b dbbd 00e6 2fbc
000000d0: f873 ff3c 92a5 8f3d 0c36 453d 00a2 db3b
000000e0: 4cca a5bd 125e aa3d 5e2b f6bd 8850 ca3c
000000f0: b6a1 b2bd 80d1 baba 74bb 37bd 7832 ed3c
00000100: e7fd 843d edd9 89bd e758 0bbd 46c3 c13d
00000110: 00e9 b3bc b673 fdbd 1dea 6a3d 7eac 1a3d
00000120: b8a5 7ebd ebf4 c13d 2495 343d a03f dfbd
00000130: 134a 093d c471 f33d 1c46 adbd a07e ffbd
00000140: b4f9 a33d 8267 c73b 7405 6dbd f087 393d
00000150: 3cb6 333d 7e36 f53d 073c b53d c4a8 b0bd
00000160: 4a74 95bd a69f 2ebd b387 8f3d 74d9 4ebd
00000170: 8c33 873d d8ea 9f3d 9d54 993d 3a65 903d
00000180: f4b5 8f3d 0ea5 973c 0624 01bd d556 8fbd
00000190: c44b 4ebd d427 f5bd 7c62 fcbc b678 fabd
000001a0: eeb7 d1bd 36e4 fdbd b0e7 8c3d b079 b83d
000001b0: 28b9 b93c ec23 15bd 252b e9bc e88a b1bd
000001c0: eebf a9bd e10a acbc 46a8 86bc 9e95 9a3c
000001d0: 42cb cebc 9cca 9f3d d65a ae3d 5070 533d
000001e0: 94d7 523d 3eb8 bb3d e849 9a3d 58f6 e93c
000001f0: 03d9 d33d 80d1 e9bb cf8d b2bd 7d64 933d
00000200: b493 fd3c 51bd cb3d ddf0 55bd 8654 a1bd
00000210: 3083 d9bc a8f0 3c3d d1df adbd cd67 493d
00000220: 2c02 b1bd 403c bebc 9496 163d e8c1 80bd
00000230: a3b1 01bc de1b cd3d 0a80 403d 002e ad3b
00000240: 80e7 a33b d80f 3f3d 7c37 723d 9400 693d
00000250: f4f0 65bd 9012 2f3c 8464 d23d f80c 5a3d
00000260: 14e0 d13d ad28 203b e6d2 f5bd a676 fcbd
00000270: 90c0 05bd 3867 503d ddfe 4ebd 6270 203b
00000280: b281 eebd 74ba e0bd a372 41bd 79fa 01be
00000290: 50ad 89bc ae19 adbd 0b21 d4bd c650 0abe
000002a0: ca01 1cbd c503 9cbd 7ce0 d1bd 5990 993d
000002b0: 10c5 a2bc cd4e 08be 0427 db3d d6c8 913d
000002c0: 80fd 8a3d 8edf e33d c952 763d 04c5 c03d
000002d0: 0f4f bd3c 23ca 0abe c863 e13d 54cb 15bd
000002e0: 1062 7e3d fc76 313d 201a e43d 145b 8a3d
000002f0: 0f07 0bbe 3c2a c73d 25a8 ac3c 6b90 803d
00000300: dba3 0abd a595 15bd 9420 de3d d361 8abd
00000310: 5c9c 313d b0cc 0fbc 8bbb 8abd 3f4f 3f3c
00000320: 64a0 0e3d d612 943d d410 05bd fc45 033d
00000330: dc7f 37bb 1a60 b43d 1d75 9c3c 101c a53d
00000340: 3af8 88bd 6e0f 523d 0bbf 80bd 34cd b9bd
00000350: bec0 f33d b83a 76bd c3e8 cb3c 316e 003e
00000360: 40f5 683c ec2b 4ebd ec70 9f3d 5e4f bebd
00000370: f49c f33d 80c2 4a3d df86 3bbd 411a 84bd
00000380: 7c79 a63d 973e c53d 1f12 f73d 4c8d a43d
00000390: d676 8e3d 34ee e8bd 5942 103e 5b36 ce3d
000003a0: 439b b33d 7ed5 6a3d 56af ce3d 42e2 ef3d
000003b0: 1c28 dcbd 719d f73d 5eff 233d 1678 c0bd
000003c0: f696 fd3c 1594 59bd f5b7 7d3d dece cbbd
000003d0: 9150 00bd 0434 91bd 40cf 143c b634 de3d
000003e0: 78ff 11bd b256 b93d c8f9 14bd 6cbf 063d
000003f0: f3b8 113e 7ec6 c0bd 31b5 e43d 24ee 87bd
-0.07003249 -0.046099663 -0.09913857 -0.101751134 -0.103725746 -0.068495065 0.025657117 0.025890172
-0.10172552 0.070015624 0.006363198 0.102642596 0.11871259 -0.015848309 0.0684866 0.095434904
-0.056644723 0.06715475 0.06349929 -0.111678794 0.03740774 -0.058308482 0.10062207 0.12456894
0.11855365 0.03746806 -0.08857454 -0.0733275 -0.009508967 -0.030880928 -0.019128457 0.06440976
0.006321892 -0.113299415 -0.08230519 0.046911746 0.09390423 0.048810244 -0.064052895 -0.059678704
-0.033167586 0.11164792 -0.029646128 -0.005537808 -0.10526264 0.103171885 0.062564984 -0.017503038
-0.054491654 -0.08455354 -0.10698618 -0.010735989 0.031183228 0.07014002 0.048147246 0.0067026615
-0.08095226 0.08318724 -0.120199904 0.024696603 -0.0872225 -0.001425311 -0.044856504 0.02895473
0.064937405 -0.06731019 -0.03402033 0.094610736 -0.021961689 -0.12375586 0.057352174 0.037762158
-0.06216976 0.094705425 0.044087544 -0.109008074 0.03351791 0.118869334 -0.08460638 -0.12475324
0.080066115 0.006085337 -0.05786653 0.045295656 0.043874964 0.11973284 0.0884934 -0.086259395
-0.07297571 -0.04263272 0.070083044 -0.05050035 0.06601629 0.07808465 0.07486842 0.070505574
0.07017127 0.018511321 -0.031528495 -0.06998984 -0.050365224 -0.11970487 -0.03080868 -0.12230055
-0.1024016 -0.123970434 0.068801284 0.09007585 0.022671297 -0.03641121 -0.028462956 -0.086690724
-0.08288561 -0.021001281 -0.01643766 0.018870171 -0.025243405 0.078023165 0.08513419 0.05162078
0.051475123 0.09166001 0.07533628 0.028559849 0.10344126 -0.00713557 -0.08718454 0.07196901
0.03095422 0.099482186 -0.05223166 -0.0787745 -0.026551813 0.046127945 -0.08489955 0.049171258
-0.086429924 -0.023222089 0.036764696 -0.06286985 -0.007915887 0.10015081 0.046997108 0.0052850246
0.005001962 0.04664597 0.059134945 0.056885317 -0.056137994 0.010685578 0.10273078 0.053235024
0.10247818 0.0024438307 -0.12003116 -0.12327318 -0.032654345 0.050879687 -0.050536025 0.0024481048
-0.11645831 -0.10973063 -0.047228467 -0.12693204 -0.016806275 -0.08452164 -0.10357865 -0.13507375
-0.038087644 -0.076179065 -0.10247895 0.07498235 -0.019869357 -0.1331131 0.10700801 0.071183845
0.067866325 0.11126624 0.060137544 0.09412578 0.023108987 -0.13553672 0.1100536 -0.036570862
0.06210524 0.043326363 0.111377954 0.06755653 -0.13576911 0.097248524 0.021076271 0.062775455
-0.03384767 -0.036519665 0.108460575 -0.0675694 0.043362007 -0.008776829 -0.06774052 0.011676609
0.03482093 0.07230155 -0.03248675 0.032049164 -0.0027999794 0.088073924 0.019098813 0.08061993
-0.066879705 0.051284246 -0.062864386 -0.090723425 0.11901997 -0.060114592 0.024891263 0.12542035
0.014218628 -0.050334856 0.0778521 -0.09292482 0.11895171 0.049501896 -0.04578292 -0.0645032
0.0812864 0.09631079 0.12064003 0.08034763 0.0695626 -0.11373559 0.1408781 0.10068961
0.08769848 0.05733251 0.100920364 0.11713077 -0.10749838 0.120905764 0.04003846 -0.093979046
0.030955773 -0.053119738 0.061943013 -0.09951566 -0.031326834 -0.07089999 0.009082615 0.108498976
-0.035644025 0.09049739 -0.036371022 0.032897398 0.14230709 -0.094128594 0.11167372 -0.066372186

index_head.0.bias f4 [32]
00000000: 68db 37bd 9f87 a83d 6cbe a53d 6660 ca3d
00000010: 24db cebd 2332 a23d 8c64 7e3d d880 e1bc
00000020: e059 3a3d 3ea3 5b3d 219b 053d 7d03 ffbc
00000030: e45c b6bd 1e7f 473c a795 2e3c 74b4 093e
00000040: 7c44 fd3d dca6 0e3d aeee d33d 1768 c93d
00000050: 84da 013e f1ac fa3c 0aa0 81bd e8b8 51bd
00000060: 2bc8 57bd 33a2 c23d 80cd b0bb 2e67 c33d
00000070: fb05 45bc dcbc d4bd 7102 533d 744e d1bd
-0.044886976 0.08228993 0.08092961 0.09881668 -0.101003915 0.07919719 0.062107608 -0.027527258
0.045495868 0.053622477 0.032618646 -0.031129593 -0.08904436 0.012176303 0.010655797 0.13447744
0.12366578 0.0348271 0.10348259 0.09834307 0.12681013 0.030600043 -0.06329353 -0.05120173
-0.05268113 0.09503593 -0.0053955913 0.09541164 -0.012025352 -0.103875846 0.051516 -0.10220042

index_head.2.weight f4 [1, 32]
00000000: 5b6b afbd 826e 90bc dd72 8bbc 49d5 e63d
00000010: 2611 19be 9719 01be afb5 f13d b0cb 043e
00000020: 5ca0 0b3e c7c6 163e 85ac d73d 9524 7c3c
00000030: dc45 6e3c 2093 a53d 5e0c 2b3e f78d bd3c
00000040: e191 023e 221f 68bc fee6 0abe b767 2e3e
00000050: 18fa 903d c780 bb3d 2dde 8b3d 9f1e 1dbe
00000060: fa7d c7bd 24e1 b4bd 26b6 993d f3cf 42bc
00000070: 6c98 a1bd 7d51 df3d 5867 163b 9708 2dbe
-0.08565398 -0.01763082 -0.017022545 0.1127115 -0.14947948 -0.12607418 0.118022315 0.12968326
0.13635391 0.14724265 0.10530952 0.015389581 0.014543023 0.080847025 0.16703936 0.023138983
0.12750961 -0.014167579 -0.13564679 0.17031752 0.070789516 0.09155422 0.06829486 -0.15343712
-0.09740825 -0.08832005 0.07505445 -0.011890399 -0.078904 0.109042145 0.0022949781 -0.16897808

risk_head.0.weight f4 [32, 64]
00000000: 1d44 e73d a4b5 ecbc 263a ce3d 6d9e 8cbd
00000010: 0006 dcb9 261f e2bd f2ba 013b c384 79bc
00000020: a209 d5bd b831 e9bd b059 bdbd 10ef 293c
00000030: fcba ba3d a662 bebd a0f2 f7bb 94b9 28bd
00000040: 545c c73d 3ce6 293d b582 cd3d 8820 dc3d
00000050: 6047 863d be42 de3d 567c c2bd 3ed3 bb3b
00000060: 9819 733d 021c b0bd 0dee a13d 9098 6dbd
00000070: 9841 c83d 1034 84bd 2e84 44bc 5fde 043a
00000080: 607a 9ebb 4390 a43d 77ba 323d 3b3b 873d
00000090: 6d03 ef3b 8871 1cbd f082 503d 24d8 4f3d
000000a0: 482e ea3d 2309 543d 7cff b93d c3e8 353d
000000b0: 10bb 783d f02f ec3d a3d2 89bd e4fa 9b3d
000000c0: a78f f73d ed12 59bc 4de4 c7bd 3ed6 cfbd
000000d0: 97df a73d 08d1 c33d a035 0fbc fc30 0e3d
000000e0: 10fd 4f3d 5668 b53d 7805 c5bd 7aee f73d
000000f0: 75ed 033e be86 d13d c77c 12bd c99a 973d
00000100: 36c5 433d 0c26 10bb 05be 00be 6c7f b43c
00000110: 54ca bfbd c802 e9bc ac25 5f3c 02de c9bc
00000120: c004 2ebd 8c86 8e3d e840 acbc 32eb a03d
00000130: a71e 41bc 7ac0 c8bd ab9d 9e3d 5096 59bd
00000140: 08bc 933c 22a9 76bd 68a6 02be cca0 52bd
00000150: 184b ae3c c610 f93d 2f9e b93d d2cc fd3b
00000160: 9ca5 913d 77a0 2fbd f1cd 0ebe 6084 f53d
00000170: be65 e73d 0633 a7bd 7e84 1d3d 3c80 b43d
00000180: 4a45 86bd 0758 843c aded a73d 0c25 873c
00000190: 6a27 c5bd 5073 8b3d 0e08 c63d 1bdb ab3d
000001a0: abbb bd3d 1512 d83d f059 c83c a67f f6bd
000001b0: 602a c8bb ca8d 0abd 981a 883d e6bc ac3d
000001c0: 4db4 203d 9356 813d d4b3 d73d df00 cebd
000001d0: 5d8d 233d 97eb 0bbe 282a e43d a00e 0e3c
000001e0: 801a f33a d87f 9a3c e4ca 8fbd 40b7 cabc
000001f0: 56e9 76bd e866 ad3d 7ac2 af3c 51cc d13d
00000200: c4c0 543d 4678 8fbd bc85 733d 9855 a3bd
00000210: 6a91 8d3d d046 f3bd d8bc 8a3d 4e03 e2bd
00000220: 9830 cfbd 3eee df3d d4d2 31bd 2c3c 1b3d
00000230: 001b a33b d8ef 64bd 7ece 8e3d f463 c43d
00000240: c055 783b 0847 ce3c 186e 3bbd 48b8 63bd
00000250: 90c0 f7bd 18f1 c93d 00cf aa3b 2076 efbb
00000260: ecaa 88bd be60 d4bd 9c93 63bd 80c7 bb3c
00000270: d828 903d 243e 43bd 6ac8 a4bd 7034 a53d
00000280: 5cde 2a3d a89e debc a4a5 283d 7c36 68bd
00000290: 409b a8bc 1c4a fc3d c6fe 89bd c672 f1bd
000002a0: 0657 be3d 5256 ab3d 98d3 bebd c0c0 b6bd
000002b0: 683d f2bd 84eb cd3d 8846 c7bd 1ee8 ea3d
000002c0: 2cfa 26bd 2858 d93c 6845 553d a4a8 42bd
000002d0: a0b6 573d 5a8a 8b3d 8c84 783d bcc7 b93d
000002e0: e0b9 d6bb ae68 a8bd ac12 be3d 8428 cdbd
000002f0: 2078 4e3d 98da 50bd 48ca 3d3d 38dd bb3c
00000300: d5a0 d4bd fd9f f5bd afd4 03be bee7 8abd
00000310: ecd8 24bd faa4 d5bd 12a3 fdbd d80b cebd
00000320: a818 7c3d 52c7 4bbd 52a9 f73d 745c 62bd
00000330: 218d c23d c099 4dbb 37b5 e33d b4d4 5b3d
00000340: a402 68bd 7308 a43c fabb 9f3d 882d 81bd
00000350: b811 f93d 08b3 ae3d 92d6 893d 1ec1 7c3d
00000360: 0434 ea3d f2f2 3fbd 96aa c2bc aa60 acbd
00000370: 24a5 00bd c8eb 383d 2cc0 bdbb 37e0 b1bd
00000380: 8c57 70bd 88af ce3c 17a6 b23c 85bd f1bd
00000390: c2b0 de3d 30a7 cfbd 7014 9e3d 1aea 87bd
000003a0: 4e9d cb3c ffb5 57bd c05e 73bd b9fd 50bd
000003b0: ee43 b1bd 5bea 10bd aeb4 be3d 4056 7c3b
000003c0: 597a 803d c7f0 603d 9a96 5b3d a755 913b
000003d0: f46f d5bd 05cc d2bd 7008 d8bc f484 e13d
000003e0: b872 c3bd e8e5 10bd c481 a33d cc35 06bd
000003f0: 9da6 a4bb 20af 64bd e768 9c3d 8c93 4fbd
0.112922885 -0.028895207 0.10069685 -0.06866155 -0.0004196614 -0.11041097 0.0019795266 -0.015229407
-0.10402228 -0.11386436 -0.09245622 0.010371938 0.09117696 -0.092961594 -0.007566765 -0.041192606
0.09734407 0.041479334 0.10034696 0.10748392 0.065565825 0.10852574 -0.094963714 0.005731969
0.05935058 -0.08599092 0.07906733 -0.058006823 0.09778136 -0.06455243 -0.011994405 0.0005068536
-0.0048363656 0.08035328 0.043634858 0.06603094 0.0072941096 -0.03819421 0.05090612 0.050743237
0.11434609 0.051766526 0.09081933 0.044411432 0.06072527 0.11532581 -0.06729629 0.07616213
0.120879464 -0.013249141 -0.09760342 -0.10148285 0.08196943 0.09561354 -0.008740813 0.034714684
0.05077845 0.08857791 -0.09620184 0.12106033 0.12883551 0.10230778 -0.03576353 0.0740257
0.047795497 -0.0021995334 -0.12572487 0.022033416 -0.09364763 -0.028443709 0.0136198215 -0.024641994
-0.042485 0.069592565 -0.021027043 0.0785736 -0.011787093 -0.09802337 0.077449165 -0.053121865
0.018033996 -0.06021989 -0.12758791 -0.05142288 0.021276042 0.121614024 0.09063374 0.0077453637
0.071116656 -0.04287764 -0.13945748 0.11988139 0.11298703 -0.08164029 0.038456433 0.08813521
-0.065561846 0.016155256 0.0819963 0.016497158 -0.09626658 0.068091035 0.09669505 0.083914004
0.092643104 0.10550324 0.024456948 -0.12036066 -0.006108567 -0.033826627 0.06645697 0.08434467
0.03923445 0.06315341 0.10532346 -0.1005876 0.039929736 -0.13664089 0.11140853 0.008670479
0.0018547326 0.018859789 -0.0702112 -0.024745584 -0.06028112 0.084668934 0.021455038 0.102440484
0.051941648 -0.07005362 0.05945371 -0.0797531 0.06912501 -0.11878741 0.067743 -0.110357866
-0.101166904 0.10934113 -0.043413952 0.03789918 0.004977584 -0.055892795 0.06972979 0.09589377
0.0037892908 0.025180355 -0.04575929 -0.055595666 -0.12097275 0.09860438 0.0052126646 -0.007307783
-0.06673226 -0.103700146 -0.055560693 0.022922277 0.0703904 -0.047666684 -0.080460384 0.08066642
0.041715965 -0.027175263 0.041173592 -0.056692585 -0.020581841 0.12318823 -0.06738047 -0.117894694
0.09293942 0.08366074 -0.09317702 -0.08923483 -0.118281186 0.10054687 -0.0973025 0.11470054
-0.040765926 0.026531294 0.052068144 -0.04752411 0.0526644 0.06813498 0.06067328 0.090712994
-0.0065529197 -0.08223091 0.09280905 -0.10017493 0.05040753 -0.050989717 0.04633549 0.022932634
-0.10382239 -0.11993406 -0.12874101 -0.067824826 -0.040245935 -0.104318574 -0.12384619 -0.10060853
0.06154695 -0.049750634 0.12092842 -0.05526395 0.094995745 -0.003137216 0.11118548 0.053669646
-0.056643143 0.02002356 0.077995256 -0.063075125 0.12161583 0.08530241 0.06730379 0.06170761
0.114357024 -0.04686255 -0.023762982 -0.08416875 -0.03140749 0.045146734 -0.005790731 -0.08685344
-0.05867724 0.025230184 0.021807713 -0.11803726 0.108735576 -0.1013931 0.07718742 -0.06636448
0.024855282 -0.0526638 -0.059416533 -0.05102322 -0.08655535 -0.03537975 0.09311806 0.0038503557
0.06273336 0.054917123 0.05361042 0.0044352594 -0.10421744 -0.1029282 -0.02637121 0.11011687
-0.09543365 -0.035375506 0.07983735 -0.03276615 -0.0050247447 -0.055831075 0.07637196 -0.05067782

risk_head.0.bias f4 [32]
00000000: d85f d83d d7c1 e9ba 0049 cdbd 507c 8b3d
00000010: 4891 783d b0ce 5e3d 8678 993c c882 f93d
00000020: c2e3 9e3d a8ba 7ebd 7ab1 393d f79f 60bd
00000030: 8c5f 053d 32c6 9abd 7f6c e4bc 2da6 d93d
00000040: 451e 9cbc 8ad3 9bbd 9315 563c c09e 69bd
00000050: 825d 873d 9e0e edbd e0a8 ab3c 37d4 dbbc
00000060: b02a bfbd 26e7 fdbd bdc4 d63d 0970 113e
00000070: 5479 c33d a778 cabd 3484 9a3d 2884 bcbd
0.10565156 -0.0017834258 -0.10023689 0.0681082 0.060685426 0.05439633 0.018734228 0.12183148
0.07758285 -0.062189728 0.04533527 -0.054840054 0.032561824 -0.07557334 -0.027883766 0.10627399
-0.019057402 -0.07608707 0.013066667 -0.05703616 0.06609632 -0.11575054 0.02095455 -0.02683459
-0.09334314 -0.12397604 0.104867436 0.14202894 0.09544626 -0.09886294 0.07544747 -0.09204894

risk_head.2.weight f4 [10, 32]
00000000: 7276 41bd 4bde 193e 8faf 1cbe 8f05 a33d
00000010: 1a09 8bbd 81e9 823b 2368 2dbe f8a5 28be
00000020: ca15 a83d 55a3 febd caa1 843d 06f9 ac3d
00000030: 2b65 d13d 0531 123e 8296 fc3d d6c7 adbb
00000040: 6f79 bf3d 90e5 263e 10f5 ff3d bea2 6cbd
00000050: e24b 3fbc 595f 03be d318 85bd 44be e0bd
00000060: 8938 443d 0996 143d df80 c6bd 28be 2ebe
00000070: ebe7 1bbd fe32 0a3e 8f0e f6bc 5ff2 913c
00000080: 61e2 2b3d 7fb6 2cbd 9fcb 423d e8dc 6a3d
00000090: 0090 0cbe fc84 213e 307c 1f3e 1c5a 0f3d
000000a0: 7475 72bc 37da f33d cbe6 e33d aeb9 5ebd
000000b0: c9b4 aabd 5df4 d2bd c308 313c bc97 04bd
000000c0: 11ce ef3c 46b7 26be 4082 883d 816f 14be
000000d0: 5cdf fd3d 0b63 d6bd 5e03 ff3d 4283 9e3d
000000e0: 6b37 06be 2959 c6bc cd86 23bd 7e67 173d
000000f0: b5de 0b3e be47 583d a405 06be 5388 2fbe
00000100: bda1 633d bfd2 0d3e 1ae9 f8bd be48 e93c
00000110: 98d3 f43d 6508 2e3e 8cb5 d4bd 4dde d13d
00000120: 66ef 133e 3e1b ab3d acc2 49be 7084 d2bd
00000130: 6f90 05bd 52d8 febd d3cc 0cbe 7955 013e
00000140: 453f 07be dfb3 8f3d 398b 76bc addf 1bbe
00000150: 1968 0f3e 55cb 8ebd fc91 22bd 1fe0 a53c
00000160: ea2c 033e e9d0 97bd cdc0 a0bd e8ec 1c3e
00000170: db2f a5bd f3ab 153e 4d94 d73c e8f5 f63d
00000180: e018 1abe 8060 2e3d e2f2 153e 0a2e 523d
00000190: 39f8 c23d 148e 3abc b038 e83c 30fd 08be
000001a0: 3030 383d 32ff 2cbe da74 8dbd 8888 c2bd
000001b0: 85fd 27be 5ee1 a23d a4dd 213e d0a0 cdbc
000001c0: e81d cc3c 782b 30bd b6e6 34be 0572 ccbd
000001d0: c858 11be b090 e23d cf75 a2bc e518 3dbe
000001e0: c7ce 023e 70bc febc f23a 113e a9b6 1b3e
000001f0: 7e57 cf3c b9ba 81bc 8a07 db3b 9a46 803d
00000200: 400f 083e cc5d e6bd abd7 b53d 9ed2 d4b9
00000210: 78cf b4bd 35ba 243e 8130 b83d bb90 30be
00000220: 84a8 76bd 546a a5bb d686 47be ed31 fabd
00000230: dde0 e13d b9d6 5abd bdaf 603c c840 bc3c
00000240: 1894 cf3a df60 183d 8ed6 af3d 2324 51bd
00000250: 9dcd 1cbe 4b85 aabd 6211 0b3e 80b0 16be
00000260: a3a7 59bd 36e6 05be 0963 27bd 9205 b5bd
00000270: b7e7 c73d 70c6 043c 8ac1 9cbc 752a 023e
00000280: c2b6 bcbd 69e5 1abe e8af 993c f46d ee3d
00000290: 87cb 323d 911f 333d 8a31 7f3d d031 053c
000002a0: c470 15be c9cf 83bd c4cd 07be e8cd 933c
000002b0: 4442 913b 3abc 45bd de2a dd3d 22ab ba3c
000002c0: 8548 103d fb64 1bbe cc00 3abe e532 073e
000002d0: 730a 08be 5c97 113e 1575 00be fa7f 1e3d
000002e0: c31c fa3d ce0d 2fbe bb71 283e 1be7 2ebe
000002f0: 2e11 163d 9166 0bbd 5e9c 32bd 4a75 9abd
00000300: 0b5d 483d 6e12 233e 1a5b 043e e431 20bd
00000310: 3b41 31be 4eaa 14be 98d4 40be 710b 80bd
00000320: 3915 253d b4b5 2fbe 5647 153e 4a6b 64bc
00000330: 0a2b f13d fc1e b63d a502 2cbd 5aba 9dbd
00000340: 2284 03bd 6c00 31be 7386 e63c efe6 ad3d
00000350: d7f0 cdbd d267 01be 2591 c8ba 9f65 7abc
00000360: 8a0e 31be 27ee 803d d5cc 2cbd 0eee b83d
00000370: 7885 0cbe e2ee 24bd a896 6c3c 2f24 0dbe
00000380: 1fd7 f7bc ec09 0c3c 2b13 ccbb b2e1 94bd
00000390: 8754 49bd 2ef3 993d dc25 3bbd 1c33 e93c
000003a0: 4389 f5bd 5abb 543d 1a12 9e3d 3ac9 c0bd
000003b0: c8ff 03bd b2cf 1d3e 8109 24be e682 a93d
000003c0: 96d7 edbd 9f59 233e e492 0fbe ab6f 8d3c
000003d0: f367 22bd 06b3 d43c 1068 873d 86e9 f0bd
000003e0: 86bf 05bb 5d65 2dbe 3690 0f3e aafd 18be
000003f0: 3f33 1bba d46a cdbc a0e7 0f38 a5e3 bf3d
-0.0472321 0.15026204 -0.15301345 0.079600446 -0.06788845 0.003995121 -0.16934256 -0.16469562
0.08207281 -0.12433497 0.06476171 0.08445935 0.102243744 0.14276512 0.123333946 -0.0053033633
0.093493335 0.16298509 0.12497914 -0.05777239 -0.011675807 -0.12829341 -0.064988755 -0.1097379
0.04790548 0.036275897 -0.09692549 -0.17064726 -0.03806297 0.13496014 -0.030036239 0.017815767
0.04196394 -0.04216623 0.04755747 0.05733958 -0.13726807 0.15773386 0.15574718 0.034998044
-0.014798511 0.119068556 0.11128005 -0.054376297 -0.08335263 -0.10300515 0.010805312 -0.032371268
0.029273065 -0.16280851 0.06665468 -0.1449566 0.12396118 -0.1046811 0.12451814 0.07739879
-0.13107078 -0.024212437 -0.039923478 0.036963932 0.13659175 0.052802794 -0.13088089 -0.17141847
0.055574168 0.13849925 -0.121538356 0.028477069 0.11954421 0.1699539 -0.1038619 0.10247479
0.14446792 0.083548054 -0.19703168 -0.10279167 -0.032608446 -0.124436036 -0.13750009 0.12630261
-0.13207729 0.070167296 -0.015047842 -0.15222044 0.14004554 -0.06972376 -0.039690003 0.02024847
0.12810102 -0.07412893 -0.07849274 0.15324748 -0.08065768 0.14616375 0.026315833 0.12058622
-0.15048552 0.0425725 0.14643434 0.051313438 0.09520001 -0.011386413 0.028347343 -0.13377833
0.04496783 -0.16894224 -0.06907053 -0.094986975 -0.16405304 0.07953142 0.15807205 -0.025101095
0.024916604 -0.043010205 -0.17666134 -0.09982685 -0.14194024 0.11062753 -0.019831566 -0.18466528
0.12774192 -0.031095713 0.14182642 0.15206398 0.025310274 -0.015836107 0.0066842483 0.06263466
0.13287067 -0.11248359 0.08879026 -0.00040592713 -0.08828634 0.16086657 0.089936264 -0.1724271
-0.060219303 -0.0050480757 -0.1948503 -0.12216554 0.110292174 -0.05342743 0.013713774 0.022980109
0.0015836982 0.03720176 0.08585845 -0.051059853 -0.1531281 -0.08326205 0.1358085 -0.14715767
-0.053138386 -0.130761 -0.04086593 -0.08838953 0.09760993 0.008103952 -0.019135255 0.12711509
-0.09214546 -0.15126576 0.018760636 0.11642066 0.04365113 0.043731276 0.062303104 0.008129552
-0.14593798 -0.06436116 -0.13262087 0.01804252 0.0044329483 -0.04827521 0.10799192 0.02278668
0.03522541 -0.1517524 -0.18164366 0.13203008 -0.13285236 0.14217895 -0.12544663 0.038696267
0.12212517 -0.1709511 0.16449635 -0.17080347 0.036637478 -0.03403336 -0.043606155 -0.07541902
0.048916858 0.15924999 0.12925377 -0.03911008 -0.1731004 -0.14518091 -0.18831098 -0.06252182
0.040303443 -0.17159158 0.14577994 -0.013941595 0.11775787 0.088926286 -0.04199471 -0.07701559
-0.032108434 -0.17285317 0.028140282 0.08491313 -0.10055702 -0.1263726 -0.0015302046 -0.015283017
-0.17290702 0.06295424 -0.04218753 0.0902978 -0.1372279 -0.04026688 0.014440216 -0.13783334
-0.030253945 0.008547287 -0.006227871 -0.072696105 -0.049152877 0.07517086 -0.045690402 0.028466754
-0.11989071 0.051936485 0.07718296 -0.09413381 -0.032226354 0.1541126 -0.1601925 0.0827692
-0.116133854 0.15952156 -0.14020878 0.017265161 -0.039649915 0.025964271 0.06611645 -0.11763291
-0.0020408346 -0.16933198 0.14019856 -0.14940515 -0.0005920417 -0.025075354 3.4309574e-05 0.093695916

risk_head.2.bias f4 [10]
00000000: 28cc 293c bacf 80bd 6e28 40be 8fe0 ddbd
00000010: b452 d43d 3f18 05bd 0094 043e 4394 4abd
00000020: de89 393d 544b 06bd
0.010363616 -0.06289621 -0.18765423 -0.10833847 0.10367337 -0.032493826 0.12947083 -0.0494578
0.045297496 -0.032786682
