backend/best_risk_score_model.pt (torch, 32571 bytes, 11 tensors)

shared.0.weight f4 [32, 6]
000000 94 68 83 3e f7 dd 0e be cc b9 3f 3c 26 24 08 3e
       0.25665724 -0.1395186 0.011702012 0.1329504
000010 8c 1f 3f 3c c0 d2 a3 3e f8 2b c5 be db 4e cf bd
       0.011665236 0.31996727 -0.38510108 -0.10122462
000020 5b 33 a2 3e 35 11 2c 3e fc c7 5b bd 05 86 c4 3e
       0.31679806 0.16803439 -0.053657517 0.383835
000030 19 80 c9 3e 67 01 7c 3e 3f 9d ae be 83 f4 2b be
       0.39355543 0.2460991 -0.34104344 -0.16792493
000040 80 04 18 3e 2b 50 98 3d 4b cf 19 bd 2c be 0c be
       0.14845467 0.07437166 -0.037551206 -0.1374442
000050 ab 3c 70 3d 51 b3 79 3e e8 50 a5 3e 81 dc 3c be
       0.058651607 0.2438481 0.3228829 -0.1844349
000060 60 d2 64 bd 7c 77 71 bc f0 4c bd 3e 6a b2 c0 3e
       -0.05586469 -0.01473796 0.3697276 0.3763612
000070 1a a2 f3 bd 46 df 80 3e a8 08 37 bd 3d 2b ca be
       -0.11896153 0.25170344 -0.04468599 -0.39486113
000080 6a cf 25 be d5 fb 94 3e 4b 2d 11 3e cb 7e 07 3e
       -0.16192403 0.29098383 0.14177434 0.13231961
000090 06 d3 d5 3e 40 a1 d3 3e 6a 91 3f bb b9 77 85 bd
       0.4176256 0.4133396 -0.002923096 -0.06516976
0000a0 d7 73 9d be 20 da 22 bd a6 51 47 3e 5e 45 37 be
       -0.3075244 -0.0397588 0.1946474 -0.17897555
0000b0 4a 3a 83 3e b7 d8 00 be aa 0c 03 3d 99 73 b4 3e
       0.2563041 -0.1258267 0.0319945 0.35244444
0000c0 4d d6 53 3e 5e d0 c6 3d 5a e9 45 bd 20 43 c0 3e
       0.20687218 0.09707712 -0.048318245 0.37551212
0000d0 32 d5 68 be 71 a7 46 be d2 ab 94 3e 67 f7 b0 be
       -0.22737578 -0.19399811 0.29037338 -0.34563753
0000e0 42 1e 59 be 25 8e 99 3e d4 d1 54 3e d8 03 d3 bd
       -0.21202949 0.2999126 0.20783168 -0.103034675
0000f0 3f 7e c0 3e 71 60 ab 3e ea 6d 85 bd 28 6d 6c 3e
       0.37596318 0.33472016 -0.06515105 0.23088515
000100 bd 6c b7 3e 18 d3 be 3e 9a 8e 0a 3e ed 94 a5 3e
       0.35825148 0.37270427 0.1353096 0.32340184
000110 26 10 cf 3d 1b 36 81 3d a2 06 15 be 87 70 40 be
       0.10110502 0.06309148 -0.14553311 -0.18792926
000120 a0 74 67 be 67 0c bf 3d e6 9f 97 be 66 5a 06 3e
       -0.22603083 0.093285374 -0.2961418 0.13120422
000130 ef a9 69 3e 59 7c 21 3e cf 92 ce 3e eb 86 fd bd
       0.22818731 0.15770091 0.4034638 -0.12379249
000140 ef 58 52 3e ef 2a 82 be c5 6b 27 3e 89 2c c1 3e
       0.20541738 -0.2542338 0.16349705 0.3772929
000150 3b 98 47 be c3 f0 9a 3e 03 49 99 be 4e c4 ca be
       -0.19491665 0.30261812 -0.29938516 -0.39602894
000160 0f 5f bd be 7b 25 9c 3d 63 7a ae bd a8 d1 33 3e
       -0.36986586 0.07624336 -0.08519437 0.17560446
000170 94 75 5f 3e 67 24 c5 3e e3 61 ab 3e 0c ed aa 3e
       0.21822196 0.38504335 0.3347312 0.33383977
000180 b1 b5 a5 3d 28 37 00 be 6c 46 6f 3d 29 c4 9d be
       0.080912955 -0.1252104 0.05841677 -0.3081372
000190 58 55 bc 3e c7 46 78 3c 11 2d 2b be 04 e7 79 3e
       0.36783862 0.015153593 -0.1671641 0.24404532
0001a0 2d 66 84 be fb e2 f1 3d bf 08 c0 3e 31 e0 95 be
       -0.25859204 0.11810871 0.37506673 -0.29272607
0001b0 17 87 a6 be 7a f2 42 3e d0 24 b3 3d 98 02 8f be
       -0.3252494 0.1903781 0.08747256 -0.27931666
0001c0 c0 4f 96 3e 3b 03 70 3e 5a 1d e4 bd 10 84 67 3e
       0.2935772 0.23438732 -0.11138411 0.22608972
0001d0 13 b4 bc 3e cd d0 85 3e 6a 47 9f be 94 de c4 bd
       0.36856136 0.26135865 -0.31109172 -0.09612766
0001e0 2d 80 6a 3c 2b 84 a1 3e 32 9a 55 bc 19 27 4b 3d
       0.014312786 0.3154615 -0.013037251 0.049597833
0001f0 13 35 c3 bc d2 25 94 3e 0f 71 00 3d 46 cf 3c be
       -0.023829019 0.28935105 0.03135782 -0.18438444
000200 9b 5d f7 3c 60 91 3b 3e 39 94 a4 3e 6c 71 43 be
       0.030196002 0.18317175 0.32144335 -0.19086236
000210 b8 79 4f 3e fe 37 43 be aa 44 9f bb 0c 1a 2c be
       0.20261276 -0.19064328 -0.0048604803 -0.16806811
000220 db 1a 90 3e 9e 44 c4 bd 3e 26 a7 be 78 a7 84 bd
       0.2814549 -0.095834 -0.32646364 -0.06477255
000230 74 b9 b3 3d 10 56 65 bd 85 e4 14 be 34 e8 a4 3e
       0.08775607 -0.05599028 -0.14540298 0.32208407
000240 e7 c9 5c be d3 7c 9d 3e 14 62 61 be 1f 26 c8 3e
       -0.21561395 0.30759296 -0.2201007 0.39091584
000250 6c 34 0e be cd 15 05 be a9 38 60 bd cd 57 2d be
       -0.13887185 -0.12996598 -0.054741535 -0.16928025
000260 0b be 7c bd 47 b0 cc be 72 1f bc 3e 8b b0 a8 3d
       -0.061704677 -0.3997824 0.3674274 0.08236798
000270 22 fe cc be 2b b3 cb be 15 4d cd be d5 3f 0b bd
       -0.40037638 -0.39785132 -0.4009787 -0.03399642
000280 29 f4 1f be 4a a5 9b bd 25 87 5f be 83 56 a8 3d
       -0.15620483 -0.07599886 -0.21828897 0.08219626
000290 97 fd 7a 3c 20 d6 f7 3d 69 03 55 be d6 d3 c7 bd
       0.01531925 0.12101388 -0.20802082 -0.097572014
0002a0 20 8c 60 3e 8f cb 0a be 30 06 2d be 6c 62 a7 bd
       0.21928453 -0.13554214 -0.16896892 -0.08173069
0002b0 07 58 88 3d d3 b7 80 3d 6e c4 12 bd 7c 27 1f be
       0.06657415 0.06285062 -0.03583186 -0.15542406
0002c0 13 f3 3f 3e 5b 68 9f be 51 3a 2a be 14 6f d1 3d
       0.18745069 -0.31134304 -0.16623808 0.102262646
0002d0 73 29 a6 bd 50 d3 ce 3e 3d 4e ca 3e d2 16 bd 3e
       -0.081133746 0.40395594 0.39512816 0.36931473
0002e0 9c 96 8d 3e ea 37 c6 be aa 28 b3 bd 07 e8 38 3c
       0.27653968 -0.38714534 -0.087479904 0.011285788
0002f0 82 1c a5 be dd d8 50 be 0e ff aa 3e 99 a1 fc 3a
       -0.32248312 -0.20395227 0.33397716 0.0019274234

shared.0.bias f4 [32]
000000 d7 02 a2 bd b2 ca 64 3c fd b0 8a bd da b3 a2 be
       -0.07910698 0.013964342 -0.06772039 -0.3177784
000010 c1 04 f1 bd 53 60 56 3e f3 21 7e 3e a1 e9 da 3d
       -0.11768485 0.20935182 0.24817638 0.106890924
000020 10 68 61 be 5b d7 82 bc 17 2e 8f bd 54 79 aa 3e
       -0.22012353 -0.01597183 -0.06991213 0.3329569
000030 3d 77 95 be 61 ac 56 be 97 e1 06 3d 36 32 3b be
       -0.29192534 -0.20964195 0.032929983 -0.18280873
000040 32 bb 8e 3e d2 94 d5 bd 36 a7 a5 be e6 9c cb 3c
       0.27877194 -0.10428776 -0.32354134 0.024855088
000050 33 52 aa 3c 18 8e a2 bd 6a 07 68 be 9c 16 92 3e
       0.020791149 -0.079372585 -0.22659078 0.28532875
000060 ef 71 39 be 5c 89 0c be 6a 5e d9 3d 1f f7 c8 bd
       -0.18109868 -0.13724273 0.10613711 -0.098127596
000070 c7 ab 90 bc 75 2e f7 3d 47 85 71 be c4 ac 93 3e
       -0.017660035 0.12069408 -0.23585998 0.28842747

shared.2.weight f4 [64, 32]
000000 2b 19 9f bd 5a 86 84 bd a5 81 12 3e cb 77 0b be
       -0.07768472 -0.06470938 0.14307268 -0.13619916
000010 df 34 2f 3b 42 21 1d be 9b c7 68 3d 9b 13 bd bd
       0.0026734394 -0.15344718 0.056830984 -0.09232255
000020 7f 48 25 3d cf 72 e5 3d 00 d4 8a bd 40 6e ac 3d
       0.04035234 0.112035386 -0.06778717 0.08419466
000030 02 72 34 3e aa 7f 12 be 28 9f cc 3d cc c9 e6 bd
       0.17621616 -0.14306512 0.09991294 -0.112689584
000040 f7 3d 07 3e c7 ff 2d be a1 fa 03 3d 7a ec 95 bd
       0.13207231 -0.16992103 0.03222144 -0.07320495
000050 f2 17 9e bd 38 9f ea 3d 09 8b 06 3e 89 82 b2 bc
       -0.07719411 0.1145615 0.13138975 -0.02179076
000060 53 33 43 3d c6 54 9a bd 71 9e dc 3d bc 06 02 be
       0.04765637 -0.075357005 0.10772408 -0.12697881
000070 bf da a8 3b 90 9d df bc e9 3f b8 bd 7e 73 02 3e
       0.0051530297 -0.027296811 -0.08996565 0.1273937
000080 51 8c b7 bd 51 33 bd bb 69 85 8a 3d 57 59 03 3e
       -0.0896231 -0.0057739397 0.06763727 0.12827049
000090 bd ca db 3d ce c9 fa 3d 51 38 17 bd 11 6c f5 3d
       0.10732029 0.122455224 -0.036918942 0.11983503
0000a0 f7 94 2f 3e f1 60 13 bc ac 4a 08 3e 71 0f 98 3d
       0.1714667 -0.008995281 0.13309735 0.0742482
0000b0 12 13 16 3e 01 ae 2c 3d e4 1c 1e 3d 99 58 a9 3c
       0.14655712 0.04215813 0.03860177 0.02067213
0000c0 c5 a0 c7 bd 87 9a d8 3d 11 25 2d be 84 ba 4e 3d
       -0.09747461 0.10576349 -0.16908671 0.050470844
0000d0 b9 17 21 be df a3 b6 3d 71 b2 9d bd c7 29 0d 3d
       -0.15731706 0.08917975 -0.077000506 0.03446367
0000e0 e8 dc 02 be ae c6 f3 3c 85 cf 49 bd b4 6f f8 bc
       -0.12779582 0.029757824 -0.04927017 -0.030326702
0000f0 7b 12 ea 3c 80 4b 1e bd 77 47 00 be 21 b1 9a bd
       0.028573265 -0.03864622 -0.12527262 -0.07553316
000100 36 2d 17 3e 1e 89 85 bd 08 a1 45 bd 6f d4 15 be
       0.1476334 -0.06520294 -0.048249274 -0.14631818
000110 49 54 ea 3c 2c 64 a7 3d 26 ca 35 3e f0 5d 5a 3d
       0.028604643 0.08173403 0.17752895 0.053312242
000120 c4 d1 1a be ba 0a e4 3d 42 59 f0 bd fd 15 f7 bd
       -0.15119082 0.111348584 -0.117357746 -0.12064741
000130 b0 88 64 3c a7 1c e3 3d bc e2 18 3e fc d6 8e 3b
       0.013948604 0.110894494 0.14930242 0.004359124
000140 4d 35 31 3d 6b f1 e6 bc de 47 12 3e bf 51 cc bd
       0.043263722 -0.028191289 0.14285228 -0.09976529
000150 cc c4 e4 3d 6e b6 aa 3b 14 c8 88 3d 7a f0 af 3d
       0.111703485 0.0052097356 0.06678787 0.08590789
000160 84 07 7c 3c 2c ba 65 3d 76 a2 c1 bd 0f 7e 94 bb
       0.015382651 0.05608575 -0.09454815 -0.004531629
000170 82 83 38 3d dd 73 20 be d0 46 22 3c d9 35 fd 3d
       0.04504729 -0.15669198 0.009904578 0.12363786
000180 54 6f 8a 3d ad 40 94 3c dc 74 06 be fa d9 13 be
       0.067595154 0.018097246 -0.13130516 -0.1443862
000190 8c 57 34 3e b6 3c f8 bd e0 fd 2d be e8 50 48 bd
       0.17611521 -0.12120955 -0.16991377 -0.048905283
0001a0 b7 15 a5 bd 1a dc 95 bd 1b 72 e0 3d 6f ca 67 3d
       -0.080607824 -0.07317372 0.10959264 0.05658954
0001b0 2d a4 a3 3d ae e3 05 be d5 f8 b1 bc d4 e2 8f 3d
       0.079902984 -0.13075134 -0.021725098 0.07025686
0001c0 8b d8 bf 3d 2a dc 4c 3d ec b5 1b be a3 42 2a 3d
       0.09367474 0.050014652 -0.15206116 0.041567456
0001d0 7a 11 0a be 26 ca b2 bd 20 ce ae 3d 1a 5e 10 3e
       -0.1348323 -0.08729963 0.08535409 0.14098397
0001e0 23 a3 da 3d c7 7b 09 3d 72 07 ca bd 46 6c 1e 3e
       0.10675647 0.03356531 -0.09864701 0.1547099
0001f0 d1 d4 0c 3e c6 b3 32 bd 31 84 85 3d 16 38 da 3d
       0.13753058 -0.043628477 0.06519354 0.10655229
000200 c6 c9 b6 3d f9 3e af 3d 1c 25 2d be 60 b7 d4 3d
       0.08925204 0.08556933 -0.16908687 0.103865385
000210 e4 1d 20 be ca 6b 12 be d6 d7 bb bd 8b 05 e8 3c
       -0.15636402 -0.14298931 -0.09172027 0.028322956
000220 de 4a 07 be ee 86 6b bd d1 e8 0f 3d 86 a8 1e bd
       -0.13212153 -0.057501726 0.03513414 -0.038734935
000230 a2 eb e7 3d d4 b4 e8 bd 0d 0d 0a be 41 34 f1 3d
       0.1132424 -0.11362615 -0.13481541 0.11777545
000240 11 a8 25 bd 9b db c1 3d 2d 5f d8 3d 15 e2 28 be
       -0.040443484 0.094657145 0.10565028 -0.16492493
000250 87 fa aa bd b3 25 03 3e 1e a7 13 3e 1c f7 05 be
       -0.083485655 0.1280735 0.14419219 -0.13082546
000260 a0 87 69 3d 09 03 a7 3d 8f 25 9d 3d d7 19 0a be
       0.057014108 0.08154876 0.07673179 -0.1348642
000270 74 9e 12 3e 04 ee d7 3d 01 37 ed bd 33 4f 86 bd
       0.14318258 0.10543445 -0.11582757 -0.06558075
000280 23 5a a8 bd 93 dd 23 3d a4 86 bf 3d 68 36 e7 bd
       -0.08220317 0.04000623 0.093518525 -0.11289674
000290 6b 84 11 be fa 27 ac bc e4 a8 bf bd 00 7a 6b bc
       -0.1421067 -0.021015156 -0.09358385 -0.014372349
0002a0 64 3a b9 3d 61 92 e2 3b e8 de 07 3e 5c 5d ec 3d
       0.0904434 0.0069144224 0.13268626 0.115412444
0002b0 35 36 e9 3d 89 c1 ff 3d 64 88 cd 3c 2a d4 05 be
       0.11387292 0.12488086 0.02508945 -0.13069215
0002c0 a9 d9 0a be f5 dc 05 bd 49 89 13 be 2d 90 e9 bd
       -0.13559593 -0.032681424 -0.14407839 -0.114044525
0002d0 71 97 05 3e 9d 8e 20 3d e9 ce ef bd 7f 26 41 3d
       0.13046052 0.039198507 -0.11709387 0.047155853
0002e0 8c ad 83 bb 12 8d 03 3e ce 30 fc bd 18 40 ae bd
       -0.004018491 0.12846783 -0.12313996 -0.08508319
0002f0 5f bb 0d be bb b0 d3 3d 50 23 2c 3d 83 d1 b7 bd
       -0.13841008 0.10336443 0.042025864 -0.08975508
000300 0a b8 2e bb d7 d0 02 bd 32 db 08 3d 36 41 2c bd
       -0.0026659989 -0.031937446 0.033412166 -0.042054377
000310 62 31 d3 bd c1 68 5c 3d d4 4c 31 3c e4 ad 96 bd
       -0.103121534 0.05381084 0.01082154 -0.07357386
000320 20 fd 2e 3e 1d 0e 17 3e 54 01 31 be ac ce 2f be
       0.17088747 0.14751478 -0.17285663 -0.17168683
000330 d3 a9 31 be 85 39 8b bd 96 fd f8 3d e9 34 6e bd
       -0.17349939 -0.0679808 0.12157743 -0.058155928
000340 90 cf d6 3c c7 33 2d be e6 7a c9 bd 2f 60 1e 3e
       0.02622202 -0.16914283 -0.09837894 0.15466379
000350 9a ea ad 3d 41 81 1e be 61 dc 26 be 97 dc 9d bd
       0.08492012 -0.15478994 -0.16295005 -0.0770809
000360 ab 3e ca 3d cf d7 04 3e 31 e8 29 3d 97 bf 2f bd
       0.09875234 0.1297295 0.0414812 -0.042907324
000370 11 32 ba bc 23 fc 05 3e 6d 3f ff bd 72 75 1d 3e
       -0.022728952 0.13084464 -0.124632694 0.15376833
000380 69 c5 a5 bd 78 72 0c be 2c d7 f6 bc 81 56 8c 3b
       -0.080942936 -0.13715541 -0.030131899 0.004282773
000390 cb 89 a9 3d 1a c1 f1 3d 1d 82 cd bd a2 71 ad bd
       0.08278235 0.11804409 -0.10034583 -0.08468939
0003a0 55 43 02 be 35 0a ad 3c 6a d2 0b be ff 3e 2d 3e
       -0.12720998 0.021123031 -0.13654485 0.16918562
0003b0 6e 43 02 be da cf 38 3d a2 16 1f 3e 51 c2 f9 bc
       -0.12721035 0.045120098 0.15535977 -0.030488165
0003c0 41 62 32 be 87 e2 22 be 33 90 ba bc 64 a4 0b 3e
       -0.17420293 -0.15906726 -0.022773838 0.13636929
0003d0 0d c3 0b be 78 15 15 be 26 e5 19 be 8e 0e 47 3d
       -0.13648625 -0.14558971 -0.1502882 0.048597865
0003e0 c4 c4 65 3d c2 33 6a 3c 9f 03 8b bd 70 bd a0 bd
       0.056095853 0.014294567 -0.067878 -0.07848632
0003f0 67 0a 29 3e 6d 4d c6 3d 4f 9a 08 3e 29 63 af bc
       0.16507874 0.096827365 0.13340114 -0.021409588

shared.2.bias f4 [64]
000000 b5 61 b4 3d 90 e5 12 3d 94 7a 1f 3d 7d 62 15 be
       0.08807699 0.03586346 0.03893526 -0.14588352
000010 a1 11 90 3b 6c 1a 26 be dc b5 3d 3c 0a bb c0 bc
       0.004396633 -0.16221017 0.011579003 -0.023526687
000020 ab f5 01 be ef 30 20 3e df 63 f3 3d 1f d4 39 bd
       -0.12691371 0.15643667 0.11884283 -0.04536831
000030 18 46 ec 3d bc 3e 82 3b ac fb 85 bc 8a 48 0d 3e
       0.11536807 0.0039747637 -0.016355358 0.13797203
000040 33 52 9c bd ee 97 30 3d 60 c0 df bc 8f 42 03 3e
       -0.07632866 0.04311364 -0.027313411 0.12818359
000050 c9 ce bd bc eb 26 fe 3b aa 7a 23 3d a4 80 1c 3e
       -0.023169892 0.007756104 0.039911903 0.15283448
000060 89 29 b3 3d 02 fd 0e bd 46 c1 9c 3d 4d e7 88 bd
       0.087481566 -0.034909256 0.076540515 -0.06684742
000070 5e c6 bd 3d 00 cd c9 bc c8 9d d8 bd bc 8e af bc
       0.09266351 -0.024633884 -0.105769694 -0.021430366
000080 12 de 1f be e7 4b 4a bd 63 27 b7 bd 2f 77 4d 3d
       -0.15612057 -0.049388792 -0.08943059 0.05016249
000090 07 13 c4 bd 42 8c 01 3d 6b fe 15 3e c2 60 2d 3e
       -0.09573942 0.0316279 0.14647834 0.16931441
0000a0 ba 9b ad bd 9c f1 26 3e a1 e8 ae 3d b9 8b 6f bd
       -0.08476968 0.16303104 0.08540464 -0.05848286
0000b0 67 0a 11 bc 15 a9 26 be c2 96 1c bd ba 06 a3 3d
       -0.008852578 -0.16275437 -0.03822971 0.07960267
0000c0 b4 79 15 bc 50 e7 57 bd 92 b8 0a be 78 42 0a 3e
       -0.009123255 -0.05271083 -0.1354697 0.13501918
0000d0 56 3a 0e be f8 70 24 3d 7a e5 04 be 74 52 0e be
       -0.13889441 0.040146798 -0.12978163 -0.13898641
0000e0 54 88 aa 3c 58 6f 14 3e fe 22 bf bd df 05 88 bd
       0.02081696 0.144956 -0.09332846 -0.06641745
0000f0 bf 0b 3a 3e 57 11 11 be 77 f0 d8 bd 4d 08 08 3d
       0.18168543 -0.14166771 -0.1059274 0.03321104

index_head.0.weight f4 [32, 64]
000000 61 1d 46 3c 71 3f a3 3d dd ad 8f 3d 48 ae 73 bd
       0.012091965 0.07971085 0.07015584 -0.05949238
000010 8c ae 84 bd a0 b3 33 bc a0 3a d7 3c 80 d3 55 bb
       -0.06478605 -0.010968119 0.026273072 -0.0032627285
000020 e5 df c6 3c 53 5a 26 3d f8 06 ee 3c cf 5e 41 bd
       0.024276683 0.040613484 0.029056057 -0.047209557
000030 31 f0 79 bc d2 44 a7 3d 30 48 0b bc a9 45 da bd
       -0.01525502 0.08167423 -0.008501098 -0.10657818
000040 1e f1 cd 3d 9b 50 35 3b bd 04 2d 3d ca 3a 01 bc
       0.10055755 0.0027666453 0.042240847 -0.007887552
000050 fa d5 c6 3d 0f 69 de 3c 2b 27 9c 3d 55 04 08 3c
       0.097087815 0.027149705 0.07624658 0.008301814
000060 0b ed e0 bd 79 a2 db bd ef d3 c4 bd cb d0 3a bc
       -0.10982712 -0.107243486 -0.096107356 -0.011402319
000070 c0 b8 99 3c bc f7 91 bd 6a 75 26 3d d6 7a d5 bd
       0.018764853 -0.0712733 0.04063932 -0.1042382
000080 f6 a8 db bd 2a 32 92 bd f8 7c 17 3d 03 5f cc 3d
       -0.10725586 -0.07138474 0.036984414 0.099790595
000090 20 6f a0 3d 53 ad a6 3d c2 57 e8 3d 72 d8 92 bd
       0.078336954 0.08138528 0.113448635 -0.0717019
0000a0 00 10 c8 bb 7e 39 e3 3d e6 58 cc bd 06 a9 89 bd
       -0.006105423 0.1109495 -0.099778935 -0.06721692
0000b0 87 5e 21 bd 70 d7 d5 3d 5a 19 4b bb e8 69 e7 3d
       -0.03939679 0.10441482 -0.0030990453 0.11299497
0000c0 50 c5 3c bd f3 aa 9e 3c 67 17 16 3d 15 ce 07 3d
       -0.04608661 0.019368624 0.036643412 0.03315552
0000d0 f8 73 6c bd 1c c9 b2 bd 0a 2e db 3d 92 94 a5 bb
       -0.057727784 -0.08729765 0.10702141 -0.0050531114
0000e0 fb 09 05 be 12 45 06 be 5a 18 6a bc ca e8 af 3d
       -0.12992088 -0.13112286 -0.014288032 0.08589323
0000f0 a6 ac ab 3d 68 58 c9 3d 18 b6 9e bd 7e 0f b1 bd
       0.083825395 0.09831315 -0.077495754 -0.08645533
000100 66 de dd 3d ec d9 04 3d 86 c5 83 3d 1e 15 99 bd
       0.10833435 0.03243439 0.06434159 -0.07474731
000110 e4 03 cc 3d 58 76 ed 3c 04 39 a9 bd 50 bf 3f bd
       0.099616796 0.028987095 -0.08262828 -0.04681331
000120 00 c9 ab bd b4 08 7f bd 40 53 ff bb 9c b8 27 3d
       -0.08387947 -0.06226416 -0.0077919066 0.04094754
000130 40 1b f9 bd b0 9d 40 3d a8 8e 2e 3d 54 60 20 bd
       -0.12163401 0.047025383 0.042616516 -0.039154366
000140 10 02 97 3c 90 3c 9b 3c 80 0b 44 3b 40 79 3b 3b
       0.0184336 0.018949777 0.002991408 0.0028606206
000150 58 a9 c4 bd e4 f7 e9 bd a4 ce 90 3d c0 53 59 bd
       -0.09602612 -0.114242345 0.070706636 -0.053058386
000160 0c d0 ce 3d 28 9d 72 3d c8 fe dd 3c e8 5e dd 3d
       0.100982755 0.059231907 0.027099028 0.108091176
000170 e0 27 f4 3b 80 5a b7 ba 00 cd 40 bb 3c ce 6e bd
       0.0074510425 -0.0013988763 -0.0029419065 -0.05830215
000180 0c d1 80 3d d8 02 31 3d f8 7a 96 3c 10 81 4a bc
       0.062898725 0.043215603 0.018369183 -0.012359872
000190 a0 9f ad 3b 20 ba be bc 6a 0c df bd f6 cf ac bd
       0.00529857 -0.02328211 -0.1089104 -0.08438103
0001a0 50 83 80 3c 8c 3f b3 bd 5e 50 b5 3d ac 07 64 3d
       0.015687615 -0.08752355 0.088532194 0.05567138
0001b0 68 68 98 bc 94 64 06 3d 88 9a a8 bd 10 23 45 3c
       -0.018604472 0.032810763 -0.082325995 0.012032285
0001c0 12 1e 84 bd 6a b3 b6 3d 10 83 32 3d 4a 06 92 bd
       -0.06451048 0.08920939 0.043582022 -0.07130106
0001d0 bc a7 b6 3d 86 47 ba 3d 70 ac 1e 3c 8c d5 cb 3d
       0.089187115 0.09095673 0.009684667 0.0995284
0001e0 20 6b 24 bd a2 67 94 bd c0 74 1e bb 50 b8 c7 3c
       -0.040141225 -0.07246329 -0.0024178475 0.02437988
0001f0 20 be 73 bc da c7 8d bd 28 72 e2 3d 66 be d9 bd
       -0.014876872 -0.06922884 0.1105693 -0.10632019
000200 0e f7 c0 bd 38 ce 62 bd b4 50 b3 3d 14 fd e4 bd
       -0.09422122 -0.055372447 0.08755627 -0.11181083
000210 b0 ae 46 3c 20 5f db 3b 84 2f 76 3d b8 af b7 3c
       0.01212661 0.0066946894 0.06010391 0.022422656
000220 e0 2c 9c bb 30 e9 62 bd 50 1d c3 bc e0 ba 2f 3d
       -0.0047660917 -0.055398166 -0.023817688 0.042902827
000230 34 50 8a 3d a8 93 88 bd f0 5c 03 3c a6 12 cf 3d
       0.06753579 -0.06668788 0.0080177635 0.10110979
000240 d2 f6 a9 bd ca cb 9b 3d 04 f0 45 3d 38 e1 d7 bd
       -0.0829903 0.07607229 0.0483246 -0.10541004
000250 56 aa ff 3d 90 1b 31 bd 5c fa 76 3d 46 de b2 bd
       0.12483661 -0.043239176 0.060297355 -0.087338015
000260 bc 7b 43 bd a4 01 32 3d 40 76 97 3c 6c b4 ba 3d
       -0.047725424 0.043458596 0.018489003 0.09116444
000270 a0 b0 dd bd be d9 81 bd be 61 fe bd 80 73 fa 3c
       -0.10824704 -0.06340359 -0.124209866 0.030572653
000280 c4 03 18 3d e0 cd 8c bc f8 f8 11 3d 88 0a cb bd
       0.037112966 -0.017188013 0.035637826 -0.09914118
000290 40 59 c8 bd fe f0 a8 3d d0 7e 5a 3d 4e 9d d0 3d
       -0.09782648 0.082490906 0.053343594 0.101862535
0002a0 22 7c 96 3d 08 7a a6 3c 5e 47 ab bd 20 11 5c 3c
       0.07347895 0.02032186 -0.083632216 0.013431817
0002b0 00 48 c5 3a e4 b9 9a bd 34 cd 6e bd a0 f7 02 bc
       0.0015051365 -0.07554987 -0.058301166 -0.007993609
0002c0 10 c8 81 3d 26 a8 bd 3d c6 62 cf 3d 22 cc ec bd
       0.06336987 0.092605874 0.101262614 -0.11562373
0002d0 50 b3 ad 3d 28 12 d8 3c 8a 15 98 bd 80 2c 25 3c
       0.08481467 0.026375845 -0.07425983 0.01008141
0002e0 6e 6e 91 3d 60 a0 6b 3d 06 84 d2 bd 7c 6e 90 bd
       0.07101141 0.057525992 -0.10279088 -0.07052323
0002f0 bc 48 cd 3d 60 cf 90 3c c0 76 43 3b da e0 b8 bd
       0.100236386 0.01767701 0.002982542 -0.09027262
000300 86 f5 98 3d d2 a1 fa 3d f0 06 ea 3d a8 cf f7 bd
       0.07468705 0.12237896 0.114271045 -0.12100154
000310 fc b4 5f bd 8c 95 e8 bd ce 38 f4 bd e0 87 8b bc
       -0.05461596 -0.11356649 -0.11924897 -0.017032564
000320 32 22 bd bd a4 3a cf 3d a6 ee c2 bd d4 ec 41 3d
       -0.09235038 0.10118607 -0.09518175 0.047344998
000330 84 48 9d bd 1e 5b 83 bd 2c b8 07 bd 50 90 de 3c
       -0.07679847 -0.064138636 -0.033134624 0.027168423
000340 4e 2e 90 3d 7e 14 cb bd 80 98 7a 3c b0 cf 74 bd
       0.07040082 -0.09916018 0.015295148 -0.05976838
000350 ca d3 9d bd 92 de 85 3d 40 d3 63 bd 00 b0 41 3b
       -0.07706411 0.065365925 -0.055621386 0.0029554367
000360 bc 56 49 bd cc b8 b7 bd f4 51 53 bd 6a 28 bd bd
       -0.049154982 -0.08970794 -0.05159183 -0.09236224
000370 24 b1 93 3d 50 0b 7e 3d 74 b4 63 bd 4e 4d 95 3d
       0.07211521 0.062022507 -0.055592015 0.07290135
000380 30 83 d4 3d 6a f0 c7 3d d4 62 37 3d 80 57 7c 3d
       0.103765845 0.09762652 0.044771984 0.061606884
000390 36 b3 a3 3d 40 9d 22 bc 20 e3 4d 3d e4 e9 eb bd
       0.07993166 -0.009925187 0.05026543 -0.115192205
0003a0 50 d2 ef 3c d0 ad 8a bc 18 f6 de 3d 98 b1 16 3d
       0.02927509 -0.016928583 0.108867824 0.03679046
0003b0 7c 1b fb 3d e0 d4 95 bd 38 28 91 3d da 52 be 3d
       0.122611016 -0.07315993 0.07087749 0.092931464
0003c0 f6 44 ca 3d 44 bb e4 bd a0 f1 c0 3b e0 8a c4 bc
       0.098764345 -0.111685306 0.005888179 -0.023992002
0003d0 38 92 5a bd 58 0a 13 bd d4 b6 56 bd e0 93 27 bd
       -0.0533621 -0.035898536 -0.052420452 -0.04091251
0003e0 40 d5 ee bc 58 5d 53 3d 82 0b d4 3d 50 25 04 bc
       -0.02915442 0.05160269 0.103537574 -0.008065537
0003f0 40 9e 92 3b a8 eb eb bc 74 5b d4 3d d0 a5 1a bc
       0.0044744313 -0.028798893 0.10369006 -0.009438947

index_head.0.bias f4 [32]
000000 cd 0b 18 bb 08 31 22 bd 4a 97 f2 bd 90 fd db bc
       -0.0023200393 -0.03959754 -0.11845262 -0.026854306
000010 40 7d b1 bc 13 4d ae 3d d4 01 e2 bd 1d 86 d9 3d
       -0.02166617 0.085107945 -0.11035505 0.10621283
000020 8b 57 36 3d ea 7c f7 3c 4e 43 1f 3d cb e2 6e bd
       0.04451708 0.03021093 0.038882546 -0.058321755
000030 4e 38 a0 bc 67 14 a8 bc 02 66 fb 3a 34 f2 0a bd
       -0.019558098 -0.020517541 0.0019180181 -0.03392239
000040 8a de 96 bd d4 e3 5c 3d 6a a4 51 3d 44 a9 d4 bd
       -0.07366665 0.05392821 0.051182188 -0.10383847
000050 9b 11 f4 bc 4d e0 0b 3d 7f de e6 3d e8 6f df bc
       -0.029793551 0.034149457 0.112729065 -0.02727504
000060 09 8e 15 3d 40 39 f9 3d d0 9b f3 bc 5b dc 6f 3d
       0.03651241 0.12169123 -0.029737383 0.058559757
000070 37 be 64 bc ae bf e2 bd b3 af 8a bd ff 18 71 3d
       -0.013961366 -0.11071716 -0.06771793 0.05886173

index_head.2.weight f4 [1, 32]
000000 41 41 16 bd 90 fa b4 3d 6c 62 0e 3e a3 ef 24 3e
       -0.036683325 0.088368535 0.13904732 0.16107039
000010 6b 5b bb 3d ef 40 66 bc 89 f5 bd 3d f3 ad ed 3d
       0.09148296 -0.014053567 0.09275348 0.11605444
000020 6a 26 a7 3d a5 e6 a7 3d 73 70 28 3d 8d 82 a5 bd
       0.08161624 0.08198289 0.041122865 -0.08081541
000030 bf 32 98 3d 8c 08 6f 3d 42 f8 d2 bd b7 08 ea 3c
       0.07431554 0.05835776 -0.10301258 0.028568609
000040 48 82 2c be 4f 9c b6 bd a7 f3 f0 bb cd c3 8b bd
       -0.16846573 -0.08916532 -0.0073532644 -0.068244554
000050 ce 6e 0f be d9 fd 0d bd ef e9 9d 3c aa 05 7f bc
       -0.14007112 -0.034665916 0.019276587 -0.015565315
000060 ab b3 ba bb bc e9 94 3d d0 57 1a be b3 f2 03 bd
       -0.0056976876 0.07271144 -0.1507256 -0.032213878
000070 3e f1 b4 3d 26 f7 21 be b2 8c f1 bb 04 73 06 3e
       0.08835076 -0.15816936 -0.0073715085 0.13129812

risk_head.0.weight f4 [32, 64]
000000 d8 98 ba bc f4 0b cd 3d 20 d8 de bb f0 24 06 bd
       -0.02277796 0.100120455 -0.0068006665 -0.03275007
000010 a4 8f 26 bd f0 8c cc bc 38 c0 53 bd 9c 1c 7f 3d
       -0.04066433 -0.024969548 -0.051696986 0.062283143
000020 32 08 d2 3d 0c a8 6a 3d bc 75 61 bd 30 38 84 3d
       0.102554694 0.05728917 -0.05504392 0.064560294
000030 ee 2f dd 3d b6 30 ed 3d 70 38 da bd 28 85 f8 bd
       0.108001575 0.115815565 -0.10655296 -0.121347725
000040 d2 d4 a4 3d 0c 07 7b 3d 98 88 5b bd 28 f3 8f bd
       0.08048405 0.061286017 -0.053597063 -0.070288
000050 d4 f4 7e bd c8 7b e9 bc 3a 4c 81 bd 58 c5 6a bd
       -0.062245205 -0.028501406 -0.06313367 -0.057317108
000060 10 5f 5b 3d 84 96 4b bd ee 5a de 3d 90 66 94 3c
       0.053557456 -0.04970409 0.10857187 0.018115312
000070 00 55 8b 3b c0 4d 78 3b e4 90 d1 3d 6c 6d 61 3d
       0.004252076 0.003788814 0.10232714 0.055035993
000080 7c f3 40 bd 58 28 f7 bd 52 1d 8c bd bc 4d dd bd
       -0.047107205 -0.12068242 -0.0684153 -0.10805842
000090 e2 89 b2 3d 64 54 75 bd 26 19 bb 3d c8 50 8b bd
       0.08717705 -0.059894934 0.09135656 -0.06802517
0000a0 c0 d0 24 3c da cd ed 3d 64 5e 47 bd 00 9a ef 3b
       0.0100595355 0.11611529 -0.048674002 0.0073120594
0000b0 00 89 37 3d 08 8f ca 3c f8 c2 d6 bd 00 31 65 3a
       0.044808388 0.024726406 -0.10486406 0.00087429583
0000c0 fc b7 21 bd 34 ca 4c 3d 54 13 c4 bd 7c 34 12 3d
       -0.0394821 0.049997523 -0.09573999 0.035694584
0000d0 9c e2 fc 3d ba 49 f6 3d 1c e4 70 3d 2a df bb bd
       0.1234791 0.12025781 0.058811292 -0.091734245
0000e0 36 a0 9c bd b2 26 df bd 94 b1 cb bd 80 36 d4 3c
       -0.07647745 -0.108960524 -0.0994598 0.025904894
0000f0 16 db df bd 0c 7f 78 bd ec 4b f5 3d b6 42 89 bd
       -0.10930459 -0.060668036 0.119773716 -0.06702177
000100 d4 57 b8 bd 55 c0 6f 3c a0 47 c7 3d 82 ff d2 3d
       -0.09001127 0.014633258 0.09730458 0.103026405
000110 00 cb b3 3d 98 37 9c bd ec 47 a4 bd 70 3d 66 3c
       0.087789536 -0.07627791 -0.080215305 0.014052734
000120 6c 28 90 bd 02 5c d7 3d 8c d0 b1 bd 1f d7 23 3d
       -0.0703896 0.10515596 -0.08682355 0.040000077
000130 4b 8a 9f 3d 40 fa 1d bb 20 e6 22 bd 36 7f 5a bd
       0.07790049 -0.002410546 -0.039770246 -0.053343974
000140 40 d8 b3 3c 2a 83 d0 3d 74 51 f8 bb f0 35 2d 3d
       0.021953702 0.101812676 -0.0075780693 0.042287767
000150 78 8c ef 3c 7b 5f 1c 3d 5f 03 90 bc de e5 3b 3d
       0.029241785 0.038176995 -0.017579732 0.045873515
000160 0c 8b 81 3c 92 9c 91 3d 38 a1 89 3c b3 ff 6f 3d
       0.015813373 0.071099415 0.016800508 0.058593463
000170 e9 4e 2d 3d 50 48 f1 bd 24 77 92 bd aa e0 a3 3d
       0.042311583 -0.11781371 -0.071516305 0.08001836
000180 02 bc 99 bd e6 03 c4 bc 88 ab 16 bd 44 15 bc bd
       -0.07506563 -0.02392764 -0.03678468 -0.091837436
000190 e9 78 87 bd aa b8 82 bd 87 f7 0c 3e 7b c0 b5 3c
       -0.06614859 -0.06382878 0.13766299 0.022186508
0001a0 40 dc 43 3d ca df 9f 3d ac 4c c7 3d 28 a4 8a bc
       0.04781747 0.07806356 0.09731421 -0.016923979
0001b0 94 d4 bd bd 30 a3 aa bd b5 67 6d bd 2a 24 30 bc
       -0.09269062 -0.08331907 -0.05796023 -0.01075081
0001c0 da 06 e1 3d 44 2f 2b bd eb 55 ce bd cc dc 5d 3d
       0.10987635 -0.041793123 -0.10074981 0.054165646
0001d0 1e 27 82 bd 54 83 20 bb 20 9f 17 3d ec 83 43 bc
       -0.06355117 -0.002449234 0.037016988 -0.011933308
0001e0 93 bd d5 bd db 22 e4 bc e3 96 34 bd fa 7b bc bc
       -0.10436549 -0.027848652 -0.04408921 -0.023008335
0001f0 54 e7 90 3d 3c 05 40 3d c4 8c 1b 3d 32 bf d9 bd
       0.07075372 0.046879992 0.03797604 -0.10632171
000200 63 3c c2 bd 6d 97 ef 3d 86 47 0d 3e d0 1a a2 bc
       -0.09484174 0.11698804 0.13796815 -0.019788176
000210 4c 71 46 bd f8 de c2 bd 84 89 04 bd 98 53 d4 bc
       -0.048447892 -0.09515184 -0.032357708 -0.025918767
000220 1d 5a b4 3d eb a9 b0 3b 1d 7b 2c bc 92 62 23 3c
       0.0880625 0.0053913496 -0.010527399 0.009972231
000230 d4 42 bf 3d 32 92 a2 bd ba 51 a1 bd 51 3f ab 3c
       0.09338918 -0.07938041 -0.07876916 0.020904215
000240 b8 fa 13 3d 9f 6a 08 3e 7e bf 86 bb 56 c3 c8 bb
       0.036127776 0.13321923 -0.004112183 -0.0061268015
000250 48 5a a3 bc 50 bf 56 3d dc 5a 4e 3c c5 e8 85 3d
       -0.01994051 0.052428544 0.012594905 0.06538538
000260 41 21 ef 3d 62 d8 b2 3d dc 82 ac 3d db b5 7a bd
       0.116762646 0.08732678 0.08423397 -0.061208587
000270 8d 55 e5 3d 94 ea 99 3d b7 fa 1a bd a0 78 63 3d
       0.11197958 0.07515445 -0.037836757 0.05553496
000280 dc 6b 81 bd 54 bb 14 bd 5e 5b 89 3d 3a 37 cb 3d
       -0.06319401 -0.036311463 0.0670688 0.09922643
000290 aa 65 d2 3d 13 34 79 3d ef 29 c8 3d f3 7f 64 3d
       0.10273297 0.060840677 0.09773623 0.055786084
0002a0 80 fa 95 3d cf 54 bf bd 40 79 c4 3b cc 80 4d bd
       0.0732317 -0.09342348 0.0059958994 -0.05017166
0002b0 19 82 c4 bd 60 56 7f 3c 7a ef 42 3d 47 36 77 bc
       -0.09595127 0.015584558 0.047591664 -0.015088624
0002c0 8c 95 f9 3d 42 4d d0 bc f3 8c b9 3d fc 88 0d 3e
       0.12186727 -0.025427464 0.09060087 0.13821787
0002d0 a0 8f 96 3b a9 6f b2 bc dc 5c 45 3d d9 d2 09 bc
       0.004594758 -0.02178176 0.04818426 -0.008412086
0002e0 2c 67 dd 3d a5 ef b8 3d d2 ae dd bc a6 d1 66 3c
       0.10810694 0.090300836 -0.0270609 0.01408807
0002f0 97 af a5 3c 00 fa ce 3c 40 69 b9 bb c0 c9 fe 3d
       0.02022533 0.025265694 -0.0056582987 0.124408245
000300 68 7e fd bc 76 c9 c9 3d 40 fc 10 3c a8 b8 0a bd
       -0.030944064 0.09852879 0.008849204 -0.03386751
000310 e0 fa 7c 3c 10 05 98 bd de 4a f2 bd ce c4 9d bd
       0.015440673 -0.074228406 -0.11830686 -0.07703553
000320 40 2a 90 3b 3a 33 98 bd 00 44 2c ba 28 84 e3 3c
       0.004399568 -0.07431646 -0.0006571412 0.027772978
000330 c0 58 5a 3b ac 4e bc bd 0c 6d de bd 00 4e b8 bb
       0.003331706 -0.09194693 -0.10860643 -0.0056245327
000340 80 c1 5e 3c 44 c6 cd 3d 80 2d c1 bb 30 f5 92 bc
       0.013595939 0.10047582 -0.0058953166 -0.01793918
000350 58 ec b1 bc f4 a2 58 bd 08 09 42 bd 40 cb cf bb
       -0.021719143 -0.05288978 -0.047371894 -0.006341368
000360 74 4c 63 bd 48 b8 91 bc e4 bd 30 3d dc 92 7f bd
       -0.055492833 -0.017788067 0.043149844 -0.062395915
000370 86 35 ef bd 3e d0 ed bd 80 62 6f 3b 78 ce 64 3d
       -0.11680131 -0.11611985 0.0036527216 0.055860966
000380 bc 6c 4e 3d 8c 6c cc 3d 5c 4f 1d 3d 04 12 f9 bd
       0.050396666 0.09981641 0.03840576 -0.12161639
000390 48 06 a8 bd 20 a2 2f 3c b0 05 6e 3d 34 64 34 bd
       -0.08204323 0.010719806 0.058110893 -0.044040874
0003a0 9c a6 55 bd 00 31 fa ba 60 44 8c bb b0 05 d3 bc
       -0.052160844 -0.001908809 -0.004280612 -0.025759548
0003b0 5e 32 cb bd f4 7d f7 3d 12 33 f2 bd 80 08 22 3d
       -0.09921716 0.120845705 -0.11826147 0.039558887
0003c0 c8 72 db 3c a0 67 10 3c 40 c4 c2 3c aa de f3 bd
       0.02678813 0.008813769 0.02377522 -0.11907704
0003d0 20 cf 5f 3c 86 43 e5 3d 4a f0 ef 3d a0 9a 3f 3d
       0.013660222 0.1119452 0.117157534 0.04677832
0003e0 c8 54 4a bd d0 ca 4b bd 2e 47 af 3d f0 30 4d bd
       -0.04939726 -0.049753964 0.08558498 -0.0500955
0003f0 78 e7 42 bd 46 bb 9c 3d a4 1e d5 bd 00 48 1f 3d
       -0.047584027 0.07652907 -0.10406235 0.038887024

risk_head.0.bias f4 [32]
000000 3a 40 d4 bd 2c c5 20 bb 89 cc 52 3d 38 d4 38 3d
       -0.10363813 -0.0024531586 0.05146459 0.045124263
000010 c0 cd 45 bc 85 d5 92 bd 74 d6 9d bd 14 1b 72 bd
       -0.01207298 -0.07169632 -0.07706919 -0.059107855
000020 df f8 5d bd 78 35 f7 3c c2 b9 81 bb 1c c4 4a bd
       -0.05419242 0.030176863 -0.0039589116 -0.04950343
000030 b0 d9 df 3c 2a e7 6e bd f9 6d 02 bd 4c ad 21 bd
       0.027325481 -0.058325924 -0.03184316 -0.03947191
000040 93 ad b5 3d 4a c3 02 3e be f7 46 3d bb f5 43 bc
       0.08870997 0.1276981 0.04857611 -0.011960442
000050 cc bb df 3c 6c 8e fc 3d 50 0d ce 3d 94 13 cf bd
       0.027311228 0.12331852 0.10061133 -0.10111156
000060 87 c3 cc 3d b3 1a 8f 3d ef c6 bb 3d 11 e9 c1 3d
       0.099982314 0.06987514 0.09168803 0.09468282
000070 68 54 b5 bd a0 9d e8 bd 16 7b d4 bd 66 11 b8 3c
       -0.0885399 -0.113581896 -0.10375039 0.022469234

risk_head.2.weight f4 [10, 32]
000000 13 c8 c4 bd 3c 12 e7 bd c4 93 a2 bd eb 03 24 be
       -0.09608474 -0.11282775 -0.0793834 -0.1601712
000010 2d cd 2d 3e 42 dd d2 3d 71 e5 bc bb 07 3b 9f 3c
       0.169728 0.10296108 -0.0057646562 0.019437326
000020 6d e4 bf 3d 6b d0 68 bd 08 64 82 bd 21 6a 6c bd
       0.09369741 -0.056839388 -0.06366736 -0.0577184
000030 fd 83 4d 3d e5 a3 96 bd db e5 2b be d6 0b 93 3d
       0.050174702 -0.07355479 -0.16786902 0.07179992
000040 f7 53 c8 bd 5d 4c 71 bd 86 00 d7 3d 36 13 e2 3d
       -0.0978164 -0.058910716 0.10498147 0.110388204
000050 5c ec 00 be a9 bc 38 bd de 1d 1f 3e 71 c9 2f 3e
       -0.12590164 -0.045101795 0.15538737 0.17166688
000060 30 cc 9f bd a2 f3 6a 3d 6f 24 e8 bd f0 52 66 3d
       -0.078026175 0.057361253 -0.11335074 0.05623144
000070 15 d9 29 3e 85 25 19 3e 95 3d 9e bd 34 01 d4 3d
       0.16586716 0.14955719 -0.077265896 0.10351792
000080 06 56 db bd 99 28 0b 3e 87 7f fe bd 81 c8 e8 bd
       -0.10709767 0.13589706 -0.12426668 -0.11366368
000090 7f 65 0a 3c 89 68 30 bd 21 3f b3 3d a3 be cf 3d
       0.00844705 -0.043068442 0.08752275 0.10143783
0000a0 65 02 25 3e af 36 0d be 69 29 78 3c 83 91 2b 3e
       0.16114195 -0.13790391 0.015146592 0.16754727
0000b0 ee c6 c4 3d 1b 0e b8 bc 58 b3 ca 3c d2 27 86 3b
       0.09608255 -0.022467664 0.02474372 0.0040941024
0000c0 f1 18 14 be 9d b2 0b 3e 3a 7c a7 bd 5b 84 e1 bd
       -0.1446264 0.13642354 -0.08177991 -0.11011573
0000d0 97 ed bc 3d 8b 5f 3a 3d 19 63 57 bd 02 0e 03 bc
       0.09225004 0.045501273 -0.05258474 -0.007998945
0000e0 e6 6f 08 be bf 43 52 3d cc 25 ef 3d 38 f8 67 bd
       -0.13323936 0.05133414 0.11677131 -0.056633204
0000f0 12 9f 8c bd 94 fb 02 3d 4b 03 95 3d 89 da b4 3d
       -0.06866278 0.031978205 0.07276019 0.08830745
000100 9d 1b 71 bc 2e 08 8d 3d 84 e3 25 be 43 36 eb bd
       -0.014716056 0.06886326 -0.16200072 -0.11484959
000110 c6 91 ca bd 2e cc 15 3e 1b b7 ad 3d d8 3a dd bd
       -0.09891085 0.1462867 0.0848219 -0.10802239
000120 61 c4 15 be fc fc 74 bc 53 da 24 3e 36 b1 3f b9
       -0.14625694 -0.014952894 0.16098909 -0.00018281196
000130 c0 92 95 bd 79 b1 b6 3d 31 ad ee bd 79 9f 1d be
       -0.07303381 0.08920569 -0.116541274 -0.15392865
000140 0c 3b 88 3d f7 57 02 be b3 93 09 3e a0 2d ef 3d
       0.06651887 -0.12728868 0.13435249 0.11678624
000150 1a 67 f0 3d c0 cc c4 3d cf 69 9a 3d 60 36 0a 3e
       0.11738415 0.096093655 0.07539713 0.13497305
000160 92 c8 50 3d 1a d0 ca bb 2c af 04 be 27 31 26 be
       0.05097253 -0.0061893584 -0.12957448 -0.16229688
000170 ff b0 d5 3d c1 bd a9 3d 9c eb 1c be 3f c2 99 3d
       0.1043415 0.08288146 -0.15324253 0.075077526
000180 b0 46 8b 3d 8a 1d 3a 3d 92 84 8a bd 72 32 9a 3d
       0.06800592 0.045438327 -0.06763567 0.07529153
000190 a4 54 1d 3e 12 d0 a2 3d a9 6b d4 bd 51 e3 0e be
       0.15364319 0.079498425 -0.10372097 -0.13953902
0001a0 49 3b cb 3c 55 1e cf bd 94 8c b3 bd 5d 1b 28 be
       0.024808543 -0.10113207 -0.087670475 -0.16416688
0001b0 33 52 f4 bc 37 a9 22 3e 84 8a 18 be 85 4d 30 bd
       -0.029824352 0.15884863 -0.1489659 -0.04304268
0001c0 dd f8 7b 3d d4 9f 69 3d 75 45 00 bb 5c db 21 3d
       0.06151663 0.05703719 -0.001957265 0.039515838
0001d0 d8 2c 6a 3b 02 bb 25 be df 48 d1 3d 1e f8 bb 3c
       0.0035732295 -0.16184619 0.10218977 0.02294546
0001e0 41 6e 16 be 7b dd d7 bd 0e 98 56 3c a8 a8 98 3d
       -0.14690496 -0.10540291 0.013097776 0.074540436
0001f0 4a 86 90 3d bb 92 b8 3d 09 17 0e be b3 58 2f be
       0.070568636 0.090123616 -0.13875975 -0.1712368
000200 48 2e 22 3e 89 d7 34 3b 9f c3 ee bd 6d f2 0e be
       0.15837967 0.002759429 -0.116584055 -0.13959666
000210 20 af 3c 3d 38 91 bc bd 34 4a d6 bd 80 fe e6 3c
       0.04606545 -0.09207386 -0.10463372 0.028197527
000220 c6 c5 bd 3c 46 98 d8 3c d8 9f 79 bd 1f e1 04 3e
       0.023165595 0.026439797 -0.060943455 0.12976502
000230 13 f0 dd 3d 4c c0 f4 bd f9 58 1c 3e 93 bc 29 3e
       0.10836806 -0.1195074 0.15268315 0.16575842
000240 59 bb d1 bd 01 dd 73 3d 7f a7 71 3d 71 57 e9 3c
       -0.10240812 0.059536938 0.058997627 0.028484078
000250 7a c3 17 be 25 0f 3e be 64 a9 00 3e 23 cc fc bd
       -0.14820662 -0.18560465 0.12564617 -0.123436235
000260 23 e3 25 3e 75 c8 10 3e 7b ac 1c 3d 12 c4 98 3d
       0.16199927 0.14138968 0.038250428 0.074592724
000270 91 33 12 3e 03 d7 01 bd 79 2c 04 3a 64 db d2 3d
       0.14277484 -0.03169919 0.00050420273 0.10295752
000280 4d 7d 25 be 94 af 63 bd 75 98 54 bb da 1f 37 bc
       -0.1616108 -0.055587366 -0.0032439504 -0.011177028
000290 94 10 4d bc dd 0c 5a bd 97 06 0d 3e 40 7d 23 be
       -0.01251616 -0.053234924 0.13772045 -0.15965748
0002a0 a1 fb ab bd da 5e 01 bd 2f 68 d8 bd 73 23 e0 bd
       -0.08397604 -0.031584598 -0.105667464 -0.109442614
0002b0 1a 46 11 be a4 01 d0 bd 0c 3d ba bc 6d 0d d4 bd
       -0.14186898 -0.10156563 -0.022734188 -0.10354123
0002c0 d0 6e f7 3d 33 00 8a 3d d7 1e 03 3e bb 8b 06 be
       0.12081683 0.06738319 0.12804733 -0.1313924
0002d0 ee c6 5b ba 60 66 81 3d 8e 28 ba 3d 9b 50 29 3d
       -0.000838383 0.063183546 0.090897664 0.041336637
0002e0 bb 5d f5 3d d3 08 e9 bd c1 6b 13 3d 3b 59 cd bd
       0.11980768 -0.11378636 0.035991434 -0.10026785
0002f0 5e c2 28 be 67 61 53 bd e9 71 21 be 07 ff 2b be
       -0.16480395 -0.051606562 -0.1576611 -0.16796504
000300 c0 8c 17 3e eb 7d 23 be d3 85 00 be 72 6e 86 bc
       0.14799786 -0.15966003 -0.1255105 -0.016410086
000310 cb 90 69 bd cd bf e6 bd 8d 49 0a be 68 83 dc 3d
       -0.05702285 -0.11267052 -0.1350462 0.10767251
000320 c7 a6 3f 3d fb 37 c0 3d 5c 84 55 bd a5 4b 90 3d
       0.04678991 0.093856774 -0.05212818 0.07045678
000330 16 bc ef 3c ef 42 a4 bd 83 0c 26 3e 8c 89 08 3d
       0.029264491 -0.08020579 0.1621571 0.0333343
000340 79 70 7a bc 79 b9 04 be f0 ba 7b bd 91 f5 90 bd
       -0.015285605 -0.12961377 -0.061457574 -0.07078088
000350 58 89 0c be 20 b2 d4 bd 3c ed e7 3d 21 9e 04 be
       -0.13724267 -0.10385537 0.11324546 -0.12950946
000360 84 16 1e bd 3b 5d 6a 3d 3b 3c 9d 3d 09 82 61 3d
       -0.03859569 0.057217818 0.07677504 0.05505565
000370 8f 7a ff bc 63 c1 e9 bb b0 96 be bd e2 40 19 3e
       -0.03118637 -0.007133649 -0.09306085 0.14966157
000380 4a 32 2f 3e 6d 9c f4 bd fb ec 2c bd 0c f0 94 3d
       0.17109028 -0.11943898 -0.04221819 0.07272348
000390 d8 28 1a 3e d0 46 d6 bd 30 73 f1 bd 37 d0 8c 3d
       0.15054643 -0.10462725 -0.117895484 0.06875651
0003a0 3f 0d 94 bd e0 8d 05 be 71 d0 f0 3d 9a 36 f0 3b
       -0.07229089 -0.13042402 0.11758507 0.0073307278
0003b0 9f f8 cc bd af 0a b1 bc c1 11 20 bd 81 48 04 be
       -0.10008358 -0.02161154 -0.03907943 -0.12918283
0003c0 b8 e1 e8 3d d2 d3 96 ba 53 b3 e9 bc 33 85 24 3d
       0.113711774 -0.0011507219 -0.028527891 0.04016609
0003d0 03 db 03 3d 19 3d 14 3e 7d 06 90 bd c4 af c5 bc
       0.032191288 0.14476432 -0.070324875 -0.024131663
0003e0 33 a2 c0 3b 7d 06 13 3e 44 0d b6 bd fe 4f be bb
       0.0058787107 0.14357944 -0.08889249 -0.0058078757
0003f0 ac 7f 01 be ae c7 27 be 0c 39 71 bb 67 01 15 be
       -0.12646359 -0.16384766 -0.0036807684 -0.14551316

risk_head.2.bias f4 [10]
000000 7e 5b e6 3d ed 20 ef 3b ec 60 c0 3d e7 b9 d3 3c
       0.112479195 0.007297626 0.093934864 0.025845481
000010 0d 17 dc bd 66 82 21 be bf 58 1a bd b7 96 71 3b
       -0.10746584 -0.157724 -0.03768229 0.0036863515
000020 4f ed f6 3d 30 a7 b4 3d
       0.12056982 0.08820951
