backend/best_risk_score_model.pt (torch, 32571 bytes, 11 tensors)

shared.0.weight f4 [32, 6]
0	0xbe85424b	-0.2602714
1	0x3e9e1316	0.30873936
2	0x3e26c844	0.16287333
3	0x3ecbc182	0.39796072
4	0x3e97a0f4	0.29614985
5	0x3ea1f823	0.31634626
6	0xbdcc7a8a	-0.0998431
7	0x3dbba1ba	0.09161706
8	0x3df79180	0.12088299
9	0xbe8e0e10	-0.27745104
10	0x3e52a64c	0.2057125
11	0x3e3aeff6	0.182556
12	0x3ea7ce5f	0.32774636
13	0xbe8ee871	-0.27911714
14	0xbe10c70f	-0.14138435
15	0xbe7070e2	-0.23480561
16	0xbe69937f	-0.22810172
17	0xbe3a8320	-0.18214083
18	0x3e5d411e	0.21606871
19	0x3e8e407f	0.27783582
20	0x3dfbcc91	0.12294877
21	0x3de49427	0.1116107
22	0xbd20c5ed	-0.039251257
23	0xbec8a5b7	-0.3918893
24	0x3ecef652	0.40422302
25	0xbeacedae	-0.33775085
26	0xbec99b0b	-0.393761
27	0x3e4a02ea	0.19727674
28	0x3eb76d90	0.35825777
29	0xbe61c866	-0.22049102
30	0xbe84acb7	-0.2591302
31	0xbec925e5	-0.39286724
32	0x3d902fbf	0.07040357
33	0x3ec5069a	0.384816
34	0xbea1b52a	-0.3158353
35	0x3e4045fa	0.18776694
36	0xbe0a304b	-0.13494985
37	0xbc88b207	-0.016686453
38	0xbe70aa18	-0.23502386
39	0x3eb15026	0.3463146
40	0xbe5ed907	-0.21762477
41	0x3d19fe4a	0.037596025
42	0xbe92c643	-0.28666887
43	0xbca4f034	-0.020134069
44	0xbea18106	-0.3154375
45	0x3e6afc1d	0.22947736
46	0xbba444d7	-0.005013089
47	0x3db45a89	0.08806331
48	0x3dea5db4	0.11443654
49	0x3e835904	0.2565385
50	0xbecdd172	-0.40198857
51	0x3d292b22	0.0413009
52	0x3e8a2593	0.26981792
53	0xbe189720	-0.149014
54	0x3d230fbf	0.03980994
55	0x3ba1f889	0.004942958
56	0x3cfc762e	0.030818071
57	0xbe0e99b6	-0.13925824
58	0x3e77504e	0.24151728
59	0x3ea3dab7	0.32002804
60	0x3918a243	0.00014556297
61	0xbecbc4f3	-0.39798698
62	0x3e9149b8	0.28376555
63	0xbe715400	-0.235672
64	0x3e8c61b6	0.27418298
65	0x3d968739	0.073500104
66	0xbec7975a	-0.3898266
67	0x3e893600	0.2679901
68	0xbd728ae2	-0.05921448
69	0xbe11d7f8	-0.14242542
70	0x3ecf0068	0.40429997
71	0xbdedbae5	-0.11607913
72	0x3eb8919e	0.36048597
73	0x3e92dba5	0.286832
74	0x3e979d31	0.29612115
75	0x3d83b644	0.06431249
76	0xbe9be81f	-0.30450532
77	0x3dcd5764	0.10026434
78	0xbeb236bb	-0.3480738
79	0xbdfb22f7	-0.122625284
80	0x3da64fa6	0.081206605
81	0x3ec3fbd5	0.3827807
82	0x3e2d7b28	0.16941512
83	0x3ea9c537	0.33158275
84	0x3ea5c1e7	0.32374498
85	0xbeb29a0d	-0.34883156
86	0x3e954bed	0.2915949
87	0x3e90c76e	0.28277153
88	0xbeca4ef6	-0.39513367
89	0xbe4d674d	-0.20058937
90	0x3e924bfe	0.28573602
91	0xbc34a482	-0.01102555
92	0x3e9c0627	0.30473444
93	0xbebecc6c	-0.37265337
94	0xbdd99b4f	-0.10625326
95	0xbdbf1878	-0.09330839
96	0xbded10ca	-0.11575468
97	0x3e2d547b	0.16926758
98	0x3db9b8b6	0.09068434
99	0x3ececa9d	0.40388957
100	0xbeb2e179	-0.34937647
101	0x3da08523	0.07837894
102	0xbeb1ee63	-0.34752187
103	0x3eb3f128	0.35144925
104	0xbc2f4073	-0.010696518
105	0x3e24cb0e	0.16093084
106	0xbdbea60f	-0.09309017
107	0xbeaacd86	-0.33359927
108	0xbd3f4836	-0.046699725
109	0xbe82c690	-0.25542116
110	0xbdb8c2d5	-0.09021536
111	0xbe6dcc16	-0.23222384
112	0xbe502dfc	-0.20330042
113	0xbec1493f	-0.37751195
114	0x3e8d61ff	0.27613828
115	0x3ddeb170	0.10873687
116	0xbdf5f831	-0.120102294
117	0x3e02a1ab	0.12756984
118	0x3ecb1c2e	0.39669937
119	0x3d820511	0.063486226
120	0xbec62fe8	-0.38708425
121	0x3ec09947	0.3761694
122	0xbec4da1b	-0.3844765
123	0x3e3a068c	0.1816656
124	0x3d7ddc62	0.06197775
125	0xbeb2a696	-0.3489272
126	0xbd817a86	-0.063221976
127	0x3eb845b1	0.3599067
128	0x3e55161d	0.20809217
129	0x3e01be2e	0.12670204
130	0x3d094f22	0.033522733
131	0xbe9956aa	-0.29948932
132	0x3d43c7d4	0.047797993
133	0xbe293346	-0.16523466
134	0x3eb02c71	0.34408906
135	0xbe7becae	-0.24602005
136	0xbe3228fe	-0.1739845
137	0x3ebf1b6e	0.37325615
138	0x3daa714f	0.08322393
139	0xbd21f2d9	-0.03953824
140	0x3c8e563e	0.017375108
141	0xbecdeb8b	-0.40218768
142	0x3e8a0258	0.26954913
143	0x3cb63e8e	0.022246625
144	0x3eae46e9	0.34038475
145	0xbe7522c7	-0.23939048
146	0xbe5451ed	-0.20734377
147	0x3e4ea92e	0.20181724
148	0xbebc42cf	-0.3676972
149	0xbe5ef87f	-0.21774481
150	0xbea003b5	-0.31252828
151	0xbe5fec1c	-0.21867412
152	0xbb988e42	-0.0046556303
153	0x3e83ca9a	0.2574051
154	0x3dd14c5f	0.10219645
155	0x3c97f1b2	0.018547866
156	0x3e8b2602	0.27177435
157	0xbe96c83f	-0.2944965
158	0x3e81f6ec	0.253837
159	0x3eb3f3b1	0.3514686
160	0xbd606d93	-0.054791998
161	0x3d0d6a86	0.034525417
162	0xbe538f68	-0.20660174
163	0xbecbc6ef	-0.39800212
164	0x3e9e725a	0.30946618
165	0x3e899414	0.26870787
166	0xbdac01dc	-0.08398792
167	0xbea9569e	-0.33073896
168	0xbe93ac10	-0.2884221
169	0x3e8a5f17	0.27025673
170	0xbe5ade8d	-0.21373959
171	0x3eb5d39f	0.35513017
172	0x3ecd9f56	0.40160626
173	0xbe1ba322	-0.15198949
174	0x3e5f6b46	0.21818265
175	0x3d1a06dd	0.0376042
176	0xbe383df8	-0.17992389
177	0x3db4d9da	0.088306144
178	0xbe1dd502	-0.15413287
179	0x3c11def6	0.008903256
180	0xbdff74f8	-0.12473482
181	0xbe320d89	-0.17387976
182	0xbe837138	-0.25672317
183	0x3ec53f13	0.38524684
184	0xbe6c3efe	-0.23070905
185	0xbd96bd8e	-0.073603734
186	0xbeb007ca	-0.34380943
187	0x3dc5deb8	0.09661621
188	0x3def61d7	0.11688583
189	0xbded6685	-0.1159182
190	0x3eb2f564	0.34952843
191	0x3ebeea4b	0.37288126

shared.0.bias f4 [32]
0	0xbe8170f4	-0.2528149
1	0x3e7b0245	0.24512585
2	0x3ec97160	0.3934431
3	0x3d406506	0.046971343
4	0x3e0fc579	0.14040174
5	0xbebf3c74	-0.3735081
6	0x3eb21d60	0.34788036
7	0xbe288f3c	-0.1646089
8	0xbec232fb	-0.3792952
9	0xbe702ef5	-0.23455413
10	0xbec2e3ec	-0.38064516
11	0xbe0b4f67	-0.13604508
12	0x3ec84e1b	0.3912209
13	0x3df6b7ca	0.12046774
14	0xbe8c25f0	-0.27372694
15	0x3d37cfc4	0.044875875
16	0x3e376cd6	0.17912611
17	0xbeb9be46	-0.3627798
18	0xbe3eba06	-0.1862565
19	0x3ed62e6d	0.41832295
20	0xbec2d702	-0.38054663
21	0x3cef5412	0.029214893
22	0xbebedb8f	-0.37276885
23	0x3e55430b	0.20826356
24	0x3e91a315	0.28444734
25	0xbe242966	-0.16031417
26	0xbe947f72	-0.29003483
27	0x3e6b7755	0.2299474
28	0x3db854b4	0.09000531
29	0x3d6b614f	0.057465848
30	0x3d1e1597	0.03859481
31	0x3ea37ce1	0.31931213

shared.2.weight f4 [64, 32]
0	0xbdeff359	-0.11716337
1	0x3de4d81b	0.11174031
2	0x3d441e43	0.047880422
3	0xbda49ff0	-0.08038318
4	0xbddf99ad	-0.10917983
5	0xbe26557f	-0.16243552
6	0xbcc3ed62	-0.023916904
7	0xbddd61c5	-0.10809664
8	0x3db2073e	0.086927876
9	0x3cede9fb	0.029042235
10	0x3d670154	0.05639775
11	0x3dc01ded	0.09380708
12	0xbd02cfc2	-0.031936415
13	0xbe190184	-0.14941984
14	0xbd230801	-0.039802555
15	0xbdc55382	-0.096350685
16	0x3d87f757	0.06638973
17	0xbda0ba44	-0.07848027
18	0xbda415cd	-0.08011971
19	0xbe083ae2	-0.13303712
20	0xbbca34fd	-0.0061708675
21	0x3dcb92fc	0.099401444
22	0xbd8a64ab	-0.06757482
23	0x3e00d77b	0.125822
24	0xbd2a9df1	-0.04165453
25	0x3c1097cd	0.008825255
26	0x3db0c6d0	0.086316705
27	0xbd91efcf	-0.07125818
28	0x3c866431	0.016405197
29	0xbdbde652	-0.09272446
30	0x3d467479	0.04845092
31	0xbe0f4f31	-0.13995053
32	0x3e05ba85	0.13059433
33	0x3d6c9098	0.057755083
34	0x3e23e72f	0.16006158
35	0xbe38f916	-0.18063769
36	0x3d5d8cdc	0.054089412
37	0x3d5c45f4	0.05377765
38	0xbd8a05da	-0.06739397
39	0xbc7dc52b	-0.015488903
40	0xbca5d185	-0.020241508
41	0x3e11950b	0.14217012
42	0xbdf4fea0	-0.11962628
43	0xbe134b47	-0.14384185
44	0x3e053bc3	0.13011079
45	0xbe378261	-0.1792083
46	0xbd7497a7	-0.05971494
47	0xbe030d2b	-0.12797992
48	0x3e1a3ad9	0.15061511
49	0xbe20c44e	-0.15699884
50	0xbe0acef7	-0.13555513
51	0x3d20c990	0.039254725
52	0x3df6263b	0.12019011
53	0x3d1ff9d0	0.0390566
54	0xbb76f396	-0.003768181
55	0x3dbbc8fa	0.091691926
56	0xbde12657	-0.10993641
57	0xbd896b37	-0.06709903
58	0x3e2edc6a	0.17076269
59	0x3d8d9630	0.069134116
60	0xbd289a10	-0.04116255
61	0xbde7900f	-0.11306774
62	0xbe046d6e	-0.12932369
63	0xbdb3e96e	-0.087847576
64	0x3df07899	0.11741752
65	0xbc4083bb	-0.011750157
66	0xbe2075ca	-0.15669933
67	0xbd84a75a	-0.06477232
68	0x3d4b6e8a	0.049665965
69	0x3d720331	0.059085075
70	0xbe142071	-0.144655
71	0x3df3158d	0.11869345
72	0xbcc625e5	-0.024187991
73	0x3e19b872	0.15011767
74	0x3d7740b5	0.060364444
75	0x3e327550	0.17427564
76	0xbde1e14b	-0.11029299
77	0x3dd22757	0.1026141
78	0xbda1beab	-0.07897695
79	0xbd1ef622	-0.03880895
80	0x3d59d536	0.05318185
81	0xbd9d6467	-0.07685166
82	0xbe163235	-0.1466759
83	0x3a2c271b	0.00065671065
84	0xbdc0692b	-0.09395059
85	0x3e155be8	0.1458584
86	0x3d3c6f11	0.04600436
87	0xbe17c466	-0.14821014
88	0xbe1f26ce	-0.15542147
89	0x3b95a492	0.0045667375
90	0xbdf5cc2e	-0.12001835
91	0xbd46493f	-0.048409697
92	0x3dfa9735	0.12235872
93	0x3ccbee36	0.024893861
94	0x3c722fa7	0.014781869
95	0x3d73b29c	0.059496507
96	0x3df0c090	0.117554784
97	0xbd8b54c6	-0.068032786
98	0x3e058c07	0.13041697
99	0xbc1c677b	-0.009546156
100	0x3df5c3e3	0.12000253
101	0x3db21c47	0.086968
102	0xbcc4f220	-0.024041235
103	0x3cb03180	0.021507978
104	0xbdcc31af	-0.09970414
105	0x3d20cf61	0.039260272
106	0xbe02b618	-0.12764776
107	0x3e0f1715	0.13973649
108	0xbe322ecb	-0.17400663
109	0x3dd56d25	0.10421208
110	0x3d7e90d1	0.062149826
111	0xbcf97e2c	-0.030455671
112	0xbde7b69d	-0.113141276
113	0xbe2c8b5a	-0.16850033
114	0xbc9cbe19	-0.019133614
115	0x3dfae2c6	0.12250285
116	0xbc99033d	-0.018678302
117	0x3d0f1482	0.034931667
118	0x3b855ba5	0.004069763
119	0xbde92be9	-0.11385328
120	0x3e176091	0.14782931
121	0x3d7ebb5a	0.06219039
122	0xbdf17fa0	-0.11791921
123	0xbd9d12be	-0.076695904
124	0xbcea6904	-0.028614528
125	0xbd85c3f4	-0.06531516
126	0xbd292179	-0.041291688
127	0x3da2beb3	0.07946529
128	0xbd8bc37e	-0.068243966
129	0xbdad70d3	-0.08468785
130	0xbe1e97a9	-0.15487541
131	0xbde374ed	-0.11106286
132	0xbd117fef	-0.035522398
133	0xbe1db570	-0.15401244
134	0x3ce25b50	0.027631432
135	0xbddf9d0e	-0.10918628
136	0xbe214934	-0.15750581
137	0x3cb611a6	0.022225212
138	0xbd417be1	-0.04723728
139	0xbe07dd76	-0.13268074
140	0xbe167ae5	-0.14695318
141	0xbde9e260	-0.11420131
142	0x3df408b2	0.11915721
143	0x3e1ebf9f	0.15502785
144	0x3e2ac2b3	0.16675834
145	0x3c79bd53	0.015242892
146	0x3e20d274	0.15705281
147	0x3cc21ac7	0.023694409
148	0x3d12612b	0.035737198
149	0xbdeea9a6	-0.116534516
150	0x3cad1f3e	0.021133061
151	0xbcd28972	-0.025700305
152	0x3d462245	0.048372526
153	0x3dc53213	0.096286915
154	0xbd31c126	-0.04339709
155	0x3cba5d28	0.022749498
156	0xbd1bf1f7	-0.038072553
157	0x3e0be41a	0.13661233
158	0xbd4fbc38	-0.05071661
159	0x3d8b796f	0.06810271
160	0x3e2d77ae	0.16940185
161	0x3e3cac39	0.18425073
162	0xbd26ed68	-0.040753752
163	0x3e045c6a	0.12925878
164	0x3e209625	0.15682276
165	0xbe067e1e	-0.13134047
166	0x3d6a4a09	0.05719951
167	0x3d99da8b	0.07512387
168	0xbd13a22c	-0.03604333
169	0x3e37504b	0.17901723
170	0x3ddc72e0	0.10764098
171	0x3d6b4abc	0.05744432
172	0x3d496553	0.049168896
173	0xbe23834c	-0.15968055
174	0xbdceacfd	-0.10091589
175	0xbd6f6f8b	-0.058455985
176	0xbd620ce0	-0.05518806
177	0x3d881272	0.06644143
178	0xbe0669d6	-0.1312631
179	0x3b976150	0.004619755
180	0xbddf7b42	-0.109121814
181	0x3d903d19	0.070429035
182	0xbdfdb3b4	-0.12387791
183	0x3cce14d7	0.025156422
184	0x3dfa9e08	0.12237173
185	0x3dca4606	0.09876637
186	0x3e22ca92	0.15897587
187	0x3db90aad	0.09035239
188	0x3cce6559	0.02519481
189	0x3e2db8d1	0.16965033
190	0xbe16b363	-0.14716868
191	0xbe16760e	-0.14693472
192	0x3d070e95	0.03297289
193	0xbc9ea371	-0.019365044
194	0x3d164093	0.036682677
195	0x3c586d70	0.013209686
196	0xbe2052e1	-0.15656616
197	0x3dc45b01	0.0958767
198	0xbcf08f1f	-0.02936512
199	0xbe296f87	-0.1654645
200	0x3d0e17ac	0.034690544
201	0x3d89d991	0.067309506
202	0xbdae91ca	-0.08523901
203	0x3d6210d2	0.055191822
204	0xbdb2b774	-0.08726397
205	0xbc8b770f	-0.017024545
206	0x3bc9b7d5	0.0061559477
207	0xbd983483	-0.07431891
208	0xbd1e1057	-0.0385898
209	0xbc2a5472	-0.01039611
210	0x3d293cc3	0.041317713
211	0xbdbc506e	-0.09195028
212	0xbdbd3e7b	-0.09240433
213	0x3d6d33be	0.057910673
214	0x3e2d2a01	0.16910554
215	0xbde49d24	-0.11162785
216	0x3dc46616	0.09589784
217	0xbe0f2c40	-0.13981724
218	0x3dbbc702	0.09168817
219	0x3dd9d9eb	0.10637268
220	0x3e019947	0.12656127
221	0x3caf6b8e	0.02141359
222	0x3e1988f3	0.14993648
223	0x3da30e53	0.079617165
224	0x3d816492	0.063180104
225	0xbdced778	-0.10099691
226	0x3dc28c8f	0.09499466
227	0x3e244f5d	0.160459
228	0xbdf7747b	-0.12082764
229	0x3e20d50b	0.1570627
230	0x3da9a203	0.082828544
231	0x3d9f3361	0.077734716
232	0xbdaf18ef	-0.085496776
233	0xbe03c559	-0.12868251
234	0xbe1aa31e	-0.15101287
235	0xbd9403c9	-0.072272845
236	0x3d41f772	0.047355123
237	0xbe2c6ab1	-0.16837575
238	0x3e14f39b	0.14546053
239	0xbdfbbef0	-0.12292278
240	0xbdc5ef56	-0.0966479
241	0x3de0cfaa	0.10977109
242	0xbdaa3ed9	-0.083127685
243	0xbe119017	-0.14215122
244	0xbcec0997	-0.028813167
245	0x3e03809a	0.12842026
246	0x3db1534b	0.08658465
247	0x3e017571	0.12642457
248	0xbe2ea9cd	-0.17056961
249	0x3e0264f8	0.12733829
250	0x3dbe2732	0.0928482
251	0xbdd5ea1b	-0.10445043
252	0xbde75c39	-0.11296887
253	0x3dc5a427	0.0965045
254	0xbdb4830d	-0.088140585
255	0xbd77e976	-0.06052538

shared.2.bias f4 [64]
0	0x3d616170	0.055024564
1	0x3ca614b6	0.020273548
2	0x3de82371	0.11334885
3	0xbde49fc8	-0.11163288
4	0xbe07a50d	-0.13246556
5	0xbe1ecbe3	-0.15507464
6	0xbd8a1677	-0.06742566
7	0xbd496d63	-0.049176585
8	0xbd82b661	-0.06382442
9	0x3d8f1205	0.06985859
10	0xbd824a40	-0.06361818
11	0x3cce69fd	0.025197024
12	0xbcac4825	-0.021030495
13	0xbcc05778	-0.023479208
14	0xbdf578c7	-0.11985927
15	0x3df70a37	0.12062495
16	0xbde5f424	-0.11228207
17	0xbe1bbde2	-0.15209153
18	0xbd0fdb3a	-0.03512118
19	0x3e24a48c	0.16078395
20	0x3e24f246	0.16108045
21	0x3b720e4c	0.003693479
22	0xbd8da94d	-0.06917057
23	0xbe0c9bb1	-0.13731267
24	0x3de7b711	0.11314214
25	0x3d1a8759	0.037726734
26	0x3cab4758	0.020908043
27	0x3dae0637	0.08497279
28	0x3dd34feb	0.103179775
29	0xbe24a0ee	-0.16077015
30	0x3ddef977	0.108874254
31	0xbe2bee83	-0.16790204
32	0x3c2e8ec9	0.01065416
33	0xbe06d635	-0.13167651
34	0xbde585ca	-0.11207159
35	0xbdfc694b	-0.123247705
36	0x3e14696a	0.14493337
37	0xbdf95628	-0.12174636
38	0x3e14f7c8	0.14547646
39	0x3dd64b5e	0.10463594
40	0xbdd923e0	-0.10602546
41	0xbe097890	-0.13424897
42	0xbe0a4765	-0.13503797
43	0x3ba40fc8	0.005006764
44	0xbd3782a8	-0.044802338
45	0x3e2c5d51	0.16832472
46	0xbe020fe5	-0.12701376
47	0xbe368c55	-0.1782697
48	0x3c7c941f	0.015416174
49	0x3e0ed2a0	0.13947535
50	0xbdb35b56	-0.08757655
51	0xbe27bc78	-0.16380489
52	0x3d3b2e10	0.045698225
53	0x3d77ace6	0.060467623
54	0x3d7291a4	0.059220925
55	0xbdd935a6	-0.10605936
56	0x3d418b80	0.04725218
57	0xbcd933bd	-0.026513929
58	0x3d8a3999	0.06749267
59	0x3df5a048	0.11993462
60	0x3d912921	0.07087923
61	0x3dc3d090	0.095612645
62	0x3e263118	0.16229665
63	0x3d7c3a61	0.061579112

index_head.0.weight f4 [32, 64]
0	0x3d87df98	0.06634444
1	0x3ccbfcd2	0.024900828
2	0xbddbabd3	-0.10726132
3	0x3de6a314	0.112615734
4	0x3dc1ab3e	0.0945649
5	0xbe02d2e0	-0.12775755
6	0xbdf9976a	-0.12187083
7	0x3cf26178	0.029587492
8	0xbd8143c8	-0.06311756
9	0xbd440344	-0.047854677
10	0x3d51b39c	0.05119668
11	0xbcf0847c	-0.029360048
12	0x3d693da6	0.05694356
13	0x3df5edeb	0.1200827
14	0x3de7a09a	0.11309929
15	0xbd2b34b4	-0.04179831
16	0xbdfae196	-0.12250058
17	0x3dde58c8	0.108567774
18	0xbddc76fa	-0.107648805
19	0xbcfb4f0d	-0.030677343
20	0xbc3d71c3	-0.011562767
21	0x3dbd951a	0.092569545
22	0xbdb00641	-0.08594943
23	0x3d8b3308	0.06796843
24	0xbdcf91e9	-0.10135252
25	0xbbe1c75f	-0.006890222
26	0xbd98fb26	-0.07469778
27	0x3bf2db7a	0.0074114176
28	0xbd8d84f1	-0.06910122
29	0x3db4793a	0.08812185
30	0xbd92bdc2	-0.071651
31	0x3c9ad9a0	0.0189026
32	0x3ced43fc	0.028963082
33	0x3d02e83c	0.031959757
34	0xbdc6179e	-0.09672473
35	0x3d8bff64	0.06835821
36	0x3e0e0126	0.13867626
37	0xbd7f8ec2	-0.062392004
38	0x3ca06691	0.019580157
39	0xbd40f58b	-0.047109168
40	0x3df1cf23	0.11807086
41	0x3de0e2bf	0.109807484
42	0xb95f7000	-0.0002130866
43	0x3d0a5747	0.03377464
44	0x3d276a7a	0.04087303
45	0x3d1a97ec	0.03774254
46	0xbdd3f6a2	-0.10349776
47	0xbdb42902	-0.08796884
48	0xbcf37294	-0.029717721
49	0x3c858857	0.016300363
50	0x3b48de00	0.00306499
51	0x3d44ed14	0.048077658
52	0x3d29d85c	0.041466102
53	0xbc803ce5	-0.015654037
54	0xbda30ab8	-0.07961029
55	0x3d86fdd2	0.06591381
56	0xbd77e7a8	-0.06052366
57	0x3c58ec60	0.01323995
58	0x3dc91c8a	0.098198965
59	0x3d0b89aa	0.034066834
60	0xbd6b18e0	-0.05739677
61	0x3ddfe303	0.10931971
62	0x3cb4266d	0.02199098
63	0xbda44740	-0.08021402
64	0x3deff916	0.11717431
65	0x3e0d5c78	0.13804805
66	0xbd84b282	-0.0647936
67	0xbdc7e272	-0.09759988
68	0xbccefed8	-0.025268003
69	0xbdfc87e1	-0.12330604
70	0x3d218fd0	0.03944379
71	0x3de94b8c	0.113913625
72	0xbdd109d6	-0.10206954
73	0xbdb6e386	-0.089301154
74	0x3d636f08	0.05552581
75	0x3d2b53c2	0.041827925
76	0x3d5f053f	0.054448362
77	0x3e1382c8	0.14405358
78	0xbd3563e8	-0.04428473
79	0x3dd5d17f	0.10440349
80	0x3dfd7c5e	0.12377237
81	0x3da72c04	0.08162692
82	0x3df5e9c6	0.12007479
83	0x3e0e3bc5	0.13889988
84	0xbd615c5f	-0.055019733
85	0xbd496fa6	-0.049178742
86	0x3d0bc20f	0.034120616
87	0xbde84ef8	-0.11343187
88	0x3d029b5c	0.031886443
89	0xbd638779	-0.05554912
90	0x3cab22a0	0.020890534
91	0xbd6054d2	-0.05476839
92	0x3d80082e	0.0625156
93	0x3d859ae4	0.06523684
94	0xbcfd98a3	-0.030956572
95	0xbcc60d78	-0.024176344
96	0x3d646042	0.05575586
97	0xbdc432c2	-0.09579994
98	0xbda793ee	-0.08182512
99	0xbdea0234	-0.114262015
100	0xbd36f3f2	-0.044666238
101	0xbd04f1c6	-0.032457136
102	0x3dcb49a4	0.09926155
103	0x3bd0be1f	0.0063703205
104	0xbd2cfe32	-0.042234607
105	0xbd623e0d	-0.055234957
106	0x3db6158a	0.08890827
107	0x3cd1effc	0.025627129
108	0xbda3cd96	-0.07998197
109	0x3d92ff50	0.07177603
110	0x3daa9c02	0.083305374
111	0xbcf8233b	-0.030290237
112	0x3dd42602	0.10358812
113	0xbd5d6322	-0.05404962
114	0xbd571878	-0.05251357
115	0xbdc71172	-0.09720124
116	0xbdb1572f	-0.08659207
117	0x3d5792aa	0.052630104
118	0xbd59e5cb	-0.053197663
119	0xbcab3e78	-0.02090381
120	0x3d98c703	0.074598335
121	0x3d6f9580	0.058492184
122	0xbd840a95	-0.06447331
123	0xbd98e339	-0.07465214
124	0xbd3d3242	-0.046190508
125	0x3d9ecb93	0.077536725
126	0x3ceac823	0.028659886
127	0x3dd85113	0.10562339
128	0xbd097c20	-0.03356564
129	0x3d9bbaf4	0.07604018
130	0xbdd0c7b6	-0.10194342
131	0xbd85480c	-0.065078825
132	0x3de388de	0.1111009
133	0x3dc996cc	0.09843215
134	0x3c948c38	0.018133268
135	0x3dd3014a	0.1030298
136	0x3d4f4388	0.050601512
137	0xbcc2e5b8	-0.023791179
138	0xbd0088bc	-0.0313804
139	0x3d8fe07f	0.07025241
140	0x3cf46916	0.029835265
141	0x3cc89311	0.02448419
142	0x3d98be84	0.07458213
143	0xbd82e847	-0.0639196
144	0xbd60e0e8	-0.054901987
145	0xbcd442a8	-0.02591069
146	0xbd635fc0	-0.055511236
147	0x3dc83cad	0.09777198
148	0xbd00450e	-0.031315856
149	0xbc80e904	-0.01573611
150	0xbe06e2de	-0.1317248
151	0xbd731cd8	-0.05935368
152	0x3dc191ac	0.09451613
153	0xbc988a54	-0.018620647
154	0xbc619a71	-0.013769732
155	0xbdc9eeaf	-0.098599784
156	0xbd96fec5	-0.07372812
157	0xbdf5c1f8	-0.11999887
158	0xbda7796b	-0.081774555
159	0xbd7def70	-0.061995924
160	0xbdbf44f2	-0.09339322
161	0xbdc4f6ba	-0.09617372
162	0x3dc76884	0.09736732
163	0xbd5cdcac	-0.053921387
164	0x3e0281d1	0.12744834
165	0xbcb4b7ac	-0.022060238
166	0xbc7f8ed2	-0.015598016
167	0x3d2317d8	0.03981766
168	0x3e10b5df	0.14131878
169	0xbcd98775	-0.026553849
170	0xbd02b7a0	-0.0319134
171	0x3d20c5fb	0.03925131
172	0x3d8e0942	0.069353595
173	0x3d00f0c1	0.0314796
174	0x3dd5c150	0.10437262
175	0xbe00922f	-0.12555765
176	0x3d70b148	0.05876282
177	0xbd3a95d4	-0.045553043
178	0x3dcfc732	0.10145415
179	0x3c9047c0	0.017612338
180	0xbb0b06ec	-0.0021213843
181	0xbc004f7b	-0.00783145
182	0xbb55d4ec	-0.0032628132
183	0xbccca790	-0.024982244
184	0xbd99ceec	-0.0751017
185	0xbdd55604	-0.10416797
186	0xbda5af43	-0.08090069
187	0x3c185436	0.009297421
188	0xbd6d0f51	-0.057875935
189	0x3dba8ab0	0.09108484
190	0x3d6c51ea	0.057695307
191	0xbcc21a58	-0.023694202
192	0x3db3b806	0.08775334
193	0x3db3fcff	0.087884896
194	0x3d833648	0.06406838
195	0x3cebbbd0	0.02877608
196	0xbd3a465c	-0.045477256
197	0x3d88d24e	0.066807374
198	0xbde1d5de	-0.1102712
199	0x3d0b407c	0.033997044
200	0xbd0fa7bc	-0.035072073
201	0xbdf07800	-0.11741638
202	0x3d6e53e8	0.058185488
203	0xbdd2f891	-0.103013165
204	0xbd9202e5	-0.07129458
205	0xbdf2a0cf	-0.11847078
206	0xbb850a20	-0.004060045
207	0x3dc38293	0.095463894
208	0xbd902bc8	-0.070396006
209	0xbdd168ec	-0.102250904
210	0xbdc573d6	-0.096412346
211	0xbdda5574	-0.1066083
212	0x3d5e9e13	0.05434997
213	0x3bc185cb	0.005905842
214	0x3dfa084e	0.12208615
215	0x3dc57584	0.09641555
216	0xbd8269bf	-0.06367826
217	0x3daf89a4	0.08571175
218	0xbdd864c7	-0.10566097
219	0xbdd30e0a	-0.10305412
220	0x3d3ff01c	0.046859846
221	0x3c265db0	0.010154173
222	0x3c790c3b	0.01520067
223	0xbbf698c0	-0.0075255334
224	0x3dab39f9	0.08360667
225	0xbcb63230	-0.022240728
226	0x3d8f4484	0.0699549
227	0xbd45862c	-0.04822366
228	0xbdf1b95e	-0.11802934
229	0x3d875393	0.066077374
230	0xbd9f8c61	-0.07790447
231	0x3dc4ac48	0.096031725
232	0xbdddec7f	-0.10836124
233	0x3db27fac	0.08715758
234	0xbdd21b08	-0.10259062
235	0xbd8c48e3	-0.068498395
236	0xbd4f74fe	-0.05064868
237	0xbd19403e	-0.03741478
238	0x3cc69a68	0.024243549
239	0x3d2a184a	0.04152707
240	0x3d9fdfba	0.07806344
241	0x3db02144	0.08600095
242	0x3d9c8778	0.07643026
243	0x3c508ff0	0.01272963
244	0xbb5de592	-0.0033858758
245	0x3d5e51bf	0.054277178
246	0xbda0e2c4	-0.07855752
247	0xbcead318	-0.02866511
248	0xbc80ecf5	-0.01573799
249	0xbd884254	-0.06653276
250	0xbdcfcc1e	-0.10146354
251	0x3dc3c002	0.09558107
252	0xbdaa671c	-0.08320448
253	0xbd92fb4a	-0.07176836
254	0x3daeba2a	0.08531602
255	0xbe068295	-0.1313575

index_head.0.bias f4 [32]
0	0x3dec8505	0.11548809
1	0x3d1250eb	0.0357217
2	0x3d3d189c	0.046166047
3	0x3dbc813b	0.09204336
4	0x3d427036	0.047470294
5	0x3cbfcf9d	0.023414427
6	0xbd31644e	-0.04330855
7	0x3d0ea7e7	0.034828093
8	0x3b87e611	0.004147299
9	0x3da9f0f2	0.0829791
10	0x3dac541a	0.084144786
11	0xbbcf8f63	-0.0063342317
12	0xbd265320	-0.040606618
13	0x3dd7fa77	0.10545819
14	0x3ded2793	0.11579814
15	0x3dadb8c3	0.08482506
16	0x3cb9c90c	0.022678874
17	0xbdf1fdaa	-0.11815961
18	0x3d2be847	0.041969564
19	0xbd4d7b0c	-0.050166175
20	0xbdb12708	-0.08650023
21	0xbca2bf78	-0.01986669
22	0x3d97b092	0.07406725
23	0xbd4e4402	-0.050357826
24	0xbdb2d60e	-0.08732234
25	0x3db8a764	0.09016302
26	0x3dbf10df	0.0932939
27	0xbc7109e0	-0.014711827
28	0x3d12b226	0.035814427
29	0xbdd8e42a	-0.10590394
30	0xbd46b4da	-0.048512317
31	0xbdf57f5c	-0.119871825

index_head.2.weight f4 [1, 32]
0	0x3e154534	0.1457718
1	0x3d90ae6f	0.070645206
2	0x3d5835a8	0.052785546
3	0xbdb0e7d0	-0.08637965
4	0x3e3e2601	0.18569185
5	0x3d98d103	0.07461741
6	0x3e2b623f	0.16736697
7	0xbdd00e0f	-0.101589315
8	0xbdd2718d	-0.10275564
9	0xbdf55674	-0.1197938
10	0xbd3674b6	-0.044544898
11	0xbe144c74	-0.1448229
12	0xbd8581ff	-0.065189354
13	0x3e1ae546	0.15126523
14	0x3d71cee9	0.059035216
15	0x3d953ab7	0.072865896
16	0xbe2390f5	-0.15973265
17	0x3e34cc45	0.17656048
18	0xbd2ccada	-0.04218564
19	0xbdffb346	-0.124853656
20	0xbcd2769e	-0.025691327
21	0x3d1a8262	0.037722
22	0x3dcde815	0.10054032
23	0x3c83b65e	0.01607817
24	0x3d45fb2e	0.048335247
25	0xbd8f5dd6	-0.0700032
26	0xbe176ad9	-0.14786853
27	0xbda67c5a	-0.08129187
28	0xbc26ba78	-0.010176294
29	0x3e22a856	0.15884528
30	0x3e43995d	0.19101472
31	0x3d142557	0.036168423

risk_head.0.weight f4 [32, 64]
0	0xbd4b61a4	-0.049653664
1	0xbd14284c	-0.036171243
2	0xbcd13de7	-0.025542213
3	0x3d722364	0.059115782
4	0x3ba11c60	0.0049167126
5	0x3d7aa173	0.061189126
6	0x3da373ec	0.07981095
7	0xbcabeea0	-0.020987809
8	0xbdf8b3a0	-0.12143636
9	0x3cc7fb80	0.024411917
10	0xbd2ea74c	-0.042640015
11	0x3e084300	0.13306808
12	0xbdb70454	-0.089363724
13	0xbcb25b41	-0.021772029
14	0x3dc79960	0.09746051
15	0x3d9ae036	0.07562296
16	0xbbc27e40	-0.0059354603
17	0x3d4d0344	0.050051942
18	0xbd6a4108	-0.057190925
19	0x3dcc9525	0.099893846
20	0x3d3259b2	0.04354257
21	0x3c575756	0.013143381
22	0x3d980e49	0.074246
23	0xbd084f40	-0.033278704
24	0x3dd91ae3	0.10600831
25	0xbdb28e09	-0.08718497
26	0x3de34f37	0.110990934
27	0xbddfc99c	-0.10927126
28	0x3dae08a2	0.0849774
29	0xbde11cd8	-0.1099183
30	0x3d34500f	0.044021662
31	0xbd205698	-0.039145082
32	0xbd799d06	-0.060940765
33	0x3be244c0	0.0069051683
34	0x3d7a5cf0	0.06112379
35	0xbd7fc8a8	-0.06244722
36	0xbd48b5e9	-0.049001608
37	0x3d9bb540	0.0760293
38	0x3e14d122	0.14532903
39	0x3e035ad1	0.12827612
40	0x3d0ad3ed	0.033893514
41	0xbd40694f	-0.04697543
42	0x3d8a89cc	0.06764564
43	0x3dd2bb6a	0.10289653
44	0x3dd20797	0.10255354
45	0xbd9ef7e4	-0.07762125
46	0x3db42d5a	0.087977126
47	0x3d488b9c	0.048961267
48	0xbda6983f	-0.081345074
49	0x3e00fdc7	0.12596808
50	0x3ca02428	0.01954849
51	0x3da747e6	0.081680104
52	0x3a3fecd8	0.0007321364
53	0xbdbc1981	-0.09184552
54	0x3dcb2326	0.099188134
55	0x3d89b726	0.06724386
56	0x3cd01e3a	0.025405038
57	0xbc4e7400	-0.012600899
58	0x3db90663	0.09034421
59	0x3d685eed	0.056731153
60	0xbd7b990e	-0.06142526
61	0x3d0c8b88	0.034312755
62	0x3b02454a	0.0019877725
63	0x3ddff0e8	0.10934621
64	0xbdb7c57c	-0.08973214
65	0xbdec4d94	-0.11538234
66	0xbdb0e57c	-0.08637521
67	0xbdaa11ac	-0.08304152
68	0x3db8c302	0.0902157
69	0x3d99b960	0.075060606
70	0xbda82a46	-0.08211188
71	0xbd491a04	-0.049097076
72	0xbb46c000	-0.0030326843
73	0xbc0a7b20	-0.008452207
74	0xbd9140de	-0.070924506
75	0xbdacfef8	-0.08447069
76	0x3dd9938f	0.10623848
77	0x3dda1d7f	0.10650157
78	0xbdaabe30	-0.08337057
79	0x3caa75d3	0.020808136
80	0xbcd54648	-0.02603449
81	0x3d99ae8e	0.07503997
82	0xbdbf0872	-0.09327783
83	0xbdf0f85e	-0.11766122
84	0xbc858c1c	-0.01630216
85	0x3da74442	0.08167316
86	0xbd63b37c	-0.05559109
87	0x3db2a120	0.087221384
88	0x3c6e9485	0.014561777
89	0xbd800bba	-0.06252237
90	0xbc43cec3	-0.011951151
91	0x3dc179aa	0.09447034
92	0x3db4495d	0.088030554
93	0x3dd97b7a	0.106192544
94	0x3dab8208	0.08374411
95	0xbd49da34	-0.04928036
96	0x3dbd01b4	0.092288405
97	0x3d1d2dc0	0.03837371
98	0x3cdb9bf8	0.02680777
99	0xbd9fd7d4	-0.07804838
100	0xbdc57f85	-0.09643463
101	0x3d6eb10a	0.058274306
102	0x3dc00b9f	0.093772165
103	0x3de47274	0.11154643
104	0x3bd9a179	0.0066415635
105	0xbd6f8048	-0.058471948
106	0x3db6b904	0.08922008
107	0x3cbbdf25	0.022933552
108	0x3dbab9e4	0.09117487
109	0xbd8666f0	-0.065626025
110	0xbca60330	-0.020265192
111	0x3dc01c96	0.09380452
112	0xbdba200f	-0.09088146
113	0x3d300b48	0.04297951
114	0x3dd084e6	0.10181598
115	0x3df77316	0.12082498
116	0x3d9bdfba	0.07611032
117	0x3cf5d4af	0.030008642
118	0x3d066438	0.03281042
119	0xbd1dc628	-0.038519055
120	0xbdfd9bdc	-0.123832434
121	0x3dbbb87e	0.091660485
122	0xbdf1d939	-0.1180901
123	0x3cf2bead	0.029631937
124	0x3d687c0e	0.056758933
125	0x3dbcb740	0.0921464
126	0x3c7a2db2	0.015269684
127	0xbdc6130b	-0.09671601
128	0x3c631c60	0.013861746
129	0x3da19e7f	0.07891559
130	0xbdf6c701	-0.12049676
131	0xbd1ede20	-0.038786054
132	0xbd7427cc	-0.059608266
133	0x3d210fdd	0.03932177
134	0xbcdc0d08	-0.026861683
135	0x3d1f5584	0.038899913
136	0x3daec62a	0.085338905
137	0xbdbe743e	-0.09299515
138	0xbb960260	-0.00457792
139	0x3d83b56c	0.06431088
140	0xbdcb3809	-0.09922797
141	0xbd8ce305	-0.06879238
142	0xbcf04a78	-0.029332384
143	0xbd8a023b	-0.06738707
144	0x3dd0caae	0.10194908
145	0xbdc3b040	-0.095551014
146	0xbc6d7060	-0.014492124
147	0x3b138af8	0.0022513252
148	0xbddb2a0e	-0.10701381
149	0xbd738b9d	-0.059459317
150	0x3cfb6a93	0.030690467
151	0x3d680384	0.056643978
152	0x3d828b4c	0.06374225
153	0x3d146b3c	0.03623508
154	0xbc5cef4e	-0.013484789
155	0xbc6f0a12	-0.014589803
156	0xbd074a6d	-0.033029962
157	0x3ca07ad0	0.019589812
158	0xbe05a3a2	-0.13050702
159	0xbda59d26	-0.08086614
160	0xbd840bd3	-0.06447568
161	0xbdcb9b96	-0.09941785
162	0x3d298b78	0.041392773
163	0xbc2df1c0	-0.01061672
164	0xbdabbb7e	-0.08385371
165	0x3d49c036	0.049255572
166	0x3d696ac1	0.056986574
167	0xbd6a8e6d	-0.057264734
168	0xbb892b8d	-0.0041861
169	0x3cb522b6	0.022111278
170	0xbd98885a	-0.07447882
171	0x3ddd5fa4	0.108092576
172	0xbd0c2ebd	-0.03422426
173	0xbd92419e	-0.07141422
174	0xbcf221b0	-0.02955708
175	0x3c535760	0.01289925
176	0xbdda689d	-0.10664485
177	0x3c73c6f4	0.014878977
178	0x3dd88460	0.105721235
179	0xbd594ea4	-0.053053513
180	0x3c7da6f7	0.015481702
181	0x3d902225	0.070377626
182	0xbcaa97a1	-0.020824255
183	0xbddc359e	-0.10752414
184	0xbd3c3902	-0.045952804
185	0xbde5ecfe	-0.11226843
186	0x3d2b16f8	0.04176995
187	0x3ca6f4d7	0.02038042
188	0xbdad167a	-0.08451553
189	0x3d91733a	0.07102056
190	0xbc3e3a30	-0.011610553
191	0x3da060ca	0.07830961
192	0xbd4a2354	-0.049350098
193	0x3d854848	0.06507927
194	0x3d44e53c	0.048070177
195	0xbbf88260	-0.0075839013
196	0x3d5343e4	0.051578417
197	0xbc3edd7d	-0.011649487
198	0xbdb88cda	-0.0901124
199	0x3df84964	0.12123373
200	0xbc806f50	-0.015678078
201	0xbdaa229a	-0.08307381
202	0xbdee8d9c	-0.116481036
203	0xbd567cfc	-0.05236529
204	0xbd99bbe5	-0.07506541
205	0xbce3e8f1	-0.027821036
206	0xbdf336dc	-0.11875698
207	0x3dd184eb	0.1023043
208	0x3bb11300	0.0054038763
209	0x3db2609a	0.087098315
210	0xbc4a76f0	-0.0123574585
211	0x3e073e11	0.1320727
212	0x3cfddb6b	0.030988416
213	0x3db9c6f8	0.090711534
214	0xbcb64490	-0.02224949
215	0x3df6b4ee	0.12046228
216	0xbd80f233	-0.06296196
217	0xbd7f0fad	-0.06227081
218	0xbbf3f1ae	-0.007444582
219	0x3e0c0dfc	0.1367721
220	0xbdbb81d4	-0.09155622
221	0x3de353dc	0.11099979
222	0xbd9d6e5f	-0.07687067
223	0xbdea7942	-0.11448909
224	0x3db3a61a	0.08771916
225	0x3d804fd4	0.06265226
226	0x3dc31ac8	0.095265925
227	0xbcc23df8	-0.02371119
228	0xbb84241d	-0.0040326254
229	0xbcc6e379	-0.02427839
230	0x3dba47e6	0.09095745
231	0x3d117508	0.035512
232	0x3cc4d57c	0.024027579
233	0x3d8f2c5c	0.06990883
234	0x3daef784	0.085433036
235	0x3d817d92	0.06322779
236	0xbc205a6c	-0.009787183
237	0x3de04e6f	0.1095246
238	0x3d9fc4e4	0.07801226
239	0x3ccf8571	0.025332185
240	0x3e1156f6	0.14193329
241	0x3cd06c98	0.025442407
242	0x3dfb1766	0.12260322
243	0x3addb580	0.0016915053
244	0xbd96cda6	-0.07363443
245	0x3d812dda	0.063075736
246	0xbd8086c0	-0.062757015
247	0x3d06d97c	0.032922253
248	0x3d34c6b8	0.044134825
249	0x3dc1199a	0.09428711
250	0xbc2df59a	-0.010617638
251	0x3dc1100a	0.09426887
252	0x3bde6a0d	0.0067875446
253	0x3df1d34a	0.11807878
254	0x3d972683	0.073803924
255	0x3e0e19b0	0.13876987

risk_head.0.bias f4 [32]
0	0x3c995cdc	0.018721037
1	0x3d9aa3f6	0.07550804
2	0x3dada752	0.084791794
3	0x3d8526de	0.06501554
4	0xbcc12657	-0.023577852
5	0x3de34fa4	0.110991746
6	0xbbd55dec	-0.0065114405
7	0x3b8420a0	0.0040322095
8	0x3c17ee88	0.009273179
9	0xbd402c5d	-0.046917308
10	0x3d63a89f	0.05558073
11	0x3df3f1ff	0.119113915
12	0x3cd35caf	0.02580103
13	0xbdf07224	-0.117405206
14	0x3dd06cf5	0.10177032
15	0x3d0de4fd	0.03464221
16	0xbdc7d250	-0.09756911
17	0xbc9118b2	-0.017711971
18	0x3d9bea05	0.07612995
19	0x3dd7fb43	0.10545971
20	0x3d76a862	0.060219176
21	0x3d9a5328	0.07535392
22	0x3ca442e8	0.020051435
23	0xbc53a3de	-0.012917487
24	0xbc9b94e0	-0.018991888
25	0xbc317930	-0.010832116
26	0x3de5a25c	0.11212608
27	0x3d9b0dd2	0.075709954
28	0x3d6c47b0	0.057685554
29	0xbb4b5fbb	-0.0031032402
30	0x3ce94034	0.028472997
31	0xbdc03520	-0.09385133

risk_head.2.weight f4 [10, 32]
0	0xbe423f92	-0.18969563
1	0x3ddff4e5	0.10935382
2	0x3e1767ba	0.14785662
3	0xbcb36c7a	-0.021902312
4	0xbe05bb56	-0.13059744
5	0x3c0dc5b2	0.008653091
6	0xbdf05818	-0.117355525
7	0x3dcb6ef4	0.09933272
8	0xbdc1eaa8	-0.09468585
9	0xbe185f30	-0.14880061
10	0x3d949d48	0.072565615
11	0x3e019d59	0.1265768
12	0xbcd6ec73	-0.026235795
13	0x3d86dcc6	0.06585078
14	0xbcada2a2	-0.021195713
15	0x3d8e7f48	0.06957871
16	0x3d99bddf	0.07506918
17	0x3dd2d166	0.10293846
18	0xbe11cafa	-0.14237586
19	0xbe26fb13	-0.16306715
20	0xbde363db	-0.1110303
21	0xbe46ad6c	-0.19402093
22	0xbdf24f3c	-0.11831519
23	0xbdf1cb22	-0.11806323
24	0x3d99d8be	0.075120434
25	0xbd8d2446	-0.06891684
26	0xbde11cdf	-0.10991835
27	0xbde98734	-0.11402741
28	0xbdba9bd9	-0.09111757
29	0xbe1f2746	-0.15542325
30	0x3e12d0e9	0.14337505
31	0x3da79bbc	0.08184001
32	0xbe1c91d6	-0.15290007
33	0xbe25738e	-0.16157362
34	0xbdb706d2	-0.08936848
35	0x3dd56a29	0.10420639
36	0xbd8e99c2	-0.06962921
37	0x3d45bd83	0.048276436
38	0xbdbcb268	-0.09213716
39	0xbce6791f	-0.028133927
40	0xbde59377	-0.11209767
41	0x3e27ce07	0.16387187
42	0xbe2baabd	-0.1676435
43	0xbe393ebb	-0.18090336
44	0x3d2379ac	0.039910957
45	0xbdd8fc0e	-0.105949506
46	0x3e15c1ad	0.14624663
47	0x3dabc98b	0.08388051
48	0xbc6f4821	-0.014604599
49	0x3e072fbf	0.13201807
50	0xbe177d93	-0.14793997
51	0x3d28c380	0.04120207
52	0xbdd12572	-0.1021222
53	0xbb8dc400	-0.0043263435
54	0xbda16c19	-0.07881946
55	0xbdd519a1	-0.10405279
56	0x3d90b4fe	0.070657715
57	0x3da7838d	0.08179388
58	0x3de5d5d8	0.11222428
59	0xbe0c158e	-0.13680097
60	0x3e0a83af	0.13526796
61	0x3da77ad4	0.081777245
62	0x3b2371f9	0.002493976
63	0x3e195aae	0.14975998
64	0xbe172d17	-0.14763294
65	0xbd8b5167	-0.06802636
66	0x3d8e6568	0.069529355
67	0xbe19aa37	-0.15006338
68	0x3db68f71	0.08914078
69	0x3d03aa54	0.03214486
70	0xbd9cea3e	-0.07661866
71	0x3d8bb392	0.0682136
72	0xbcf20955	-0.029545465
73	0x3ca9398c	0.020657323
74	0xbe2073de	-0.156692
75	0xbd724730	-0.05914992
76	0xbdc19636	-0.094524786
77	0x3dedcbc3	0.1161113
78	0x3dc92ff5	0.098236
79	0x3d7f7a94	0.06237276
80	0xbe11db86	-0.14243898
81	0xbe485b42	-0.19566062
82	0x3da42361	0.080145605
83	0xbd9d7955	-0.07689158
84	0x3e1a5410	0.1507113
85	0x3e1af862	0.15133813
86	0xbd36c491	-0.044621054
87	0xbe1ea5d3	-0.15492944
88	0x3ddf78f6	0.10911743
89	0xbd1ad07f	-0.037796494
90	0x3d60d801	0.054893497
91	0xbd834ffb	-0.064117394
92	0x3bd14ef7	0.006387587
93	0x3e112175	0.14172919
94	0x3d548385	0.05188324
95	0xbdb13732	-0.08653106
96	0xbd8fb260	-0.07016444
97	0xbcea3634	-0.0285903
98	0xbd308eb9	-0.04310486
99	0xbd8b0a20	-0.067890406
100	0xbe184dae	-0.14873382
101	0x3da1a259	0.078922935
102	0xbe376766	-0.17910537
103	0xbdf6879f	-0.120375864
104	0x3dcb3aab	0.099232994
105	0xbe22f1b3	-0.15912513
106	0x3db963c2	0.090522304
107	0x3d578424	0.052616253
108	0x3decbe69	0.11559755
109	0xbe23227c	-0.15931123
110	0xbe032e99	-0.12810744
111	0xbc9e1a8d	-0.01929977
112	0xbd84044a	-0.064461306
113	0x3c8a2f6d	0.016868317
114	0xbcc3f0ce	-0.023918536
115	0xbe25adaa	-0.16179529
116	0xbe41ec40	-0.18937778
117	0xbe09be2f	-0.13451456
118	0x3e0437f2	0.12911966
119	0xbd42d4e5	-0.047566313
120	0xbcdd4d38	-0.02701436
121	0x3de0534a	0.10953386
122	0xbd7454f7	-0.05965134
123	0xbe151a4c	-0.14560813
124	0x3e02cb0e	0.12772772
125	0x3d43f1a0	0.047837853
126	0x3c8fb66a	0.017543036
127	0xbd533add	-0.05156981
128	0xbe175eeb	-0.14782302
129	0x3dd1992d	0.10234294
130	0xbe389f92	-0.18029621
131	0x3c15d519	0.009145045
132	0xbdb97a21	-0.09056497
133	0xbc72cd1a	-0.014819408
134	0x3dd0c890	0.10194504
135	0xbd8ce60c	-0.068798155
136	0xbd9c9ad4	-0.076467186
137	0x3e057328	0.1303221
138	0x3e14fbb5	0.14549144
139	0x3d97e9fc	0.07417676
140	0xbe140fcc	-0.14459151
141	0x3e0a0275	0.134775
142	0x3db6a84d	0.089188196
143	0xbe178fe0	-0.14800978
144	0xbe0b599d	-0.13608404
145	0xbe11d0f6	-0.14239869
146	0x3e14b7dc	0.14523262
147	0xbe26d4a6	-0.16292056
148	0x3d817b68	0.06322366
149	0x3d82954b	0.063761316
150	0x3badbfdd	0.005302413
151	0xbe369c05	-0.17832954
152	0x3dca35e8	0.09873563
153	0x3c7e5b85	0.01552475
154	0xbe4570a7	-0.19281255
155	0x3dd62bad	0.10457549
156	0xbdeb478a	-0.11488254
157	0xba065f58	-0.00051259017
158	0x3d516d98	0.051129907
159	0x3d51cad0	0.051218808
160	0x3e0ed128	0.13946974
161	0xbdc46f88	-0.095915854
162	0x3e125475	0.1429003
163	0xbd9e8da4	-0.077418596
164	0x3d9a65bc	0.075389355
165	0xbe2fe635	-0.17177661
166	0x3df571b9	0.119845815
167	0xbe03e8f7	-0.12881838
168	0xbe15f869	-0.14645542
169	0xbe2bcf54	-0.16778308
170	0x3d52c778	0.05145976
171	0x3e1605c1	0.14650632
172	0xbd1a2d86	-0.03764107
173	0xbe1ec518	-0.15504873
174	0xbc6acd5b	-0.014331187
175	0xbd702c03	-0.058635723
176	0x3c224b1e	0.009905605
177	0x3de7e62a	0.11323197
178	0x3d16edce	0.036847882
179	0x3d86f781	0.065901764
180	0xbd0a7164	-0.033799544
181	0xbd4cb40a	-0.049976386
182	0xbe42b1be	-0.19013116
183	0x3b8e8245	0.0043490254
184	0x3d4db9ee	0.050226144
185	0xbbe8ef33	-0.007108593
186	0xbd272ec6	-0.04081609
187	0x3ba324cb	0.0049787513
188	0x3d9dfb5f	0.07713961
189	0x3db36aeb	0.08760627
190	0x3e11f414	0.14253265
191	0xbdcf0309	-0.10108001
192	0x3d299541	0.041402105
193	0x3cc89747	0.024486197
194	0xbde38021	-0.11108423
195	0xbe21399c	-0.15744632
196	0xbd5b8895	-0.05359705
197	0xbe19da2a	-0.15024629
198	0x3e1714a9	0.14753975
199	0xbdb9f0f8	-0.09079164
200	0x3e1ba3ed	0.15199251
201	0xbdc6c08f	-0.097046964
202	0xbe04bab7	-0.12961851
203	0xbb621068	-0.0034494642
204	0xbe449a0a	-0.19199386
205	0xbdadc18c	-0.08484182
206	0x3df0028b	0.11719235
207	0xbd3879fc	-0.04503821
208	0xbcb0b5d2	-0.021571074
209	0x3d0f981e	0.03505718
210	0x3e140fdf	0.1445918
211	0x3d9b085f	0.07569956
212	0xbe0fe43a	-0.14051905
213	0x3d86e111	0.06585897
214	0xbe032310	-0.12806344
215	0x3df3663a	0.118847325
216	0xbd9d06a5	-0.07667283
217	0xbe0a1f74	-0.13488561
218	0xbda8b080	-0.0823679
219	0x3e181cf3	0.14854793
220	0xbddad213	-0.106846
221	0x3d4aea3b	0.049539786
222	0x3d815364	0.063147336
223	0x3e1ad420	0.15119982
224	0xbe173e3c	-0.14769834
225	0x3dbe7cec	0.09301171
226	0x3dabc443	0.08387043
227	0xbd07f23f	-0.03319001
228	0xbe10cfdc	-0.14141792
229	0x3dbba7e7	0.09162884
230	0x3e270c5e	0.16313311
231	0x3deb48de	0.11488508
232	0x3e0c8c99	0.13725509
233	0x3dc1e987	0.0946837
234	0xbca67036	-0.020317178
235	0xbdec4f71	-0.1153859
236	0x3d8e3294	0.06943241
237	0xbdc7c114	-0.097536236
238	0x3e155cbd	0.14586158
239	0x3dac23ff	0.08405303
240	0xbe3188c6	-0.17337331
241	0x3d0f3a19	0.034967516
242	0x3e031a8f	0.128031
243	0xbdbb88aa	-0.09156926
244	0xbe18cc78	-0.14921749
245	0xbd85283f	-0.06501817
246	0xbce89235	-0.02839003
247	0xbe056475	-0.13026603
248	0x3d4e9b52	0.050441094
249	0xbde6e434	-0.11273995
250	0xbc2ab0c2	-0.010418119
251	0x3d16b11a	0.03678999
252	0xbe1add0c	-0.15123385
253	0xbe06ba04	-0.13156897
254	0xbe0a3e47	-0.1350032
255	0x3d72c228	0.059267193

risk_head.2.bias f4 [10]
0	0xbe39a458	-0.18129098
1	0xbc880643	-0.016604548
2	0xbceb38d8	-0.028713629
3	0xbe318b6a	-0.17338338
4	0xbe411799	-0.18856658
5	0xbdbe9b0f	-0.09306919
6	0xbd765a3b	-0.060144644
7	0xbe27542d	-0.16340704
8	0xbd9a4177	-0.07532018
9	0xbe04d9b9	-0.1297368
