backend/best_blood_estimation_model.pt (torch, 101415 bytes, 12 tensors)

series_branch.0.weight f4 [64, 3, 3]
00000000: 82ea 14be b7d9 8ebd 476e a5bc 1ed6 823b
00000010: a899 9b3e 2aec 8c3e 28f9 053e c633 093e
00000020: 5c56 fe3b 1455 a23e 0983 0abd 7bbd 043e
00000030: 757d 57be 74d3 113e 469a 82be fb05 63bd
00000040: b7fc 93be ddf7 863e 5a76 92be a27a d6bd
00000050: 2049 b73e 564d 583d 0a9a 8cbd c1dc 9d3e
00000060: 826f 4fbe fdf8 283e f8a6 b2bd 6416 a83e
00000070: 8d63 4a3e b2a9 82be 5a6f 7fbe ada8 8abe
00000080: b4c6 16be 2b07 963d 3ecb bf3b 8b07 3abe
00000090: 63fc 223e 6518 e63c 0b5a aabe 4daa a3be
000000a0: 4980 7dbd 044d 4b3e 4120 ce3d 9b3b 423e
000000b0: 5661 8d3d 04aa 283e 9ae1 c4bd 4cec 9b3e
000000c0: 92ff 01bd 4d72 123e 1a55 27be cee8 1e3e
000000d0: 0539 113e 82e3 c23e 4a14 90be a24b 463e
000000e0: 0358 aa3e fc07 18be 1649 09be 5e0f 55be
000000f0: 4b65 113d 6f0d debd 57dc 0fbe 7188 073e
00000100: e5c2 7bbe 381d 463e 29fb 123e 0056 7bbe
00000110: e1e8 95be e3cc 0ebd 0468 3f3e 458d 483e
00000120: 70ea 453e 0cf1 113e e0d7 da3c 311d 393e
00000130: b799 a83c f83e a33e 8554 4c3e d425 173e
00000140: 84dc 37be 0741 4ebe c4ba a5be d1a5 94be
00000150: 5233 1c3e 8dae 65be a620 16be 91a1 323e
00000160: 318c 0f3e 2423 1b3e 6491 cbbd b46b ac3e
00000170: df45 563d c574 eabd 1fbf 213e cb9b 91bd
00000180: 1e0b 023e 15e4 db3c 787d a73d dfbc 013e
00000190: a199 033c bd0b 973e 0fe7 973e 2d42 7dbe
000001a0: 5e96 9f3e 9d35 013c 56a9 8e3e 8651 76bd
000001b0: a9b9 9e3e 11fe b53c 1f79 0e3e d50c 0bbe
000001c0: 9247 16be f64c f43d 678c c8bd 5ac0 80bd
000001d0: 054a 95bd 6846 aabc 6a9b 103e 9acb 583d
000001e0: 964d a13d 9923 71be 1deb 19be 809d 9dbe
000001f0: edce 953d 2b34 a03d 2833 7f3e ebee 8e3e
00000200: d97e dc3c b0ab 0abe 2508 983e 4555 95bd
00000210: 9d73 523e d023 4c3e 7eff 983b 289f 0dbe
00000220: 70d9 22bd bbfb 7abe f79a 9d3d 23ac 533e
00000230: eccf 833d 0a47 453d ecd6 4bbd 12bc 21be
00000240: 7141 83be 9ecd 66be 7e2b 95be 3725 403e
00000250: 5ad1 2dbe 2dd7 2e3d 7dc6 6e3e 035c aa3e
00000260: 61c6 343e 1821 d73c 6155 11bd 0834 8dbd
00000270: 9cef 873e 1100 01be 327c c0bd 6b81 763e
00000280: 5834 a63d d9a5 97be a47e 81be 293f 99be
00000290: 7f6f 733e bbae a53e 9a8b 8dbe 178b 48be
000002a0: f83f d03d 3bf4 283d edda 813e fa69 9ebb
000002b0: 6cb8 debc 8b13 4f3e 8f44 83be a6d0 7c3e
000002c0: 5672 63bb 579d 793c bdd2 803e 5f4a e03d
000002d0: 56fe 903d 1d7e 793e 3254 6abe 842e 2c3e
000002e0: 3c7a 81bc b376 793e 58dc 0abe 10ec 923e
000002f0: 3b11 413e 7866 4bbe a3f6 7abe 1bab 94bd
00000300: cb80 b0bd 8ba5 9a3d b6d4 fdbd ab0b d6bc
00000310: 4b46 51be 6b78 5c3d 40be 56be 4fcf 77bc
00000320: e95b 6d3c 03d6 80be 4a8e abbe 4dea 733e
00000330: d084 363e 120c ff3d b023 743e fa78 eebd
00000340: b23e 363d a0fb 29be 3f9b 363e 9c57 3e3e
00000350: deaf 57be fc46 0c3d 93d8 f53d ee8c 8a3e
00000360: 6047 293d 1751 813e 0083 19bd 6323 2abe
00000370: 36fe 9dbd ecd0 8fbe 3352 643e b89a 0bbe
00000380: 3b62 2e3e d8ef 05be 183d 97be cb03 70bd
00000390: ce17 21be abcb 1bbe 1613 b23c 80df 4abe
000003a0: 7675 073e 7068 fa3d 76ec a43e 72f1 a83d
000003b0: eca5 033d edc8 82be 8eae 9dbe c590 093e
000003c0: b1e6 9b3e 5549 ae3c aa21 c93c 90d5 9f3d
000003d0: 1d8a abbe 9747 a3be 198e 9dbe dde9 933e
000003e0: 1590 5f3e 0472 783e e7c8 cd3d 98e0 10be
000003f0: b5da 0cbb 79fb 873e f6cf 86be b4e3 a43e
-0.14542583 -0.069751196 -0.020194186 0.00399281 0.30390668 0.2752393 0.13083327 0.13398656
0.0077617597 0.31705534 -0.03381637 0.12962906 -0.21043952 0.14240819 -0.25508326 -0.055425625
-0.28903744 0.2636098 -0.2860592 -0.10472609 0.35797977 0.05280813 -0.06865318 0.30832484
-0.2025738 0.16501231 -0.08723253 0.32829583 0.19764538 -0.25520092 -0.24944821 -0.27081814
-0.14724237 0.07325586 0.005853086 -0.1816694 0.1591659 0.028087804 -0.33271822 -0.31965867
-0.06188992 0.19853598 0.10064746 0.1896805 0.06903331 0.16471106 -0.096133426 0.30453718
-0.03173787 0.14301415 -0.16341057 0.15518495 0.14181907 0.380642 -0.2814048 0.19364789
0.33270273 -0.14846796 -0.13406786 -0.20806643 0.03549699 -0.10842406 -0.14048897 0.13235642
-0.24586065 0.19347084 0.14353622 -0.24544525 -0.29279235 -0.034863364 0.18692023 0.1958514
0.19327712 0.14252108 0.026714265 0.18077542 0.02058111 0.3188398 0.19954117 0.14760524
-0.17955214 -0.20141993 -0.32369053 -0.29032758 0.15253952 -0.22429867 -0.14660892 0.17444445
0.14018323 0.15150124 -0.099398404 0.3367592 0.052312728 -0.11448053 0.15795563 -0.07109793
0.12699553 0.026842156 0.08178228 0.12669705 0.008032233 0.29501143 0.2966847 -0.24732275
0.3116941 0.007886318 0.27863568 -0.06013634 0.31001022 0.022215875 0.13913392 -0.13579114
-0.1467574 0.11928742 -0.097924046 -0.06286688 -0.07289509 -0.020785525 0.14121786 0.052928545
0.078761265 -0.23548736 -0.15031095 -0.30784225 0.073148586 0.0782245 0.24921858 0.27916655
0.026915954 -0.13542056 0.29693714 -0.072916545 0.20551915 0.19935536 0.004669129 -0.13830245
-0.039758146 -0.2451009 0.07695573 0.20671134 0.06436142 0.04816345 -0.049765512 -0.157944
-0.25635865 -0.22539374 -0.29134744 0.18764196 -0.16974393 0.042685676 0.23317905 0.33273324
0.176538 0.026260898 -0.035481814 -0.0689469 0.26549995 -0.12597682 -0.093986884 0.24072807
0.081154525 -0.2961872 -0.25291932 -0.29931 0.23773001 0.3235987 -0.2764557 -0.19584309
0.10168451 0.04124854 0.2536234 -0.0048344107 -0.027187549 0.20222299 -0.25638244 0.24688968
-0.00347056 0.015235267 0.2516078 0.10951685 0.07079761 0.24364515 -0.2288368 0.1681462
-0.015805356 0.24361686 -0.13560617 0.28695726 0.18854229 -0.19863307 -0.24508147 -0.07259198
-0.08618315 0.07551106 -0.12394087 -0.02612861 -0.20436971 0.053825777 -0.20971012 -0.01512511
0.014487245 -0.25163278 -0.33506995 0.23819847 0.17824101 0.12453474 0.23841739 -0.11644168
0.044493385 -0.16599894 0.17832659 0.18588108 -0.21063182 0.034247383 0.12004199 0.27060646
0.041327834 0.2525718 -0.037478447 -0.16615061 -0.077145025 -0.28089082 0.22296982 -0.1363324
0.1702966 -0.13079774 -0.29538798 -0.058597367 -0.15731737 -0.15214412 0.021737617 -0.19811821
0.13228402 0.12226951 0.32211655 0.08249177 0.032140657 -0.2554392 -0.30797237 0.13434131
0.3044944 0.021275202 0.024552185 0.07804406 -0.3350381 -0.31890556 -0.30772474 0.2888936
0.21832307 0.24262244 0.10048085 -0.14148176 -0.0021492664 0.26559046 -0.26330537 0.32204974

series_branch.0.bias f4 [64]
00000000: b850 fd3d bd2b b9bd 04be 95be fcb4 853e
00000010: 0201 8d3e 7aa8 7dbe 66bd 803e 9c1b d7bd
00000020: 3c7d 8bbe d6a0 783c 98fc f0bd b871 33be
00000030: 5735 b53d e1f7 473e 9947 923d 24d7 ff3c
00000040: 2000 57bd 5bc2 d43d b5c7 66bd a596 08be
00000050: b9a8 16be dbaf afbd 6672 823e 022c 103e
00000060: e88d 7dbe 906c 26be 21b5 40bd 9a38 863e
00000070: 8010 4cbe 4aa0 883e a69d 1abe 423d a63e
00000080: 6160 62be af4a 043d e175 e3bd 1ac9 66be
00000090: 10a7 1bbe f29e 77be 4744 acbd cd83 95be
000000a0: 45c4 053e 2eee a0ba b388 e33b ea76 adbe
000000b0: ab0a 0cbd a698 3ebe 9cb6 83be 93a7 703e
000000c0: 8ef6 68be 745c fd3c 24f2 a3bc 08b4 8dbc
000000d0: ff28 83be 8ace 0ebe c6af 72be 6264 3a3e
000000e0: 8f26 96be 6ebb 01be 7a84 2dbe 2318 1bbc
000000f0: d8a1 91bd 7271 e63d 01e7 c9bc f5e5 4d3e
0.123689115 -0.090415455 -0.29246533 0.26114643 0.2753983 -0.247713 0.251445 -0.10503313
-0.27243984 0.015175065 -0.117669284 -0.17523849 0.088480644 0.19528152 0.071425624 0.031230517
-0.052490354 0.10388633 -0.0563428 -0.13338716 -0.147128 -0.08578464 0.25477904 0.14079288
-0.24761164 -0.16252351 -0.047047738 0.2621506 -0.19928169 0.2668479 -0.150992 0.3246861
-0.22107078 0.032297786 -0.11106468 -0.22537652 -0.15200448 -0.24181727 -0.0841146 -0.2920212
0.13063152 -0.0012278014 0.006943786 -0.33879787 -0.03418986 -0.18612918 -0.25725257 0.23501424
-0.22750303 0.030927874 -0.020012923 -0.01729776 -0.25617215 -0.13945976 -0.23699865 0.18202356
-0.29326293 -0.12669155 -0.16945067 -0.009466204 -0.07110947 0.11252107 -0.024646284 0.20107253

series_branch.2.weight f4 [64, 64, 3]
00000000: 15d8 81bd cb32 83bd 040a d63c 31ee ba3d
00000010: 541d b63c 547d 6abb dab0 93bd de1c c8bd
00000020: 5334 c4bd 74e3 353d dddc 723d 5dbb 203d
00000030: 7fdd 55bc d4b0 cd3b ada3 333d 5a5e 3e3d
00000040: d2dc b93d 6bdc 013d bb49 9b3b 4c9e c63c
00000050: 3053 06bd c2dd 9d3c 4436 bfbb 88a7 ddbb
00000060: dd0e a43d b933 31bd 4bef 813d 3a4f 11bd
00000070: 05ad 093d 88af 27bd c0c0 63bc f7d0 c83d
00000080: d296 a93c 7a6f 4c3b 7348 383d da71 efbb
00000090: 9f30 cf3c 1e4f 47ba ff36 7c3d ece8 e6bc
000000a0: 42f7 4abd 7329 543c 3de8 6f3a 3dee 59bd
000000b0: 742a c1bc ebd2 e8bc e3e3 223c 1bed 263d
000000c0: 66ba a03c 7ea0 cd3d d0db a33d 7682 053d
000000d0: f704 e7bb 4f2c 8fbd 3c2a c43d bbdb c8bc
000000e0: 1994 a83d 69c6 c53d 531b de3b e52d 62bc
000000f0: 6b05 5a3d 0716 8f3d 4445 aa3d 53d5 903d
00000100: 1a40 de3c 06be 103d c3e0 fc3c 3c33 13bd
00000110: bcc0 81bd d8b2 1b3d fd0c 1f3d 328d 4d3d
00000120: b734 5dbd 7831 48bc 190d 8cbd d8e7 183d
00000130: b73a a03b d21f dc3c 7538 c0bc 5623 423c
00000140: f6bd db3b 0afe 313d d6b6 8abd 6b39 7a3d
00000150: bc7f 603d 8114 bf3d 3c92 783d fa70 6fbd
00000160: c5dd 843d a287 97bd efbb 9d3d ad4e ae3d
00000170: 7e49 113d a2ab 583c 50f1 e43b d909 ca3c
00000180: 7614 fe3b a1f8 1f3d b7ea 153b 4ce2 39bd
00000190: 33b1 29bd e512 d43c db48 c23d 2b56 ff3c
000001a0: 818c 143e eed2 523d b7fa 0c3d e2bc 983d
000001b0: 5675 61bd e2bd 7a3d 856a b1bc 006c d33c
000001c0: 0541 a23d c98c 463d 24de c03d 8060 033e
000001d0: bbf0 eb3d fc43 9fbd 53b9 7fbc 8947 fe3b
000001e0: 6d05 52bd fa70 c73c 96a0 44bd aa71 7d3c
000001f0: da4f 7fbc a1b4 d33c 13eb 013b 3617 59bd
00000200: 7fd7 c6bb d4a8 abbb 70fd b6bb 6b6a 5e3c
00000210: e9b3 03bd c992 933d 0512 c03b 13ab 873d
00000220: 8118 4f3c 04c1 3b3d bd17 743c 53b8 2dbd
00000230: 5d3a 163d 0cd9 403c cb0b 1c3d 9326 9eba
00000240: f989 1c3d c82e af3c a83e 453d 28dc c43c
00000250: 0c37 963d 1b08 fb3c b06f f53c aeb3 543c
00000260: 7e94 32bc 782e 0abd e2de 7b3d aae8 0a3d
00000270: 91f0 41bd 2fe6 803c e732 363c b023 9a3d
00000280: 9288 0cbd d2b4 963c c23e ceba 1bfa f13c
00000290: 88de 75ba b8c3 893d b220 52bd 0a10 2dbd
000002a0: 4ebd 22bd 6db3 85bd 94c1 85bd f949 8bbb
000002b0: 559a b73c b34a a53d 4ae0 b4bd 746c 17bd
000002c0: dfb8 b5bc 8d9f c53b 512e 5d3d 37e0 aa3c
000002d0: 8977 923d 1296 9f3d 7256 963d a740 7abd
000002e0: 15a8 073d d82b 15bc 1211 823d a984 61bd
000002f0: 6f17 80bd 9d7e 76bb c915 40bd 84ce 0a3d
00000300: ebcb 383d bbed 863d 3409 92bc 6ee1 ed3c
00000310: 6e47 863c 40a6 4a3c b709 45bd afa6 a0bc
00000320: 0104 b6bc 4814 a13d b020 5c3d e3e8 6a3d
00000330: f650 863d e74a ea3c 334f 0b3d add0 ba3d
00000340: 4fbc 5fbc d42a b5bc 3062 3fbd a1e5 9a3d
00000350: 8d4d 15bd 44cc ca39 4370 9b3d 707b 033c
00000360: cd3f 05bc dd2b 89bd bf1f 2bbc 97e8 3ebd
00000370: c3e5 ee3c db69 a33d 4b7a 26bd 85e2 2b3d
00000380: ef9b fb3c 0002 75bd 78d7 063d ebfe 913c
00000390: a2fe 2d3d ef08 e53c 29bf 8a3d 30a0 2cbb
000003a0: b2da 403d 3091 d8b9 2a4d 12bd 56a6 a33c
000003b0: 0ee4 47ba 6b38 19bd 3a50 aebd a1b4 ddbc
000003c0: e827 5f3d c6a9 74bc d6d0 593d 2200 2bbd
000003d0: c25b b6bc b4ab c5bc d77e 993d 86bf 49bd
000003e0: d10b 6e3d 4627 533d 7aa8 993b 3cd1 18bd
000003f0: a0df 45bd 8f34 643d de79 113d f2d4 41bb
-0.063400425 -0.06406172 0.026127823 0.09127463 0.022230782 -0.0035780268 -0.07211466 -0.09771131
-0.095802926 0.04440637 0.059292663 0.039241184 -0.013053297 0.006277183 0.043857265 0.0464767
0.09075321 0.031704348 0.004739014 0.024245404 -0.032794178 0.019270781 -0.0058353264 -0.006764356
0.080106474 -0.043262217 0.0634447 -0.035475947 0.03361227 -0.040938884 -0.013900936 0.09805482
0.0207018 0.0031194375 0.044990968 -0.0073072733 0.025291739 -0.0007603037 0.061575886 -0.028187238
-0.04955221 0.012949335 0.00091517327 -0.053205717 -0.023579814 -0.028420886 0.009942028 0.040753465
0.019620132 0.10040377 0.0800091 0.03259512 -0.0070501524 -0.06990873 0.09578368 -0.024518838
0.082313724 0.09656984 0.0067781596 -0.013804887 0.053227823 0.06986623 0.083139926 0.07071938
0.027130175 0.03533747 0.030868893 -0.035937533 -0.06335589 0.038012356 0.038830746 0.050183482
-0.05400535 -0.0122188255 -0.06838436 0.03733048 0.004889812 0.026870642 -0.02346442 0.011849245
0.0067059947 0.04345516 -0.067731544 0.061089914 0.054809317 0.09330083 0.060686335 -0.058457352
0.06487612 -0.07398917 0.07701861 0.085111 0.03547048 0.013224514 0.0069867745 0.024662899
0.007753904 0.03905547 0.0022875497 -0.04538183 -0.041428756 0.025887916 0.09486552 0.031169018
0.14506723 0.05147069 0.034418788 0.074579015 -0.05504354 0.061216243 -0.021657238 0.025808334
0.07922558 0.048474107 0.0941737 0.1282978 0.11520525 -0.07776639 -0.01560815 0.0077599925
-0.051274706 0.024345864 -0.04800471 0.015468994 -0.015583003 0.025842967 0.0019823953 -0.05300065
-0.0060681696 -0.0052386317 -0.0055844113 0.013575177 -0.032153998 0.072057314 0.005861523 0.06624427
0.0126401195 0.04583837 0.014898238 -0.042412113 0.036676753 0.011770498 0.038097184 -0.0012065939
0.03821752 0.021384612 0.048155457 0.02403076 0.07334718 0.030643513 0.029960483 0.012982292
-0.010899661 -0.033735722 0.061491854 0.033913292 -0.047348563 0.01573476 0.0111205345 0.07526338
-0.03430993 0.018396769 -0.0015735256 0.029538205 -0.0009379168 0.067267835 -0.051300712 -0.042251624
-0.039731316 -0.065283634 -0.06531063 -0.0042507616 0.022412458 0.08070888 -0.08831842 -0.036968663
-0.02218288 0.006030983 0.05399925 0.020858867 0.07151706 0.077922955 0.07340707 -0.061096814
0.03311928 -0.009104691 0.06350912 -0.055058155 -0.062544696 -0.0037612088 -0.046895776 0.033888355
0.045116346 0.06588312 -0.017826654 0.029038157 0.016391482 0.012368739 -0.048104968 -0.01961073
-0.022218706 0.078651965 0.05374211 0.057351004 0.06558411 0.02860017 0.034011077 0.09121833
-0.013655736 -0.022115149 -0.0467245 0.075633295 -0.03645091 0.00038680632 0.075897716 0.008025035
-0.008132887 -0.066978194 -0.010444581 -0.046608534 0.029162293 0.07979175 -0.04064397 0.041964073
0.030714003 -0.05981636 0.03292033 0.01782175 0.042479165 0.027958361 0.06774742 -0.0026340596
0.047083564 -0.00041306904 -0.03571812 0.019976776 -0.00076252304 -0.03740732 -0.08511396 -0.02706367
0.054481417 -0.014933055 0.053177677 -0.041748174 -0.02226055 -0.024129726 0.07494896 -0.049254917
0.058116738 0.051551126 0.0046892734 -0.037308916 -0.04830897 0.055714186 0.035516612 -0.0029576388

series_branch.2.bias f4 [64]
00000000: ae86 3e3d df3f 923d f163 52bd 05a7 84bb
00000010: 4a6b d33c c63e 62bd e2af 1abc 874a 6cbd
00000020: 0c38 c63c bbc8 0e3d 3210 69bd e1ff 033d
00000030: c05f db3c 4ab9 773d df84 8fbd a795 81bd
00000040: c68a 29bd 94e3 253c 9740 453d 4570 c13c
00000050: d7fa b03d a6ec a9bc 1bd0 663d 8b16 73bd
00000060: 9b67 643d 2758 d23c 9351 8bbd 6be5 143d
00000070: 500c 663d e2c4 8cbd cd8a 91bd 4f99 8a3b
00000080: 50fa b03c 1fc0 173d 14be 5a3d 44bf 0a3c
00000090: 5cc7 b23c 4642 b6bc 089d d6bc a190 1f3d
000000a0: f005 033d 7133 023c d953 273c ae4b 58bd
000000b0: c003 ff3c 07c6 933c 1828 acbd 7da1 97bd
000000c0: 4034 0d3d 6884 81bc 06dc 83bc ae57 8bbd
000000d0: f345 39bd 7010 5abd c3f8 01bd 264a e3bc
000000e0: 39ef f5bc 82e7 753d f895 c43b 05cd 76bd
000000f0: 3cae 633c c150 583d a4e9 1f3d 99cd 01bb
0.04651516 0.07141089 -0.051364843 -0.0040482306 0.025807995 -0.055235647 -0.009441348 -0.057688262
0.024196647 0.0348594 -0.05690021 0.032226447 0.026779056 0.06047944 -0.07007765 -0.06327372
-0.04139211 0.01012506 0.0481573 0.023613105 0.08641594 -0.020742726 0.05635081 -0.05934767
0.05576287 0.0256768 -0.068026684 0.036351603 0.056164086 -0.0687349 -0.07106552 0.0042297016
0.021603733 0.037048455 0.05340393 0.008468453 0.021823578 -0.022248399 -0.026197925 0.03895629
0.031988084 0.007946835 0.010212862 -0.05280655 0.031129718 0.018038763 -0.08406085 -0.07403848
0.034473658 -0.015810207 -0.016096126 -0.06803833 -0.045232724 -0.053238332 -0.03173138 -0.027745318
-0.030021297 0.060035236 0.005999323 -0.060254116 0.013896521 0.052811388 0.039041176 -0.0019806384

static_branch.0.weight f4 [32, 6]
00000000: 57b1 913e a372 ecbc 568f 0b3e 9c31 f3bc
00000010: 3259 e23d 234a 923c 4882 cd3e 69bb 333e
00000020: 8533 2e3e 6eda 70be 8e2e 19be 6498 da3e
00000030: d34d 99be 90e4 43bd ccff a6be 1c0c d13e
00000040: c9ef 8d3e 898c dc3d 9db8 543e eaf9 b5be
00000050: c40d 5b3e 474d 6dbe 73dc 023e 32ec 2e3e
00000060: e442 c13d efbc 87be 747d 9e3e d5c6 123e
00000070: edf1 bd3e e7e9 513e a948 75be 25d6 8b3e
00000080: a9bf 643e 1e51 bebe a946 7d3d a42a b3be
00000090: c280 c53d b24c 6d3e d1ae c53e e3e9 b73e
000000a0: 983a 923d 267a 0b3e dc69 7cbe 483e 91be
000000b0: a775 713e d2ce 95be 508e 8ebe 8374 26be
000000c0: 996d 45be 0928 b2be fd35 ec3d 8291 043e
000000d0: 90ea b63e b9cf 913e bd2b 7fbe ebc9 773e
000000e0: 0324 52be 07ff d83d aa77 c6be b211 a23e
000000f0: d9a6 b2be 11eb 06be 0df3 953e 85a5 bd3e
00000100: c495 f43e 8fb6 c43e c2a5 aabe d11a ad3e
00000110: 0222 a6be 6150 67be 0f16 a93c 0d18 a4be
00000120: a6c0 c63e d640 5a3e 496a b43e fe0c b23d
00000130: 6a46 98be cc66 3d3e 4823 773d a73d 12be
00000140: 0af3 2c3e 205c a93d efc3 e83e 7425 723d
00000150: 29f0 d33e 4d7d 9fbe 89fa c7bd afea 33bd
00000160: fb41 e63e 0989 e73e 216e 193e 4eaf 843d
00000170: fcba a83e 5337 4bbe ab0a cd3e 48d6 94be
00000180: c095 c03e 9e21 58be 709c 123d 5456 8c3e
00000190: 0182 f6bd e6f9 c8bc e6a2 e03d 76c3 84bd
000001a0: 7428 673e a12d 5c3e da09 303e 08c9 84be
000001b0: 62a9 db3d 29cd 55be 54be 563c a5c4 863e
000001c0: 2987 b33e 0677 debd 6e50 2bbd b0ba 8c3e
000001d0: df42 38be 7a4a 9ebe 4f6b a8be bd35 b6bd
000001e0: 3c91 b9be 46eb 84be 03bd a0be a6ae ad3e
000001f0: a2af 953e 3a75 bbbe 116a 8d3e ef4b cbbe
00000200: a29e 803e 938a 50be b5c5 133e b307 a53e
00000210: a987 f3bc 46da 8dbe 4e25 8d3e 2580 4f3d
00000220: f401 613e 1511 b8be 013f a7be 6730 ca3e
00000230: 4fb5 9bbd 40e0 943e 4dda 2a3e b066 b13e
00000240: 56da 8a3e 9c41 cc3d 1492 273e ada7 c33e
00000250: 82de 88be 6dfe 1cbe 3e34 9ebd 8cbf 63bd
00000260: 6638 abbe 1041 67bc 8e41 d0bd 4f72 6b3e
00000270: b096 16be 09eb aebd 86b0 873e 75eb 47bc
00000280: 8a1b e43e 480d d23e ed65 2a3e 9c48 22be
00000290: 53f7 9e3e 6491 b8be 7a94 56be 6f9e bc3e
000002a0: 23ba 86bd 066f ba3d e6b0 503e 9450 12be
000002b0: 89e3 4a3e afcb a83e bf5d 91be 458c 33be
000002c0: 0dd2 c13e 67f4 cfbe 989f 4bbc 738b 19be
000002d0: 6aa7 d2bd c5c9 d13d 6738 03be 60ca 3ebe
000002e0: 626b f93d e985 55be 8b38 8ebe d0ab 503c
000002f0: 1407 00bd 38e0 9a3e 4dd8 8fbd f7a2 a23e
0.28455612 -0.028863257 0.13628897 -0.029686742 0.11052169 0.017857617 0.4013846 0.1755196
0.1701184 -0.23520824 -0.14959165 0.4269439 -0.29942188 -0.047825396 -0.32617033 0.4082955
0.27722004 0.107689925 0.2077355 -0.35542232 0.2139197 -0.2317401 0.12779407 0.17082289
0.094365865 -0.26511332 0.30955088 0.14333661 0.37098637 0.20499383 -0.23953499 0.27311817
0.22338738 -0.37171263 0.061834965 -0.3499347 0.09643699 0.23173788 0.38609937 0.3592063
0.07140082 0.13620815 -0.24649757 -0.2836783 0.23580037 -0.29259354 -0.2784295 -0.16255383
-0.1928009 -0.3479617 0.11533735 0.12946132 0.35725832 0.28478792 -0.24919029 0.2419812
-0.2052155 0.105955176 -0.3876317 0.31654125 -0.3489292 -0.13175608 0.29286996 0.37040344
0.47770512 0.3842053 -0.33329588 0.33809522 -0.3244782 -0.22589256 0.020640401 -0.320496
0.38818854 0.21313795 0.3523734 0.08693884 -0.29741222 0.18496245 0.06033638 -0.14281331
0.16889587 0.082695246 0.45461985 0.05911775 0.41394165 -0.31150284 -0.09764583 -0.043924984
0.44972214 0.45221737 0.14983417 0.06478749 0.32955158 -0.19845323 0.40047202 -0.29069734
0.3761425 -0.21106574 0.03579372 0.27409613 -0.12036515 -0.024533223 0.109685704 -0.06482594
0.22574025 0.21501781 0.17191258 -0.25934625 0.107256666 -0.20879044 0.013106901 0.26321903
0.35064057 -0.10862546 -0.04182475 0.2748618 -0.1799426 -0.30916196 -0.3289437 -0.088969685
-0.36243618 -0.2596075 -0.31394204 0.3392231 0.2923556 -0.36612874 0.27619985 -0.3970637
0.25121027 -0.20365362 0.14430888 0.32232437 -0.029727774 -0.27705592 0.27567524 0.050659318
0.21973401 -0.35950533 -0.32665256 0.39490053 -0.07602941 0.2907734 0.16684838 0.34648657
0.27119702 0.099734515 0.16364318 0.38213864 -0.2673226 -0.1533143 -0.07724808 -0.055602595
-0.33441466 -0.014114633 -0.101687536 0.22992824 -0.1470592 -0.08540923 0.26501864 -0.012202133
0.4455226 0.41025758 0.16640444 -0.15848011 0.31048068 -0.36048424 -0.20955077 0.36839625
-0.065784715 0.09103207 0.20379981 -0.1428855 0.1981336 0.32967898 -0.28391835 -0.17533977
0.3785557 -0.40616152 -0.012428187 -0.14994602 -0.10285838 0.102435626 -0.12814485 -0.18631887
0.12178685 -0.20851864 -0.27777514 0.012736276 -0.03125675 0.3024919 -0.07023678 0.31764957

static_branch.0.bias f4 [32]
00000000: 89df 243d 67d4 173e 20ad 7b3e 8cb1 ae3e
00000010: bd9f e1bd eac6 58be 6698 6dbd 6148 c23c
00000020: 2cd0 b13e 364b b33d 7a16 13bd 69b9 94be
00000030: c3fe 43be 54fd fe3b e8ce 863d 5dbb aebe
00000040: 4e12 b33e 8471 213d da64 a5bd 7f6b 0dbe
00000050: c0a2 97be 50af 2cbd 4e9c 343e 4825 d73d
00000060: 9372 5dbe b911 e13d 2351 893d 5795 553e
00000070: c12f eb3d bb77 a93d a628 da3d f1db a43e
0.040252242 0.14827119 0.2457776 0.34119833 -0.11016796 -0.2116963 -0.058006667 0.023716154
0.34729135 0.0875458 -0.035910107 -0.29047707 -0.19140153 0.007781664 0.06582433 -0.34127322
0.34974903 0.039414898 -0.080758765 -0.13810538 -0.29616356 -0.04215938 0.1763775 0.10505158
-0.21625738 0.109897085 0.06704929 0.2085775 0.11483718 0.0827479 0.10652284 0.32199052

static_branch.2.weight f4 [64, 32]
00000000: 458a 33bd cd73 04be d8a1 b8ba d893 8cbb
00000010: 04a0 e1ba b2d8 50bd 5c7f 30be 4876 2d3d
00000020: 74f2 c53b 623a 06bc 7fa4 cb3d 9141 dc3d
00000030: d1d5 1d3e 9703 1dbe be81 8bbd 0dbb ec3d
00000040: d770 cabd 40ed c13d 3080 863d fed1 15be
00000050: 2881 9a3d a579 5bbc 20e6 5e3d 59a1 d1bd
00000060: 5f36 22be 29ca 21be e134 283d 2f6d fc3d
00000070: e337 333e 3226 293e 55cb a93d 704d 8f3d
00000080: 14dc cc3d 384a fabc 40dd 883d 2b44 e9bc
00000090: 7ca8 32bd 8cfd 903d 182d f1bd 8326 ba3d
000000a0: c01a 0bbe 1760 84bd 2ef2 edbd 90a4 e43d
000000b0: c4ab 1ebe 1b5d 1a3e 20bb aa3d b304 f13d
000000c0: 804e 81bd 6445 ef3d 6110 24be 4b2f 0d3e
000000d0: 95ec 5dbc 6ac4 06be ae29 053e 8a1e 0dbe
000000e0: 1a15 963d 6452 06be e03e dc3d 5bcd ccbd
000000f0: bdb6 f83d 0889 d3bd d404 dabd c9c4 f53d
00000100: 02b9 693d 7146 913d 270a ee3d 148d e4bd
00000110: a842 c0bb 7593 13bd 4816 f23c f5f4 2fbe
00000120: e8be 31be a5e0 de3c 9af3 03be 5267 b2bb
00000130: c716 f6bd 6cff f9bd 177d 103e 9051 043e
00000140: 89ac 1d3e dbc9 f7bd 69b1 c1bd 4d2f 07be
00000150: 10d9 aabd 4e43 3fbe ad11 b93d 82e4 85bd
00000160: 4714 403b aa35 b3bc 4b5f dbbd 1219 1dbe
00000170: 894a 02be a0b3 20bd 05a0 37be c8bf abbd
00000180: c004 463d 60ca 033e f3fe 1fbe 47cd 16be
00000190: 5d83 fbbd ccad ae3d 36be 9cbd 5994 ce3d
000001a0: da3e 27bd 7304 96bd 3553 29be b42f e0bd
000001b0: c2a1 f3bd 6d30 f63a 176f c2bd 847c e83c
000001c0: 986e be3b 5328 68ba 304f 263d 5726 e93d
000001d0: bad6 eebc 9801 fcbd e41c 893d 3718 92bd
000001e0: 1f80 00be 7d72 9fbc d44d 01be fec2 773d
000001f0: 0f6c b0bd e073 043e 9e06 ee3c 1754 f0bd
00000200: 9dc7 b63d 156b 04bd 8af8 fa3d 27ea 913d
00000210: e254 4b3e 5449 ff3c 6c74 0fbd 88fe 32bd
00000220: 8861 a0bd ecc7 41be 6043 7d3d 4885 bfbd
00000230: 768b e3bd 0681 223e fffc 0a3e a5c3 6cbd
00000240: 946d 233e 9833 7ebd e05a 5a3e 2025 15be
00000250: 4ac5 493d b046 3f3e ed84 193e da0c 413d
00000260: ea0e b0bd 3a0e 3a3e 7f38 3d3d 4d78 adbc
00000270: f834 393e 6e5f acbd 5e07 14be fb6b 1b3e
00000280: 037a fc3d d70e 193e 81a0 953d 8f1d 133e
00000290: 48b4 a7bd 48be debc 8894 e0bd e368 343e
000002a0: b39c 9ebc 9383 d93d 2845 d3bd 5120 c63d
000002b0: 3cc8 30bd a7a3 b5bd 5070 503d db09 703d
000002c0: 1d5d cabd 42bd bdbd 29c3 503d 4ca9 8dbc
000002d0: 277f 81bd 8b58 91bd 4e7e 193e 7b77 b53d
000002e0: 9cde c5bd 07f0 363d be0f 503d 2852 b73d
000002f0: c689 253e 509d 3dbd fc02 103d 9cbd 89bc
00000300: 7549 243e 1767 2dbe a42d 7f3d 5c12 1a3e
00000310: 2f2c 37bd 65a7 0d3e 0183 54bd 41fe 30be
00000320: afa7 9cbd 9f92 d5bd ee08 133e a1ab 4e3d
00000330: c233 0ebe 6077 cb3d b44e acbd 00e8 30bd
00000340: fbee 15be 9088 5a3d 8d54 e2bd 6c6d 313d
00000350: f67c 913d 6474 90bd f6b5 1ebe f81d 283e
00000360: 827d 29bd 27f9 193e 6a74 ad3d 1088 b9bd
00000370: 1456 9ebd 03f8 f53d 59e6 d5bb d63a 263c
00000380: ed15 b8bd 01b0 f63c fe1b 683e 4a90 de3d
00000390: 467b 873c ea59 f23d 554f 483e e555 1b3d
000003a0: e128 2cbe bb1d 113e c9a2 9abb 5b10 d8bd
000003b0: ec36 3e3d 5aa4 0fbd 732a 34be e510 723d
000003c0: 9e52 c03d 2444 fe3d 5374 b8bd 783d ba3d
000003d0: 4012 a038 de10 d43d e49d 86bd d5ae 913d
000003e0: 4223 a9bd 7496 15be acaf 4cbe c35b c9bd
000003f0: ef90 8bbd 6132 d7bd 458a 403d 7d9c 463e
-0.043833036 -0.129348 -0.0014086319 -0.0042900853 -0.0017213826 -0.050987907 -0.17236084 0.04234913
0.0060408656 -0.0081926305 0.099434845 0.10754693 0.15413596 -0.153334 -0.06811856 0.115591146
-0.09884804 0.0946908 0.065674186 -0.14630887 0.07544166 -0.013395702 0.054418683 -0.10235853
-0.15841053 -0.15799774 0.041066054 0.123255126 0.17501788 0.16518477 0.08290736 0.06997192
0.10002914 -0.030552968 0.06682825 -0.028474888 -0.04361771 0.0707961 -0.11776179 0.09089377
-0.13584423 -0.0646364 -0.11618458 0.111642 -0.15495211 0.1507458 0.083364725 0.117684744
-0.06313801 0.11683157 -0.16021873 0.13787572 -0.013545175 -0.13160864 0.13004181 -0.13781181
0.073282436 -0.13117367 0.1075418 -0.10000106 0.121442296 -0.10328871 -0.10645452 0.120004244
0.057061203 0.07093514 0.1162303 -0.11159721 -0.005867321 -0.036029298 0.02955164 -0.17183287
-0.17357981 0.027206728 -0.12885895 -0.0054444456 -0.12016063 -0.12206921 0.14110218 0.12921739
0.15397848 -0.12099048 -0.094576664 -0.13201638 -0.08342183 -0.18678018 0.090365745 -0.06537725
0.0029308961 -0.021876175 -0.10711535 -0.15341595 -0.12723745 -0.039233804 -0.17932136 -0.08386189
0.048344374 0.12870169 -0.15624599 -0.14726745 -0.12280915 0.08529243 -0.07653467 0.10086889
-0.040831424 -0.07325067 -0.16535647 -0.10946599 -0.11896087 0.0018782743 -0.09493845 0.028379686
0.0058115236 -0.00088561064 0.040602863 0.11384266 -0.029155124 -0.123049915 0.066949636 -0.07133525
-0.12548874 -0.019463772 -0.12627345 0.060488693 -0.086143605 0.12934828 0.02905589 -0.11734789
0.08924792 -0.032328684 0.12254436 0.07124739 0.19856599 0.031162895 -0.035023138 -0.04369977
-0.078311026 -0.1892392 0.061831832 -0.09351593 -0.111105844 0.15869531 0.13573073 -0.05780377
0.1595977 -0.062060922 0.21323729 -0.14564943 0.049260415 0.18679309 0.14992113 0.047131397
-0.08596595 0.1816949 0.046196457 -0.021175528 0.18086612 -0.08416639 -0.14455935 0.1517791
0.123279594 0.14947067 0.07306004 0.14366744 -0.08188683 -0.027190343 -0.1096583 0.17618136
-0.01936183 0.10620799 -0.10315925 0.096741326 -0.04315971 -0.08869105 0.05088836 0.05860315
-0.09881041 -0.09264614 0.05096737 -0.017292641 -0.063230805 -0.07096966 0.14989588 0.0886068
-0.096616 0.0446625 0.050796263 0.08951217 0.16165838 -0.046292603 0.035159096 -0.016814046
0.16043647 -0.16933857 0.062299386 0.15046066 -0.04471987 0.13833387 -0.051882748 -0.1728449
-0.076491706 -0.104283564 0.14358875 0.050456647 -0.13886932 0.09934878 -0.08413449 -0.043190002
-0.14641945 0.053352892 -0.11051283 0.043317243 0.071039125 -0.0705345 -0.154991 0.16417682
-0.04137946 0.1503645 0.0846947 -0.09059155 -0.07731262 0.12010195 -0.0065277037 0.0101458635
-0.08988557 0.030113222 0.22666928 0.10867365 0.016538274 0.11833556 0.19561513 0.037923712
-0.16812469 0.14171498 -0.0047191125 -0.105499946 0.046439096 -0.035068847 -0.17594318 0.059098143
0.09390758 0.124153405 -0.09006562 0.090937555 7.632794e-05 0.1035478 -0.06573084 0.07113425
-0.08258678 -0.14608175 -0.19988889 -0.09831955 -0.06814753 -0.10507656 0.047006864 0.19395633

static_branch.2.bias f4 [64]
00000000: fea3 98bd f4a0 ad3d a066 c63d 8002 80bd
00000010: 7b63 ea3c ec5e e53d a3e3 aabd 3bf6 85bd
00000020: b5e2 243e 937b 38bd a3cb 99bd 9f75 02be
00000030: 8a14 11be 6418 85bd 3626 813d 2b4d 1b3e
00000040: aaf6 e0bc aa47 32be 4e63 933d a53a 133e
00000050: 4542 ea3b 0723 103d f53f 173e 43b6 fc3d
00000060: 8bbe b0bc 0369 e9bd 4d2b fe3c f522 95bc
00000070: fedc 9a3d 0d51 92bd 5cc3 0cbe deae 863b
00000080: 60ff e03d 4b63 873c 3fa5 c53c 1d90 893b
00000090: 4ed8 ff3d db1a 91bd 6842 7f3d 1ecf a0bd
000000a0: bf29 e23d 7199 113e 2683 19be 7809 b53d
000000b0: 6d94 533d 48b6 e53d 8c98 d03d 7f02 24be
000000c0: 6116 8dbd 56b7 a53d 3fa0 ad3c 622a 1ebe
000000d0: 6ad0 533d 50a0 01be d87b 2b3d a370 97bc
000000e0: b3ea 223d db5f a23d 6b94 1bbe c6c5 ebbd
000000f0: 3a26 c8bc 2ae2 91bd 47ca ac3d f214 9e3d
-0.07453154 0.08477965 0.09687543 -0.06250477 0.02861189 0.111997455 -0.083441995 -0.06541105
0.16102107 -0.045039725 -0.07509544 -0.12740181 -0.14167991 -0.06498793 0.06306116 0.15166156
-0.027461369 -0.1741015 0.07196675 0.1437784 0.007149013 0.035189655 0.14770491 0.12339451
-0.021575233 -0.113969825 0.031026507 -0.018205145 0.07561682 -0.071443655 -0.13746399 0.0041102013
0.10986209 0.016526839 0.024126647 0.004198088 0.12492429 -0.070852004 0.06231919 -0.078520045
0.11043119 0.1421869 -0.14991435 0.08839697 0.05165522 0.11216408 0.10185346 -0.16016577
-0.06889034 0.08091609 0.021194575 -0.15445855 0.05171243 -0.1265881 0.041866153 -0.018486327
0.039774608 0.07928439 -0.15193336 -0.11512332 -0.02443229 -0.071232155 0.08437019 0.07718839

combined_head.0.weight f4 [64, 128]
00000000: f1b0 3dbd 047d cb3c 2703 bfbd 1306 293c
00000010: f273 5cbd 82cd 633d 380b aabd e1d7 8cbd
00000020: dae0 6e3c b710 acbc 372d aebd 7d8b edbc
00000030: 0562 953d f923 60bd 25c7 623c 0aed a4bb
00000040: c634 bdbd 1833 d33b b2c4 263d 4f43 a9bd
00000050: 5bf8 05bd d8e8 5fbd 2909 8abd be9d 8e3c
00000060: f654 76bc 17ad 363d 34fe ca3c 6479 aabc
00000070: 4e6f 93bd cfe7 0c3d b855 633d 8556 4fbd
00000080: 2b38 cf3c d212 bdbc c6a0 8abd e0af 9e3d
00000090: 1fda 863d ed17 003d eaab 203c 69b7 86bd
000000a0: 072b 8c3d 4c4a a53c efc8 d0bc 112f 4c3d
000000b0: b2ff 863d 925f 0c3b db56 3f3c acb3 c0bd
000000c0: 248a 313d 85c6 e3bc 8369 a3bd d7ae bc3c
000000d0: eced c8bc eedc bb3c ef8e b8bd a65d 86bd
000000e0: 1bd4 933d 4bcb b9b8 0bc2 57bd 2bef 333d
000000f0: e4f2 b1bd e9d0 95bd cf12 83bd 33b8 8a3c
00000100: 72e8 a3bc 46ee bbbd 5335 92bb 53eb 943d
00000110: 9752 773d 114c 28bd 64a2 46bc 48d5 553d
00000120: bc17 ccbd e1cb 4abd a3e2 b43d 0722 d3bc
00000130: e164 273c f666 45bd c416 bfbd 7a02 bebb
00000140: a208 41bd 4e42 263d 925e 5ebc a0ef db3c
00000150: 0193 a2bd 0679 b2bd 70e4 403d 69c0 bfbd
00000160: a74f 983d 9402 9fbd cc27 113d 74f4 013c
00000170: 7975 efbb b5d2 babc f732 ac3d 6106 7abc
00000180: 2ca9 d2bc 49d0 02bd ef10 033d fa34 923d
00000190: 388b 273d 0113 e23c 3572 36bd 452f 2ebd
000001a0: 8eff fc3c e527 bc3c 6333 f03c cf1d 253b
000001b0: ce40 7f3d 2681 043d 5d0a 7ebc 65c1 70bd
000001c0: 769c 163d a91e 33bc 4728 913d 0ce4 5a3d
000001d0: 7e81 f8bb dce7 5ebd b06c 1dbd c949 4ebd
000001e0: 67f0 3f3d 8535 8c3d 8ac6 14bb dd51 a139
000001f0: a5af 433d 0a47 55bd 56c9 bb3c 1291 15bd
00000200: 4614 48bd 3355 283d 96c6 7e3d 92c8 8a3d
00000210: aa62 c23c 128d 993c cc8e 0a3c 129f 03bd
00000220: faa7 2c3d ba2b 983d 32bf 3d3d 8e9d 48bc
00000230: fb72 b1bd 27c5 8e3d 43b7 c43b dee6 0ebd
00000240: c591 60bd 5adc a93d 2f83 74bd 1c38 dc3b
00000250: 03f7 71bd 116a 583d 3cbd b5bc 11ec 373d
00000260: f82d a43d 160a 85bd 664a 5b3c 0cfb ae3d
00000270: 49f6 9abd 5e2d 703d 845f b5bc 2321 643d
00000280: f525 403d 69f1 183d c5da 343c be09 eebc
00000290: 4004 7f3d 64b8 853c 64b5 093d ff24 1b3c
000002a0: 180b 8c3d 2f94 9dbd 34c7 733d 65b7 a4bd
000002b0: 3d18 7cbd 0b5c aa3d 02ae 59bd edae 9b3d
000002c0: a4a1 b33d 790a 0abb 01ac 373c fe31 98bd
000002d0: 53bd a8bd 2dbb 3f3c 6a22 853d 1d1c 6e3d
000002e0: f2c6 10bd 9396 01bc d892 093d 4f24 64bd
000002f0: b733 9e3c a846 b53d 2ec8 083d d077 29bd
00000300: ed72 24bc a519 9bba 3a82 553b 9bfd abbd
00000310: 19f4 813d e50a 58bd e2c2 81bc 2b7e 01be
00000320: 9c75 3a3d 720e 213d 0bd7 5abd ae49 6a3d
00000330: 19c4 c4bc 1c5b 533a f914 b1bd 9de4 67bd
00000340: d95c 40bd 8285 0bbc 021f b33d a3ed fc3c
00000350: 5e7f 09bd 98da 393d c4bc a8bd 3242 c23d
00000360: 93e4 303d 32dc f73c 223c 6a3d 4825 2b3c
00000370: 8d39 353d 8658 54bc fa9a 763d cf34 c13d
00000380: 1ca2 2fbc ac17 e4bc 639b 933d 795a a1bd
00000390: 2360 d13c 475c a63d 53ff 9fbd 5fda 9dbd
000003a0: e552 29bd e1aa 21bd e3b0 eb3d 3431 d73c
000003b0: dda2 9f3d 205f 4bbd 1d60 243d 047d aabc
000003c0: 065f 01bd 1f78 a0bd 27a8 5f3d 8aed 27bd
000003d0: 3659 c83c e054 74bd 0954 023d 700d 973d
000003e0: 4300 b13c b483 0ebb 0281 903d ad8e 273d
000003f0: a492 91bd c5a1 993d e5fe 9f3d 6466 3bbc
-0.046311323 0.024839886 -0.09326773 0.01031639 -0.05382151 0.05561591 -0.08302921 -0.06877113
0.014579976 -0.021004064 -0.08504718 -0.028997177 0.07294086 -0.054721806 0.013841425 -0.00503314
-0.09238581 0.0064453 0.040714927 -0.08264791 -0.032707553 -0.054665416 -0.067400284 0.017409202
-0.015034905 0.044598665 0.024779417 -0.020809837 -0.07198964 0.034400757 0.05550167 -0.05061962
0.025295338 -0.023080263 -0.06768946 0.07748389 0.06584572 0.031272817 0.0098066125 -0.065779515
0.06844144 0.02017703 -0.025486438 0.049849574 0.06591739 0.002141927 0.011678423 -0.0940927
0.04334463 -0.027804622 -0.07979109 0.023032589 -0.024527512 0.022932496 -0.090116374 -0.06560831
0.0721819 -8.859354e-05 -0.05267529 0.04392926 -0.08688906 -0.07315237 -0.06400072 0.016933536
-0.0200083 -0.091763064 -0.004461923 0.07271447 0.0603815 -0.041088168 -0.012123678 0.052205354
-0.099654645 -0.04951084 0.0883229 -0.025773061 0.0102169225 -0.048193894 -0.09330514 -0.005798635
-0.047127374 0.040590577 -0.013572352 0.02684766 -0.07938195 -0.0871449 0.047092855 -0.09362871
0.074370675 -0.077641636 0.035438344 0.007931817 -0.007307705 -0.022805551 0.08408158 -0.01526031
-0.025715433 -0.031936917 0.03199857 0.07139011 0.040904254 0.027596952 -0.04454251 -0.04252555
0.030883577 0.022968242 0.029321378 0.002519477 0.062317662 0.032349728 -0.0155054005 -0.058778185
0.036770307 -0.010932603 0.070877604 0.05344014 -0.007583796 -0.054420337 -0.03843373 -0.050363336
0.046860125 0.068461455 -0.0022701346 0.00030769306 0.04777493 -0.0520697 0.022923153 -0.036515303
-0.04884746 0.041096877 0.062201105 0.06776537 0.023728687 0.018744025 0.008456897 -0.032134123
0.042152382 0.07430215 0.046324916 -0.012244595 -0.08664509 0.069711976 0.006003292 -0.03488814
-0.054826517 0.08293982 -0.05969542 0.006720556 -0.05907346 0.052835528 -0.02218496 0.044902865
0.0801658 -0.06496064 0.013384437 0.08543977 -0.075665064 0.058637016 -0.022140272 0.055695664
0.0469112 0.0373396 0.011038487 -0.02905738 0.062259912 0.016323276 0.033620253 0.00946927
0.068380535 -0.076942794 0.059516147 -0.08042792 -0.061546553 0.08318337 -0.053144462 0.07601724
0.08771065 -0.002106337 0.0112104425 -0.0743141 -0.08239236 0.011702341 0.065007046 0.05813228
-0.03534598 -0.007909435 0.033587307 -0.05569869 0.019311769 0.08851367 0.03339403 -0.041374028
-0.010037166 -0.0011833204 0.0032578842 -0.08397981 0.06345386 -0.052744765 -0.015839998 -0.12645786
0.045522317 0.039320417 -0.053427737 0.057199173 -0.024019288 0.00080625876 -0.08646578 -0.056614507
-0.046963546 -0.008515717 0.08746149 0.030875033 -0.033568732 0.045374483 -0.08239129 0.09485282
0.043186735 0.030256364 0.057186253 0.0104459 0.044244338 -0.012960559 0.06020639 0.094339006
-0.010719802 -0.027843319 0.07207372 -0.078785844 0.025558537 0.08123069 -0.07812371 -0.077076666
-0.04133882 -0.039469603 0.11508348 0.026268579 0.077947356 -0.049651265 0.040130723 -0.020811565
-0.031584762 -0.07835411 0.054603722 -0.04099802 0.024456602 -0.059651256 0.031818423 0.0737561
0.02160657 -0.0021745982 0.07055856 0.04090755 -0.071080476 0.07501558 0.07812289 -0.011437986

combined_head.0.bias f4 [64]
00000000: e756 973c 1589 463d 16a3 8e3c f776 0f3c
00000010: be20 babc 4e75 433c f5f1 27bc 5bdf 4f3d
00000020: f872 11bd c995 9a3b 750c 34bd ceb8 8f3d
00000030: 90bf 30bc 08c2 70bd 4e4f a83d d23e 133c
00000040: 830b 8e3b cf60 f83a 978e 98bd 2e8d f1bb
00000050: 0a8f bdba c45d 513c cded 8a3d 5bc6 3f3d
00000060: f67b 86bd caa4 85bd 1f8d 8bbd d94e 9bb9
00000070: b65b 77ba d9d0 84bd 0a4d 39bd 1330 423d
00000080: 6bd6 f1bc 94d7 a2bd b770 7abd 7d15 74bd
00000090: b472 debc 33ac 4abd 9e00 b13d e98a 40bd
000000a0: fa98 1cbd c823 1b3d 7160 8a3d 5efb af3d
000000b0: 4583 3b3d f4b6 ccbc 1cfe 493a f7c8 0f3d
000000c0: 2a7f 533c 5259 eb3c 6d33 c03c dc20 7c3d
000000d0: 7373 793d def3 c43d 4f00 1abd 451b b13d
000000e0: d94c 32bd 13b6 3d3d 954f 473d e0e7 103d
000000f0: b1c2 8c3c ceee 503d 7b47 9dbd 718d 753d
0.018474055 0.048470575 0.01741175 0.008756391 -0.02272069 0.011929823 -0.010250558 0.050750118
-0.035510033 0.004717563 -0.043957192 0.070176706 -0.01078786 -0.058778793 0.08218251 0.0089871455
0.0043348684 0.001894975 -0.07449072 -0.0073715663 -0.0014462185 0.012778703 0.06783638 0.046820026
-0.065666124 -0.06525572 -0.06814026 -0.0002962265 -0.0009435968 -0.06485147 -0.045239486 0.04740913
-0.029521188 -0.079512745 -0.06114265 -0.059590805 -0.027154304 -0.04948063 0.08642696 -0.047007475
-0.038231827 0.03787592 0.06756676 0.08592866 0.045779485 -0.024989583 0.0007705407 0.035103764
0.012908736 0.028729115 0.023462022 0.061554775 0.060901117 0.096168265 -0.03759795 0.086477794
-0.04353032 0.046316218 0.04865988 0.035377383 0.01718268 0.051008992 -0.076796494 0.059949342

combined_head.3.weight f4 [6, 64]
00000000: 12e6 f73d 2260 a03d fc84 d63b 3f14 483d
00000010: d067 c0bc 2e0f f0bd bd11 dbbd 6d62 ee3d
00000020: 8159 5b3d d9a5 05bd 4c6b 83bd 4953 8dbc
00000030: a564 d83d 2913 91bd ce92 8d3d 6fba 853d
00000040: 0ae9 213d 7436 6abd d029 0a3d dc2a 823d
00000050: acde 16bd e068 d43b 4094 f83b ec52 713d
00000060: da19 53bc 0336 9f3c c802 adbc 5bf4 6c3d
00000070: db4e 0e3e 277d 213d ab6f cabd ede0 debb
00000080: 9057 e93d da59 9abd 2d0a 8ebd f9d8 f0bd
00000090: 4782 acbd bc1a 703d a9ef 903d 43bd 123d
000000a0: ae19 eabc 031c 383d 55df c93d 4c53 7b3c
000000b0: 8145 f13b 5890 f9bc e6c7 7d3d 388f 093e
000000c0: 6cb8 e6bd 0ae3 e5bd 9796 acbd 9286 fb3d
000000d0: 51f8 943d 50d3 853d 02c9 c4bd 989a 3f3d
000000e0: 584b a8bd 0a07 c5bc 4470 c03c 6ee7 92bd
000000f0: 485b 2d3d 052d 8fbd 3ef5 ce3d 1012 de3d
00000100: 84fd a6bd 1e6b de3d 638d a23c 483d da3d
00000110: b227 b23d 9015 ba3d 1196 d1bd d01b b33d
00000120: 8feb eb3d 4c32 d03d 8893 323d 496b 503d
00000130: 20d0 3a3d e8a0 85bd f250 8ebd 3c70 4d3d
00000140: c277 4a3d 7411 09bd 70cc 303d 9e40 103d
00000150: 2dd2 ca3c 9010 6bbd 9a8e 84bd e894 693d
00000160: fa2e 9ebd 62ce 9ebd 1423 933d 1eae e53d
00000170: 2db8 b53d 58da 27bc eda7 40bd f131 123e
00000180: 5139 a63d 3a8b 8abd 34ee dc3d a1d6 f93d
00000190: 2c7e ad3d 4dae c4bc d804 093c 9ead 443d
000001a0: eb78 83bc 1d51 033e 57a4 f63d b2a9 dbbc
000001b0: ee0f aebd 90ca 743d 088b 9e3d 68df bfbd
000001c0: 5d14 333d 94c6 083d 9fe3 82bd 9e2d 89ba
000001d0: 6806 0e3e 3986 0cbd 4bfd 8dbb 1c16 a03d
000001e0: 54c8 9abd cc07 93bd 4cf9 a8bd 4649 cbb9
000001f0: 40fd 4bbc bbdb 943b 3e2b 79bd 252b 653d
00000200: dd30 9f3d 53d8 303a dfd9 5c3c a46f 6c3d
00000210: 545a d2bd 16b2 9b3d 7f2d 833c 65db 043e
00000220: 4ce3 623d fd2b d43d c870 b2bd 6544 813d
00000230: 7942 0e3e bd18 803d e9cf 033e ea4c 823d
00000240: b98f ccbd ca5f ad3d aca6 8bbd 9625 0b3d
00000250: 300e 223d fc82 bdbd 8692 8abd 44f2 c9bd
00000260: 1381 62bb d451 e0bd a479 f43d 37ec aa3d
00000270: 7610 df3d 6057 953d 3276 23bd 2e6e 083d
00000280: 7862 0d3d 0872 103d 83bc 80bd 76d3 c53d
00000290: 1976 993d 3321 96bd 28c4 0f3d 98fe 243d
000002a0: 372c 69bb 7022 36bc 7c14 6ebd a7d5 8a3d
000002b0: 514a de3c ec98 f1bd b255 a1bb 28d3 a4bd
000002c0: 9a89 933d 2038 edbb fcd6 9dbc a5e9 993d
000002d0: 672e 523c b811 d53d 5094 20bd 2e51 323d
000002e0: 00b0 983c f7f0 cb3d 5340 383d fdb3 ccbd
000002f0: f60c eb3d f950 cfbd 178a 82bd c833 91bd
00000300: daa7 e5bd 14d3 d8bc aa2c 35bd d212 293c
00000310: b824 df3c 229d d83d f3b4 043e 208e cd3d
00000320: a250 fbba c342 983c c683 843d 2d43 053d
00000330: 9e51 4d3d fc9b d53d 7442 103b ac78 2bbd
00000340: 82d9 303c 2275 d4bd 9c1d 26bd 7b2c cd3d
00000350: 996c 84bd 8007 593b 8c28 d33d f88d dc3d
00000360: b683 85bd 0192 ceba 146e 6fbd 0038 f43d
00000370: 6b31 8dbd 7a3f 053e 7585 8a3d 4a35 083e
00000380: 6766 5c3d 0c0e 243d 02b3 9f3d b183 c6bd
00000390: 38bc acbd 3377 46bc 57e3 313c 1e2e a23d
000003a0: f40e c6bd c6b2 843d 01ea 363c 9090 a13d
000003b0: 2dcb ddbd 804f 16bc 0e1d bb3d 46ad d2bc
000003c0: 5255 72bd ba68 c33d 0008 813d 7b6f 7a3d
000003d0: ad0c abbd fe86 963d 5a7c 663d fe03 293d
000003e0: da82 e63d 765f cd3c beeb b5bd ba5f 29bd
000003f0: 2ae1 a13d 6bdc 75bc e7dd cf3c c2d9 4ebd
0.12104429 0.07830836 0.0065466147 0.048847433 -0.023487002 -0.11721645 -0.10696743 0.11639867
0.053552154 -0.032628868 -0.0641695 -0.017251628 0.105660714 -0.07083733 0.069127664 0.065297
0.039528884 -0.057180837 0.03373128 0.06355831 -0.03683345 0.0064822286 0.007586032 0.05891697
-0.012884581 0.019434934 -0.02111949 0.057850223 0.13897268 0.039425995 -0.0988458 -0.0068017156
0.11393654 -0.07536669 -0.069355346 -0.11760134 -0.08423286 0.058619246 0.070769615 0.035825025
-0.028576698 0.04494859 0.0985705 0.015339684 0.007363022 -0.030464336 0.061958216 0.1343354
-0.112656444 -0.11224945 -0.0842716 0.122815266 0.07273925 0.06534445 -0.09608652 0.04677829
-0.08217496 -0.024051208 0.023491032 -0.07173048 0.04232338 -0.06991009 0.1010537 0.10843289
-0.08153823 0.10860275 0.019842809 0.1065622 0.086989775 0.09086144 -0.10233701 0.08745539
0.115195386 0.10165843 0.043597728 0.050883565 0.04560864 -0.06524831 -0.06949033 0.050155863
0.049430616 -0.03346391 0.043163717 0.035217874 0.024758423 -0.057388842 -0.064725116 0.057026774
-0.07723804 -0.07754208 0.07184425 0.11214851 0.08873019 -0.010244928 -0.047035147 0.14276864
0.08116401 -0.067648366 0.10787621 0.1219914 0.08471331 -0.024008894 0.008362971 0.048017137
-0.01604887 0.12823911 0.12043064 -0.026814315 -0.08499132 0.05976349 0.07741362 -0.09368783
0.04372059 0.033392504 -0.063910715 -0.0010465865 0.13869631 -0.034307692 -0.0043331734 0.07816717
-0.07557741 -0.071792215 -0.082506746 -0.0003877377 -0.012450516 0.0045427955 -0.060832255 0.05594935
0.07772992 0.0006746102 0.013479679 0.057723656 -0.10271135 0.076023266 0.016012905 0.12974317
0.05539255 0.103599526 -0.087129176 0.06311873 0.13892545 0.062547185 0.1287228 0.063623264
-0.099883504 0.08465536 -0.068188995 0.03397139 0.03956431 -0.09253499 -0.067662284 -0.098606616
-0.0034561798 -0.109531075 0.119372636 0.08345836 0.108918115 0.07292056 -0.03990764 0.0333082
0.034517735 0.035265 -0.06285956 0.096594736 0.074932285 -0.07330551 0.03509918 0.040281862
-0.0035579333 -0.011116609 -0.058125004 0.06779032 0.027135046 -0.11796746 -0.0049235458 -0.08048087
0.0720398 -0.0072393566 -0.019267552 0.07515267 0.012828446 0.1040377 -0.03920394 0.04353445
0.01863861 0.0995807 0.04498322 -0.099952675 0.114770815 -0.10122866 -0.06373995 -0.070899546
-0.11213656 -0.026467837 -0.044232048 0.0103194285 0.027239189 0.10576846 0.12959652 0.10036874
-0.0019173811 0.018586522 0.06470446 0.032534767 0.050126664 0.10430142 0.0022012265 -0.04186313
0.010794045 -0.10373904 -0.04055558 0.100182496 -0.06466026 0.0033116043 0.10310468 0.10769266
-0.065192625 -0.0015760065 -0.058454588 0.11924744 -0.06894191 0.13012496 0.06763736 0.13301578
0.053808596 0.04005246 0.07797815 -0.09693087 -0.084343374 -0.01211338 0.010857425 0.079189524
-0.09670821 0.06479411 0.011164189 0.07888901 -0.10829768 -0.009174228 0.09136401 -0.025717389
-0.0591634 0.095414594 0.06300354 0.061141472 -0.08352027 0.073499665 0.056270935 0.041263573
0.11255427 0.025069933 -0.08882855 -0.041351058 0.07904275 -0.015006165 0.025374366 -0.05050064

combined_head.3.bias f4 [6]
00000000: ebaa c73d 3bf6 bd3c 4fc3 d5bb 1164 213e
00000010: 19cb f83d f6dd ad3d
0.09749397 0.0231887 -0.0065235267 0.15760829 0.12148113 0.08489601
