backend/simulation/health_score_model.pt (torch, 155525 bytes, 11 tensors)

encoder.0.weight f4 [32, 3]
00000000: 1522 10bf 24cd ffbe 30b2 e0be 3ec8 363d
00000010: 2e3c f63e 9824 84be 2457 d33e 27c7 89bb
00000020: 8358 0fbf c347 adbe abea 63be ff33 08bf
00000030: 4cc9 ad3e d773 803e bf8f 78be 7331 053d
00000040: fe2e 023f 3618 86bb 3320 3abe 3816 103f
00000050: a4de 963e d414 74be bdd8 9dbe e15d 93be
00000060: 8bce 6fbe 3e43 08bf ec30 bf3d 82d1 ba3e
00000070: 09cc 05be 091b 503e 34ee 873e 5b90 703e
00000080: cab9 b53e 1590 2dbe cb5b 423e 5bdf af3e
00000090: 684c 61be 7b52 a4be fe30 72be 402c b53e
000000a0: 3c31 223d e183 dc3e 58c8 97be 8b10 eb3e
000000b0: e7cb babe df28 973e 3f37 113f bba7 013f
000000c0: 4d7a 60be 4739 7d3e 15dd 353e 543b 93be
000000d0: 3711 c5bd 720b cfbe 5573 793b bbb1 00bf
000000e0: 1505 02bf e61f a43e 06f8 a6be 9956 083f
000000f0: 6c52 813e 5002 9fbd c346 d0be 3579 c1be
00000100: ef9e 05bf 9b53 cdbe 0f23 8d3d 9b4d 0fbf
00000110: ccad c9be 50a5 8abd f6a6 e53e a272 f4be
00000120: beda cbbd c929 c4be 54cd bf3d cfab bfbe
00000130: 38a7 0b3f 8b63 89be 58c2 df3e 4f66 873b
00000140: 366d c43e cc74 0e3f b828 f43e 8038 103f
00000150: d2ec f1be 0728 a6be 9fc3 ed3e fa7e 10bf
00000160: 69c4 f53e 4f89 5dbe d5de 10bf 6532 f33e
00000170: a1d6 813e d0b6 6a3e 47d1 343d 85b1 c6bd
-0.56302005 -0.49961197 -0.43885946 0.04462456 0.48092788 -0.2580917 0.4127742 -0.004204649
-0.55994433 -0.33843812 -0.22257487 -0.5320434 0.3394264 0.2508838 -0.24273585 0.03251786
0.50852954 -0.0040922416 -0.18176346 0.56283903 0.29466736 -0.2383607 -0.3082942 -0.2878256
-0.23418634 -0.53227603 0.09335503 0.36487967 -0.13066114 0.20322813 0.26548922 0.23492567
0.35493308 -0.16949494 0.18980329 0.34350094 -0.22001803 -0.32094178 -0.23651502 0.35385323
0.039597735 0.43069366 -0.29645038 0.4591106 -0.3648369 0.2952337 0.56724924 0.5064656
-0.21921654 0.24728881 0.17760117 -0.287562 -0.09622424 -0.4043842 0.0038063128 -0.50271195
-0.50789005 0.32055587 -0.32611102 0.5325714 0.25258195 -0.07764113 -0.40678987 -0.37787786
-0.5219564 -0.40102848 0.068914525 -0.5597779 -0.3939041 -0.06769812 0.44853944 -0.47743708
-0.09953831 -0.3831313 0.09365335 -0.37435767 0.5455203 -0.26833758 0.4370296 0.004132069
0.3836457 0.5564697 0.47687316 0.5633621 -0.47250992 -0.32452413 0.4643831 -0.5644375
0.48001412 -0.2163441 -0.56590015 0.47499385 0.2535906 0.229213 0.044144895 -0.09701828

encoder.0.bias f4 [32]
00000000: 68dc 0e3f 8f65 78be 6740 04bf b4ed 4cbe
00000010: b892 c8be c894 7bbe 1a42 a03e 8401 c73e
00000020: 7af8 e0be 9625 e43e 30f6 603d 3087 96be
00000030: dab9 a23e 8ee1 113f 69e8 e23d 188e e43e
00000040: 87c1 083f 6bb1 30be 9967 08bf c1e0 703e
00000050: 38bd 41be 581b ec3e e0ef 94be bf87 1b3e
00000060: 77ff adbe 9d6a 18be 2fdb 26be 7f37 d3be
00000070: 2dce 2cbe 6439 3f3d aa14 d9be e393 283d
0.55805063 -0.24257492 -0.5166077 -0.20012552 -0.39174438 -0.24568474 0.3130043 0.38868344
-0.43939573 0.44559926 0.054922283 -0.29400015 0.31782418 0.56984794 0.11079485 0.4463966
0.534203 -0.1725518 -0.5328308 0.23523237 -0.18919837 0.46114612 -0.2908926 0.15188502
-0.33983967 -0.1488442 -0.1629455 -0.41253278 -0.16875525 0.04668559 -0.42398578 0.04115666

encoder.2.weight f4 [64, 32]
00000000: 3e0a 723d 5e69 27be af1d b03d 0a5c 813d
00000010: 7c1c e23c 81bd 043d 043b a3bd 8f55 053d
00000020: 2127 33be f7aa 6cba 4152 e5bd 47d7 f9bd
00000030: 7e35 4a3d e565 9fbd 81dd 003e 6a95 39bc
00000040: 5b89 c4bd 76bb fc3d d917 14be 84ca 05be
00000050: a600 1bbe 45ff 0a3d 63cd a9bc 041e b93d
00000060: 430f 03be aa9e 5b3c 159d 08bd 7de6 1abe
00000070: 1a6b ec3d c1a1 21be 8742 8bbd 1d11 e9bd
00000080: e1b8 f4bc a67b 003c 292f c6bd 5ed1 af3d
00000090: fb4a cc3c 2637 153e b341 cd3d 8063 2fbe
000000a0: e176 51bd 6c1c f83d 49a5 3fbd 2e92 c2bd
000000b0: bd6f 503d 0f9e ff3d b632 70bc 23d1 9dbd
000000c0: 4cca 04be c6ec 063e 2a2b d2bd ea5e 3c3d
000000d0: 9865 b2bd 8bf6 753d cffb 73bc 2fcd 0a3d
000000e0: 8dbb 28be 635d 18be f2e0 02be e1de 283d
000000f0: 3122 eabd a421 a03d f348 773d 0a3b 233e
00000100: f0cd 1cbe d25e 2fbe 6dd1 263d 2cae 283d
00000110: b81c b6bd 81b8 75bd 02d6 02be 7741 993c
00000120: 4f56 1ebe 414e 51bc d71d 813c e592 d83d
00000130: 86af c93a 6b2b d5bd 36dd 143d 916f 32be
00000140: 0408 a1bd 2625 d63c 4634 2a3c e899 1dbe
00000150: 4c19 143b a50c 383b e407 f83b 9293 51bd
00000160: 2e5a 173d ef52 8c3d 0aa7 923d 2dab 37bd
00000170: 6ae3 bfba af6b 5ebc d493 f63d ac31 3ebd
00000180: 81ba cc3b 93f6 1ebe 5d78 cd3d 1b67 f0bd
00000190: 1d93 b13b 5110 863d 79e4 92bd 3b06 00be
000001a0: c7ec 90bd c4ea 693d 060d f1bd 7914 0fbe
000001b0: 7378 d0bd 4bf9 7f3d bb4b 04be 43d5 afbd
000001c0: e6a3 4cbd dd4d afbd 179e a83d 166c c53d
000001d0: 5a18 e53c bc28 ef3d 86c1 10bd 6ffc 203e
000001e0: 3c54 0d3e fed8 253e 9586 2f3e cbff a93d
000001f0: 266f 1c3e 34a3 a93d d992 8ebd daff 0d3e
00000200: 2b49 cf3d f3d0 f8bc 965c 893d 599c fbbd
00000210: 4e4d 993d 4dd9 283e 1cb2 ce3d ae57 c1bd
00000220: db9d be3d b246 27be 8d30 b93d 3e9b 033e
00000230: baa7 f53d e843 473d 4bee 14bd 0134 10be
00000240: fab1 1dbe 8952 b03d eeda 2ebe b4c4 31bd
00000250: f33d e4bd ae7e a03d 9aca d2bc 5a2c 3abd
00000260: b5f4 7a3c 4364 713d fcf3 c0bb a8aa aebd
00000270: 5788 173e c90b 09be 58ed 54bc ed27 393e
00000280: 9b9a 8fbd 4226 afbc 2490 ae3d d9fd 63bd
00000290: 3453 cd3a 7953 2f3e 576b 653d 3e7a 8a3d
000002a0: 93bb 46bd b25e 343e 2a75 26bd 3853 54bd
000002b0: 25c9 613d f1a4 0fbe bb28 a1bd 89c3 c93d
000002c0: a365 8abd 06c5 e5bd 9189 2c3e f5c1 883c
000002d0: 1440 273d 3304 0cbc 2899 863b 1283 f83c
000002e0: bbfe d33c 1f02 063c 6990 d3bd ed68 2bbe
000002f0: 9345 2d3e e1c6 643d 9eb8 cf3c 90ca ff3c
00000300: 7a0f b1bd eb68 c83d d172 4e3d 48f6 17be
00000310: e64a 09bd 0ff8 1bbe e6e3 13be 12c8 da3c
00000320: 80c5 b83d 482c 32be 83a4 30be 0315 68bd
00000330: 7c25 66bd 73ae 1ebe 34d9 6ebc d4dc 2abc
00000340: 6b4a 11be b6de 21be 2296 32be 1a84 ef3d
00000350: a23a 3739 4fcf eb3d cc15 e6bd 4d60 fcbc
00000360: ff75 b1bd af60 3cba d0f5 b83c 47d7 903d
00000370: e9c4 d0bd 9870 2ebe cd54 15be 1295 d43d
00000380: a1de 093c e288 0cbe 93ab cd3d 218d d4bd
00000390: d7a3 cfba 4f2b 773d 77e0 4c3d f0da ee3d
000003a0: f20d 283e d7ad df3d 3d5e d2bd f438 0bbe
000003b0: d3e4 793c 9473 033e d304 223e 7230 993d
000003c0: 65e4 5fbd 6e50 f6bd 760c 1cbe 5b8f 04be
000003d0: 176c 213e 5bc9 bb3b 1a54 6dbd 4294 7a3d
000003e0: 0a06 7c3d b0fc e2bc 1476 6d3c 877e 8d3c
000003f0: 0006 d23c 39f1 c83d 9d7d cdbd bd0e d4bd
0.0590918 -0.16348788 0.08599412 0.06316383 0.027601473 0.032407288 -0.07970241 0.0325523
-0.17495395 -0.00090281613 -0.11197329 -0.12199264 0.04936742 -0.07783107 0.12584497 -0.011327127
-0.09596511 0.12340443 -0.14462222 -0.13065535 -0.15136966 0.03393485 -0.020727819 0.09038928
-0.1279879 0.013404528 -0.03335293 -0.15126987 0.115438655 -0.1578436 -0.067997985 -0.11380217
-0.029873313 0.00784198 -0.09676964 0.085848555 0.024938097 0.14571819 0.10022297 -0.171278
-0.051138762 0.12114796 -0.046788488 -0.09500538 0.050887812 0.12481319 -0.014660528 -0.07705905
-0.12967795 0.1317626 -0.10262139 0.045988955 -0.08710784 0.060049575 -0.014891579 0.033887085
-0.16477795 -0.14879374 -0.12781122 0.04122818 -0.11432303 0.078189164 0.060372304 0.1594049
-0.15312934 -0.17126015 0.040727068 0.04118173 -0.088921964 -0.05999041 -0.1277695 0.018707974
-0.15462612 -0.012775005 0.015761299 0.10574893 0.0015387393 -0.10408672 0.036343776 -0.17425372
-0.07862857 0.02614076 0.0103884395 -0.15390742 0.0022598086 0.0028083709 0.0075693 -0.051166125
0.036951236 0.06851756 0.071607664 -0.04484098 -0.0014639918 -0.013575478 0.12039915 -0.04643409
0.006247819 -0.15523748 0.10032723 -0.11738416 0.0054191486 0.06546081 -0.07172484 -0.12502377
-0.07076412 0.057108656 -0.11770062 -0.13972653 -0.10179224 0.062493604 -0.12919514 -0.08585598
-0.049960993 -0.08559773 0.08233278 0.096397564 0.027965713 0.11677691 -0.03534081 0.15721296
0.13801664 0.16196057 0.17141183 0.08300742 0.15276775 0.08283082 -0.06961603 0.13867131
0.101213776 -0.030373072 0.067071125 -0.1228568 0.07485448 0.16489144 0.100925654 -0.09440552
0.09307452 -0.16335562 0.090424635 0.12852189 0.11994882 0.048648745 -0.036360066 -0.14082338
-0.15399924 0.08609492 -0.17075703 -0.04340048 -0.111446284 0.07836662 -0.025731374 -0.045452453
0.015317132 0.058933508 -0.00588846 -0.08528644 0.14798103 -0.13383402 -0.01299604 0.18081637
-0.070119105 -0.021380547 0.085235864 -0.05566201 0.0015665055 0.17121686 0.05601057 0.06761597
-0.04851873 0.17614248 -0.04063908 -0.051837176 0.055123467 -0.14027764 -0.07869097 0.098517485
-0.06757667 -0.1121922 0.16849352 0.016694048 0.040832594 -0.008545923 0.004107613 0.030335937
0.0258783 0.008179217 -0.103302784 -0.16739245 0.16921072 0.05585373 0.025356587 0.031224519
-0.0864553 0.097856365 0.050402466 -0.14840043 -0.033518694 -0.15231346 -0.14442405 0.02670673
0.09022045 -0.17399704 -0.17250256 -0.056660663 -0.05618809 -0.15496235 -0.014578152 -0.010428626
-0.14188544 -0.15807614 -0.17440084 0.11695118 0.00017474082 0.1151415 -0.11234626 -0.030807639
-0.08665084 -0.0007186038 0.02257815 0.07072311 -0.10193808 -0.17035139 -0.1458313 0.103799954
0.008414895 -0.13724092 0.10042491 -0.10378481 -0.0015841675 0.060344037 0.050018754 0.11662853
0.1641157 0.10921829 -0.10271881 -0.13595945 0.01525231 0.12837058 0.15822153 0.07479943
-0.054661173 -0.120270595 -0.15239128 -0.12945311 0.15763889 0.0057307906 -0.057941534 0.061176546
0.061529197 -0.027708381 0.014493484 0.017272247 0.025637627 0.098116346 -0.100337245 -0.103543736

encoder.2.bias f4 [64]
00000000: 6c53 5f3d b0c5 0dbe aa69 4fbd 8e8e 233d
00000010: 49e1 0d3e 2a3d 093e 3303 8a3d 4319 463d
00000020: 5b49 1abd a4d9 e7bc f47e 2d3d 6445 e43c
00000030: 87fa cf3d 33fc 7ebd e9a3 033e 501f 813d
00000040: 5ea1 c2bc 1792 1dbe dca9 ca3d 48fe 8e3d
00000050: af28 2ebe 3355 8a3c ed59 58bd d8f3 693d
00000060: ed41 19be 1187 1d3e b080 d33d c9cf fdbd
00000070: efde 083e ced9 aabd baec b13d be2b 7abd
00000080: 2082 853d 83d3 2c3e 2212 dd3d f2ef d6bc
00000090: cb60 023e 6924 283d 6a71 3b3d 4c67 84bd
000000a0: dfd1 22be 91c4 e53c b247 2e3e 26cb 373e
000000b0: 0202 d53d 0cf2 003e e05e 173e 3d5b 023e
000000c0: c12b d4bc ced0 b9bd 4ab6 763d 6d40 23be
000000d0: 1d0e 8dbc 97d9 243e 8c94 6d3d 4260 383e
000000e0: 5c34 133e 6e7c 0cbe d222 1cbe 858a 03be
000000f0: 016d 27bd e505 60bd 44a9 e63d a10c 05be
0.054522917 -0.13844943 -0.05063788 0.039930873 0.1385547 0.13402238 0.067388915 0.048363935
-0.037667613 -0.028302021 0.0423574 0.02786512 0.10155206 -0.062252235 0.12855496 0.063048005
-0.023758586 -0.1538776 0.09895679 0.06982094 -0.17007707 0.01688633 -0.052820135 0.057117313
-0.14966555 0.15383555 0.103272796 -0.123931475 0.13366292 -0.08342324 0.0868773 -0.061076872
0.0651896 0.1687756 0.10794474 -0.026237462 0.12732236 0.04105035 0.045762457 -0.06465015
-0.15900372 0.028047832 0.17019537 0.17948589 0.104007736 0.12592334 0.14782286 0.12730117
-0.02589977 -0.090730295 0.06023244 -0.15942545 -0.017218644 0.16098629 0.058002993 0.1800547
0.14375442 -0.13719341 -0.15247658 -0.1284581 -0.04087544 -0.05469312 0.112627536 -0.12993099

lstm.weight_ih_l0 f4 [256, 64]
00000000: b3a7 013e 7a53 c3bd 1afc 9ebd 9f0c 57bc
00000010: 7f57 d33c 7161 dfbc 6844 95bc 15bf a5bd
00000020: 8f50 993d eca7 033d 58ec dc3d f299 d53d
00000030: 5619 04bc 101f 4f3d e1e2 d0bd 9790 ccbd
00000040: b2d5 f6bb eb3b f73d f89c 0d3d 6ff2 8d3d
00000050: 7e58 973d a6b7 8abd 5a49 d3bd 4380 97bd
00000060: c8bd df3b 1de2 b4bd a5a9 ba3d 9739 edbd
00000070: 56d0 81bc 87c5 36bc ff0a 85bd 9867 83bd
00000080: 75b5 f03d 53f3 04bc f3cb 1aba 1519 b23d
00000090: 6b90 a13c 8162 913c 1769 a03d d808 96bd
000000a0: 51ee b1bd 5101 88bd 03ea a8bd 6835 e4bd
000000b0: 84fa 003d 8626 a93d 68f3 eebd 56c9 f53d
000000c0: f4d8 31bd f8bf e8bd 44c0 f23d 2f47 78bd
000000d0: 1b47 be3d 3ce0 993d d8fe 8fbd 949a 8cbc
000000e0: 2122 fe3b bda2 b9bc 1e95 353d 0b33 e53d
000000f0: e72c 8fbd 16dc f43d b12d 9cbd c348 003d
00000100: 74bd e7bd 5d4b e2bd 82f0 eebd fe48 eb3d
00000110: 8775 013e ebab bb3c 4678 9d3d 13e7 663d
00000120: 13a4 dfbd cab6 523c 5218 b43c c949 91bd
00000130: a284 f1bd a325 40bc 8992 613d 9c9d 923b
00000140: fdce 58bd 0818 a73d 5d8e 54bc f28d 613d
00000150: c61d f1bd 8c97 573d 970d c83d 906b 5e3d
00000160: 35d2 383d c0a2 7dbb 3ebd 5e3d bb85 d13c
00000170: c244 213d 7006 283d e175 333d 6031 54bc
00000180: e4e4 cb3d 2b6c adbb 7641 77bb 0164 893d
00000190: 475d a9bb 8f95 e53d 3436 87bc 2114 bdbc
000001a0: ba25 66bd fb9c 8d3c 2d65 e23c 857a 41bd
000001b0: 1d0c a63d 5d99 cfbd 640e 2b3c be64 833d
000001c0: e2da c83d 3f15 fd3d ccd7 4abd d664 013c
000001d0: 65ce e3bd fb5f 8fbd 12db d6bc 766c ba3c
000001e0: 84eb 5c3d e695 e0bd 0cef 993d dc43 4abd
000001f0: 0874 9f3d c547 d3bd db47 a0bd 3c26 b3bd
00000200: 9246 2a3d cc6a 01bb f429 5d3d c4bc 9d3d
00000210: 1b8b 8cbd 8130 41bc 007e dbb9 8019 59bd
00000220: b6dd cdbd 82b8 b03d 9914 963d 5c1c be3d
00000230: d1a2 7c3d 2e24 023d 3d67 1c3d 3512 653d
00000240: 9304 8c3d 81b6 d93d f6b7 80bd f9d7 c83d
00000250: c05c 763d a9ed 8f3d 9821 5d3d 35e1 3d3d
00000260: 7919 d7bd 47c3 05bd f7e8 35bd 0dee 6a3d
00000270: 8af7 443b 5a70 71bd ffdd 8ebd f00e 433c
00000280: 8308 19bd 3a30 7d3d cded 963d 3565 633d
00000290: 749d 8dbd eca4 1dbd 339d 033d 0a72 993d
000002a0: 1845 b93d 479c ca3d 7fd8 d2bd b12d b0bd
000002b0: 8c6e a7bc df26 9f3d e580 eb3d 1ecf 94bd
000002c0: 35ef 3bbd 3d66 aebc 38c7 a3bc ff7e 13bb
000002d0: c8cb 4c3d f4e9 b3bd 5da0 c63c deac 783d
000002e0: b512 8bbd 11fe 1dbd 8b06 8c3d 6f98 2abd
000002f0: 79d6 f13d 6d97 a63d dfcb fc3d 52f2 ebbd
00000300: 55b6 92bd 8b02 8e3c 2c41 c0bd 04e0 51bd
00000310: 0799 1cbd ea72 fd3d 5226 9ebd efbb b63c
00000320: 6d61 9d3c 19ec c6bd 04e3 c53d 6ab4 d4bd
00000330: d61c 933d 124f cc3d 4329 e5bd 2458 6dbc
00000340: 470c ab3b e70f 543d c193 ee3d d018 c83d
00000350: c54f a53d 4dbf 803d f483 1d3c d5aa 93bd
00000360: 512e ac3d d5ef 9bbd 9d27 3d3c 099f bf3d
00000370: bb35 f03d 464e 933c 99d0 dabd d894 943d
00000380: ad7b ba3c e255 a8bc 8ae6 9abd fae2 ca3d
00000390: b361 8f3d b935 f93d 87c3 e43d bc74 ecbd
000003a0: 6309 de3d 6c4e cf3c f110 9cbd baa8 5cbd
000003b0: 6091 1dbd f9ea 5ebd 130f c33d 112e 17bd
000003c0: 1098 fdba a549 853d b2ff eabd affc 0dbd
000003d0: 1bcb 9e3d 8704 68bc 3e34 b23d 341e 853c
000003e0: d168 e13d dd90 e8bc 97aa fa3c f22a 51bd
000003f0: 8415 3f3d 5e50 d83d cd07 973d be7c 9d3d
0.12661628 -0.09537406 -0.07762928 -0.013125568 0.025798557 -0.027268143 -0.018221095 -0.08093087
0.074860685 0.032142565 0.107872665 0.10429753 -0.008062681 0.050566733 -0.10199524 -0.09988516
-0.0075327987 0.12071975 0.034573525 0.06931006 0.073899254 -0.067733094 -0.10316725 -0.07397511
0.0068280436 -0.0883219 0.091143884 -0.1158325 -0.015846413 -0.011155493 -0.06496238 -0.06416243
0.1175336 -0.008114654 -0.00059050246 0.0869619 0.019722184 0.017747166 0.07832544 -0.073259056
-0.08688033 -0.06640876 -0.08247759 -0.11142999 0.03148891 0.08259301 -0.1166752 0.120012924
-0.043419793 -0.1136474 0.11853078 -0.06061476 0.09290906 0.075134724 -0.070310295 -0.017163552
0.0077555333 -0.022660607 0.044331662 0.11191376 -0.06990986 0.119560406 -0.076259024 0.03131939
-0.11315432 -0.11049531 -0.11666967 0.114885315 0.1264249 0.022909125 0.07688956 0.056372713
-0.109199665 0.012860963 0.021984253 -0.070941515 -0.11792876 -0.011727723 0.055071387 0.004474355
-0.052931774 0.081588805 -0.012973395 0.05506701 -0.11773257 0.05263476 0.09768217 0.0543018
0.045122344 -0.0038701743 0.054379694 0.025576463 0.039372213 0.041021764 0.04381359 -0.012951225
0.09955767 -0.0052924356 -0.0037728227 0.06708527 -0.00516859 0.11210167 -0.016505338 -0.023080887
-0.056188323 0.017286768 0.027636135 -0.047235984 0.08107779 -0.101366736 0.010440443 0.064156994
0.098073736 0.12357568 -0.049522206 0.007897576 -0.11123351 -0.07000729 -0.026227508 0.022756796
0.053935543 -0.10966091 0.07516298 -0.049381122 0.07785803 -0.10316423 -0.07826205 -0.08747527
0.041571207 -0.0019747494 0.053995088 0.0770202 -0.0686247 -0.011791349 -0.00041864812 -0.053002834
-0.10052054 0.08628942 0.073281474 0.09282753 0.06167871 0.031772785 0.038184393 0.055925567
0.0683681 0.10630513 -0.06285088 0.098068185 0.060147047 0.07027752 0.053987116 0.046357352
-0.105029054 -0.032656934 -0.044411626 0.05735593 0.0030054771 -0.058945037 -0.06975936 0.011905417
-0.037361633 0.06181357 0.07369576 0.05551644 -0.069147974 -0.03848736 0.03213234 0.07492454
0.09046382 0.09893089 -0.102951996 -0.08602465 -0.020438455 0.07771086 0.11499194 -0.07266067
-0.045882422 -0.021288985 -0.019992456 -0.0022506115 0.04999903 -0.087848574 0.024246389 0.060711734
-0.067906775 -0.038572375 0.068371855 -0.04164928 0.118084855 0.08134351 0.12343573 -0.11520828
-0.07163683 0.017335197 -0.093874305 -0.05123903 -0.038231876 0.12375434 -0.07722153 0.02230641
0.019211495 -0.09713001 0.096624404 -0.10385974 0.071832344 0.09976019 -0.11189511 -0.014486346
0.0052199694 0.05177298 0.116492756 0.097703576 0.080718555 0.06286488 0.00961398 -0.07210318
0.08407272 -0.07614104 0.011545089 0.093565054 0.11728998 0.01798166 -0.10684318 0.07254952
0.022764051 -0.020548765 -0.07563503 0.099065736 0.070010565 0.1216845 0.111701064 -0.11545703
0.10841634 0.02530595 -0.07620419 -0.053871848 -0.03846872 -0.054423306 0.095243596 -0.036909167
-0.0019347686 0.06508187 -0.11474551 -0.034664806 0.07753583 -0.014161236 0.08701371 0.016249754
0.1100632 -0.028389389 0.030598922 -0.051066346 0.04665138 0.10562204 0.07374535 0.07689808

lstm.weight_hh_l0 f4 [256, 64]
00000000: acd7 973c 1aa0 86bc 05fd 903c 90e8 ed3d
00000010: 3cbf 49bd 35ab 383d 6384 61bd f630 ac3c
00000020: 44d1 03bd 7735 1b3d ec34 54bb 0e91 aa3a
00000030: 2178 9e3c 62cc e13c f6b5 c5bd 1d3a ae3d
00000040: 8b35 de3d a1ef 8cbd 7961 f4bd cdf8 af3d
00000050: 1ab2 503d 6af9 d03d 1003 ba3c ed4e 403c
00000060: 51fe a9bd 2a11 ec3b 4971 eb3d 7469 20bb
00000070: 0d6b 1abc 7584 93bd 4efe 36bb ddce b5bd
00000080: b62d 70bd a28a de3d d855 bf3d 2dbd 8fbd
00000090: 118d 873d 6d0d cd3d d653 6f3d dbe5 3b3d
000000a0: 7d64 bfbd 89a4 a83d 9867 c4bd b372 a1bd
000000b0: f3cb a3bc b164 333d 396a 9abd 328c f7bd
000000c0: 1633 e6bd 0eb8 d03b 783a 82bd 2c52 08bd
000000d0: 355e b0bd 4a4c 80bb 90bd d13d f74b 1f3d
000000e0: 5889 67bd b207 9e3d 9e65 a73d 1855 e53d
000000f0: 6933 b13d ae4d 30bd 37db b23d 3939 65bd
00000100: b001 4cbb 5e2f 7a3d 75aa c53d fe4c f6bc
00000110: a6f7 053d 0147 ce3c baae a8bd e531 d23c
00000120: 1817 c13c b5a8 e33d e7f5 e7bc 7130 b83c
00000130: c173 c8bd b814 eabc 2467 efbd bd85 953d
00000140: 868d 343d 52bc bbbd abf8 e9bc 5951 d4bd
00000150: e3ae 9abd 0ca1 71bd 4ec5 1cbd 2b95 46bd
00000160: 6763 f23d 8018 2b3d 1f3e be3d baba 943d
00000170: 220f c5bc 0c93 b83c 1684 d53d 5eed 093d
00000180: 3dc3 36bd 9189 25bd 95ce 11bc 0cbc ba3d
00000190: 279b 883c 5d89 3c3b 4b82 d53d ddea 88bd
000001a0: fd8f 9a3c 2f12 2b3d 56b4 29bd 07df ad3d
000001b0: 833a bbbd 7653 03be e781 923d e759 32bd
000001c0: a05f 1fbd 3b0d 333d 3a63 d13d ce56 653d
000001d0: 674e 41bd 445b 263c 61b7 ef3c c1c4 c4bd
000001e0: 0262 933b c41c 6e3d d1d1 f73d 5389 e03d
000001f0: e0ab cbbd a0e8 b53d b2e1 b9bd 7092 9f3b
00000200: 15a6 8a3d 4481 53bc 8469 843d 3d92 b13d
00000210: a4ba da3c f567 e93d aa64 a6bd 8667 623d
00000220: 1637 89bd 2894 ad3d 7887 09bc 0260 59bd
00000230: 2e5b b8bd f8dc 9b3d 9bc8 efbd 5d87 f4bd
00000240: c933 81bd 8da3 e9bd 6347 cdbd 33dc cfbd
00000250: 5bf6 593d 8a95 983d cd84 3dbd 6a72 01bc
00000260: 2dad 33bb 84bb 003d b0de fb3d d942 96bd
00000270: d592 953d 6601 7c3d 03b5 df3d 80f5 f1bd
00000280: 2bea e3bd 4430 61bd 48d6 c03d 7b7b 9cbc
00000290: 82fc 8b3d a67d 75bc edff a23d 20f4 a0bc
000002a0: 8b4f d6bd f62f e1bc a046 5fbd 772e 7a3d
000002b0: f392 bf3d 3059 093d 3bec a8bc 56b4 393d
000002c0: 7e88 a5bd da3c ed3d ff96 cfbd 5b41 71bb
000002d0: 9f8b 82bc 95fc 9cbd 5ac3 993c 388f 7d3b
000002e0: 2ca2 aa3d fa55 cd3d bd82 003e 2d78 823d
000002f0: 1882 263d 05bb 46bc b737 e3bd 7adb 933d
00000300: 5e03 8b3d 74f1 c63d 448e 89bd a764 f13d
00000310: 8abf f9bc d11c 90bc b998 51bc a3c7 833d
00000320: f664 e2bd 1ee7 c03d a975 a9bd 7339 c9bd
00000330: d3fe aebd 95e7 00be 12ff 233d c043 adbd
00000340: 810c 5e3b b95b 89bc 902d d8bd 8f3c adbd
00000350: b185 b53d fcbe 593d 899e a2bd d12d d2bd
00000360: 712e debc 4af3 c93d 514c 5a3c c6c0 fe3d
00000370: 7ac6 d8bd d5e9 853c ef81 88bd 7b20 a23d
00000380: 834d cbbd 9ac7 6abd 05f4 033e 4635 8abd
00000390: cbce f7bb e385 e23d d460 543d 5b9d 85bd
000003a0: 3e7b 18ba 7670 80bd 5759 59bd 5572 1d3d
000003b0: e215 b93d 385a ca3d bac1 ccbd 50c7 563d
000003c0: 0ff9 5bbc 2cda 003e 1ac8 bbbc 9da4 673d
000003d0: 98f0 543d 4484 833d 272e b0bd 5da0 31bc
000003e0: 38e9 dbbd 1517 633d 5969 1a3d 87f6 b63c
000003f0: 4fad 94bd a751 e9bd 0eea 303d 0aef e63d
0.018535458 -0.016433764 0.017698774 0.116166234 -0.04925464 0.04508515 -0.055057894 0.02101944
-0.032181993 0.037892785 -0.0032380177 0.00130132 0.019344391 0.027563278 -0.09653847 0.08507178
0.10850056 -0.06881643 -0.11932654 0.08592377 0.0509511 0.10203822 0.022706538 0.011737567
-0.0830046 0.0072041946 0.11496217 -0.0024476917 -0.009424937 -0.072029985 -0.0027922573 -0.08877347
-0.058637343 0.10866286 0.09342545 -0.07018504 0.06618703 0.100123264 0.05842956 0.045873504
-0.093453385 0.082345076 -0.095900714 -0.07883205 -0.019994712 0.0437972 -0.075397916 -0.12087287
-0.112402126 0.0063695973 -0.06358808 -0.03328149 -0.086117186 -0.0039153444 0.10241234 0.038890805
-0.056527466 0.077163115 0.08173679 0.11197871 0.08652384 -0.04304283 0.08733218 -0.055962775
-0.0031128936 0.06108033 0.09651653 -0.03006601 0.03270688 0.025180342 -0.082364514 0.025658557
0.023570582 0.11116163 -0.028315498 0.022484036 -0.09787703 -0.028574333 -0.116895944 0.07300899
0.04408028 -0.091667786 -0.028560957 -0.10367078 -0.07552888 -0.058991477 -0.038274102 -0.0484821
0.11835366 0.041771412 0.092891924 0.07262178 -0.024055067 0.022531055 0.10425584 0.033673637
-0.044619787 -0.040414397 -0.008899351 0.09117898 0.016675545 0.0028768398 0.10425242 -0.066854216
0.018867487 0.041765388 -0.041431747 0.08489805 -0.091420196 -0.12824807 0.07153683 -0.04354277
-0.038909554 0.04371379 0.10224004 0.055990987 -0.04719391 0.010153595 0.029262247 -0.0960784
0.0044977674 0.0581329 0.12100566 0.109636925 -0.09944892 0.0888226 -0.09076251 0.0048697516
0.06769959 -0.012909237 0.06465438 0.08670471 0.026700325 0.11396781 -0.08124669 0.05527451
-0.0669996 0.08475524 -0.008394115 -0.053070076 -0.09001766 0.07610506 -0.11708184 -0.11939881
-0.06308705 -0.11408148 -0.100233816 -0.101494215 0.05321346 0.07450397 -0.046269227 -0.007900814
-0.0027416453 0.03142883 0.12298334 -0.07336969 0.073033966 0.06152477 0.10923197 -0.118144035
-0.11128648 -0.05497767 0.09415871 -0.019101849 0.068352714 -0.01498357 0.0795897 -0.019647658
-0.1046439 -0.02748869 -0.054510713 0.06107947 0.093542 0.03353232 -0.020620456 0.045337997
-0.080826744 0.11583872 -0.10136222 -0.0036812637 -0.015935717 -0.07665364 0.018769909 0.0038690101
0.08331713 0.10026164 0.12549873 0.06370578 0.04065141 -0.01212955 -0.11094611 0.07219596
0.067877516 0.09714022 -0.06716588 0.11786776 -0.03048684 -0.017591866 -0.01279276 0.06434562
-0.11054413 0.09419082 -0.08274395 -0.09825411 -0.085446976 -0.12588342 0.040038176 -0.08460188
0.0033881965 -0.01676737 -0.10555565 -0.08458816 0.0886339 0.053160653 -0.079403944 -0.10262645
-0.027121754 0.09860857 0.013323859 0.12439112 -0.105847314 0.016346851 -0.06665408 0.079163514
-0.099268936 -0.05731926 0.12886055 -0.06748442 -0.0075624934 0.11060693 0.051850155 -0.06524154
-0.00058167044 -0.0627145 -0.053063717 0.038439114 0.09037377 0.09880489 -0.09997888 0.052436173
-0.013426079 0.12583226 -0.022922564 0.05655347 0.05198726 0.06421712 -0.08602553 -0.010841456
-0.10737842 0.055441935 0.037698124 0.02233435 -0.072596185 -0.11392527 0.043191962 0.11276062

lstm.bias_ih_l0 f4 [256]
00000000: 7147 f63d 67b2 cebb 393f 8b3d 3c66 11bd
00000010: 0072 59bd fd20 fc3d 10a3 2dbd 1e06 91bd
00000020: 4625 1e3d 03aa eebd ed64 95bd d9af 5fbd
00000030: 6a01 a73d eb36 0e3d d1b0 fabd f2bc f93d
00000040: 6e82 a73d 3d2e b8bd 6a49 a23d 7824 ee3d
00000050: 3f92 9e3d f6ee 643c 8ed1 7abc 8a6f 98bc
00000060: 5592 da3d b1c9 ac3d f7b4 ce3d 4e1b 863c
00000070: 3406 b2bd f82b 9dbd 2873 0dbd c3db 9fbd
00000080: 9ebd 783d e33a 9d3d 2d95 c3bd b556 adbc
00000090: fc4d e9bd 3100 f83d 6be1 b43d bb03 3bbc
000000a0: 51b8 c83d 61c5 b13d 4e9c 803d 5adb d0bd
000000b0: 0f4a e4bd a7c4 c9bd c7d2 b9bc cfb9 a4bd
000000c0: e087 303c f3d0 55bd 170c 8c3d e3f6 083d
000000d0: 3810 9a3d 7c38 42bc 8bf7 81bc fc73 7cbd
000000e0: 43e8 883b 0f58 7d3d ec0f 9dbd 417c 343d
000000f0: 5917 ca3d 1cb4 48bd 914f b2bd 28c0 af3d
00000100: 1ca5 933d a190 ddbd dc0f 7b3d 1e7c ef3d
00000110: 014a 093d a158 5c3d eb87 693d 6629 abbc
00000120: bad4 3ebb c4e0 b2bc bb27 f6bd cde5 a33d
00000130: 8380 23bc e8e3 9bbd fe04 dd3c 1a2c a03d
00000140: b995 94bb 845f 0a3d 0f46 92bd 123e fabd
00000150: a608 553d cc7d d6bd a01f 6ebd 6703 fe3d
00000160: be40 013c 9ba7 f53d c467 9f3d e9c5 483d
00000170: 3c0d cdbc b189 f5bd c194 bf3d 5758 903d
00000180: b18b 563d 5e83 503d cfef c33d 8b94 453d
00000190: f59c fbbd 88d6 8b3d e6e4 b93a 1679 40bd
000001a0: f327 cfbd 2bca f0bd 6978 e9bd 640e d6bc
000001b0: c7e7 073d bd6a fabd 7ac4 cbbd 6153 bb3c
000001c0: 2c0e 483d 9326 3c3d 48a8 d6bc 0b82 6ebd
000001d0: 3c79 303d 80bf b2bc e5a1 683d e395 d1bd
000001e0: 3c13 b73d d9f2 963d 517f 573c 4ede 0f3d
000001f0: 6957 66bc d33a b03d 72ab c7bd 8353 f3bc
00000200: fb4d 383c 8e87 40bd 5dd9 d53d 211b ecbb
00000210: 606d ac3b e669 62bd 7f23 a43d dc81 1a3d
00000220: 5d76 c43c 224e 6e3d 4beb e4bd 1d84 263d
00000230: 8d23 4b3b 7bd3 5ebc 45e2 013d d94f 13bc
00000240: 5633 bf3b f5dc d5bd 1d9e 6c3d 599e e83d
00000250: ec62 c83b bc5e f33d da3d c23d 1c34 b83d
00000260: 14a1 df3a 0d88 cd3d dae8 443c 7834 843d
00000270: 968d 0abd 7d2f 50bc c091 a53c 648b b43d
00000280: b72f aebc 1a6e a73d 6d67 df3d 1edb 4fbd
00000290: 74b2 efbc 9f6c ab3d 0f55 13bd daf6 b4bc
000002a0: 27a9 b03d 29d3 a6bd f183 21bd 3716 bfbc
000002b0: 21cf ca3c 0157 313c 4201 dc3d 31e7 c03d
000002c0: fb4f 1a3d 6836 de3d c8b3 15bd 1e2b 83bc
000002d0: 942e e63d 5fbd 96bc a880 9ebb c9b6 adbd
000002e0: fb58 123d 93b5 36bd 15b3 82bc 90a7 dd3c
000002f0: 9939 f1bb d465 b73d 896a 44bb 874c a03d
00000300: a78f 333c a6e1 b13c d35a f13d 5d82 8ebd
00000310: cfb4 cd3d 1231 61bb b061 afbc 7097 df3d
00000320: 8655 9ebd d046 ec3d 817d cfbc ad84 e43d
00000330: ad23 ebbb ca6e 033d 53ab e83d 38c8 793d
00000340: 08fe 9c3c 39a7 283d d246 5bbd 0d9a 783d
00000350: aa89 44bd 701a 543d 8873 81bd 5175 1dbd
00000360: c0f1 60bd 5055 23bd e545 9dbd 1745 a9bd
00000370: 20c8 e63d db6a c43d effe d83d aa38 a7bd
00000380: 5334 cb3d 88fb c7bd ce37 dfbd a1b8 ddbd
00000390: 1429 f03d 13ac b23d 41fe 87bd 2c39 b2bd
000003a0: 7ed5 913d 1108 903c f0b8 babd 1e5b c8bd
000003b0: 97e4 8e3d 4a36 8cbd 6fd7 fb3c ccaf c9bd
000003c0: 816f dfbd 30b5 84b9 0a99 793d 93bf 763d
000003d0: 4448 df3d 820e b03d 7132 f03d cdab 043d
000003e0: e5e3 ecbd 55b1 df3c 452a 07bd 581b 35bd
000003f0: 022e f03d 332c bbbc e4b6 09bd 20f2 c13d
0.12025345 -0.0063078883 0.06799168 -0.03549789 -0.053087234 0.123109795 -0.042391837 -0.07081245
0.038609765 -0.11653521 -0.07294641 -0.05461106 0.081545666 0.034720343 -0.12240756 0.121942416
0.08179174 -0.08993194 0.07924159 0.116280496 0.07742738 0.013972988 -0.015308751 -0.018607873
0.10672442 0.08436907 0.1009311 0.016370442 -0.086925894 -0.07674402 -0.03453365 -0.07805588
0.060727708 0.076772474 -0.095499374 -0.02115951 -0.113918275 0.121094115 0.088320576 -0.011414464
0.098007806 0.08680225 0.06279813 -0.10198088 -0.11146938 -0.098519616 -0.022683514 -0.08043253
0.010774583 -0.052201223 0.068382435 0.033438575 0.07522625 -0.011854287 -0.015865108 -0.06163405
0.0041780784 0.061851557 -0.076690525 0.04406381 0.098677345 -0.04899989 -0.08706582 0.08581573
0.072092265 -0.108186014 0.06129442 0.11693595 0.03351784 0.05379546 0.057014387 -0.020893764
-0.0029118494 -0.021835692 -0.12019297 0.080028154 -0.00997937 -0.07611829 0.02697992 0.07820912
-0.00453445 0.033782497 -0.07142269 -0.1221887 0.0520102 -0.104732126 -0.05813563 0.12402993
0.007888971 0.11994859 0.077834636 0.049016867 -0.025030725 -0.11989153 0.093545444 0.070480995
0.052379314 0.05090653 0.09567224 0.048237365 -0.122857966 0.06828028 0.0014182597 -0.046990477
-0.101150416 -0.117573105 -0.113999195 -0.026129909 0.033180024 -0.1222739 -0.09949584 0.022866907
0.04884164 0.045935225 -0.02620329 -0.058229487 0.043084368 -0.02181983 0.05679502 -0.10233667
0.089392155 0.07370538 0.013152913 0.035124116 -0.014058926 0.0860497 -0.097494975 -0.029702907
0.011249061 -0.047004275 0.104418494 -0.0072053825 0.005262062 -0.055276774 0.08014583 0.0377215
0.023982221 0.058179982 -0.11177691 0.040653337 0.0030996532 -0.013600226 0.031709928 -0.008991205
0.005834977 -0.10442535 0.057767976 0.113583274 0.006115308 0.118833035 0.094844535 0.08994314
0.0017061555 0.10035715 0.012018407 0.0645532 -0.033826433 -0.012706635 0.0202111 0.08815649
-0.021262987 0.08175297 0.10908399 -0.050746076 -0.029259898 0.08370327 -0.03596979 -0.022090364
0.08626013 -0.08145744 -0.03943247 -0.023326023 0.02475697 0.010823966 0.107424274 0.09419096
0.03767393 0.10850221 -0.036548406 -0.01601177 0.11239353 -0.018400846 -0.0048371144 -0.08482129
0.03572939 -0.044606756 -0.015954534 0.02705744 -0.0073616025 0.08954969 -0.0029970726 0.078270964
0.010959542 0.021714043 0.117849015 -0.069584586 0.10044252 -0.0034361524 -0.021408886 0.10917556
-0.07731156 0.11536944 -0.0253284 0.111581184 -0.0071758837 0.03208808 0.113608025 0.06098196
0.0191641 0.0411751 -0.053534336 0.06069379 -0.04798285 0.051783025 -0.06320864 -0.03844196
-0.05491805 -0.039876282 -0.07679347 -0.08265131 0.112686396 0.095906936 0.105955 -0.08165105
0.099220894 -0.09764773 -0.10899316 -0.10826231 0.11726585 0.08724227 -0.06640292 -0.08702311
0.071207985 0.017581971 -0.09117305 -0.09783004 0.06977194 -0.06846292 0.030742375 -0.09847984
-0.109099396 -0.00025311997 0.060936965 0.060241293 0.109024554 0.08596517 0.11728371 0.032390404
-0.11566905 0.027306238 -0.032999296 -0.04421553 0.11727525 -0.022848224 -0.033621684 0.0947001

lstm.bias_hh_l0 f4 [256]
00000000: 400a e23b 9e88 e5ba f954 1bbd 71b3 b83d
00000010: 68c9 0cbd 14b8 56bc c458 36bd 48e4 8d3d
00000020: 9210 b03d e3bb b53d 4d17 86bd fb6b ad3d
00000030: e873 663d cf76 e4bd 5095 783d cb55 013e
00000040: 6925 c0bc bb0a d1bd ae2e a6bd a48d 03be
00000050: 3bf4 473d 1dd1 8abd 8258 0d3c 6e2e de3d
00000060: 3f28 423d 5960 fcbd 6505 f13d b77f ed3d
00000070: 3da2 8ebc f284 183d c1b0 9e3d bf57 733c
00000080: baac f63d 4995 9ebd e0ba babd 86fe c43d
00000090: f6cf 543d 46fd dfbc df75 c7bd 2de9 b0bd
000000a0: 2576 893d 79a8 aebd 00c0 f7bd fe1e bc3d
000000b0: 895b 9cbd 7172 bc3d a1cb e63d 7678 4f3c
000000c0: 1810 08bd eb4a 93bd 6bda 00bd a340 e9bd
000000d0: b01d 8d3a 32ef 0ebd a623 5dbc 7540 f93d
000000e0: ae3c a03d fdba acbd 8604 e8bd 053e 013e
000000f0: 4183 40bd d001 313d 3512 b6bd 8873 d23c
00000100: 24d0 973d 634e fc3d 034f a03b 63b2 213d
00000110: 84de ca3b 6265 a8bd e0ef f63d 1c34 ffbc
00000120: 20b6 9f3c 79b4 9bbd 3189 803d 34e9 fbbb
00000130: 9f2e a2bd d294 003e 7a97 9fbc 98a9 2bbd
00000140: a5e0 ec3d e06f d1bc a1c7 c1bd 3e55 a73c
00000150: 6237 5f3d 0c31 10bd c4b7 683d 4bc4 80bd
00000160: c4d2 1b3d 6053 9f3c 04e2 99bc c1e5 603c
00000170: 9376 dabd d79a 633d 0faf e1bd e710 dbbd
00000180: 2ff8 24bd cb20 efbb 3ef6 8d3d a41f ccbd
00000190: 1b4c 8f3c c49f 24bd c119 7abc fd7a a03d
000001a0: e9fa f13d 18b2 ccbc b549 aabc 63e0 cbbd
000001b0: 50af ad3d 9eeb 71bc 5300 4bbd d47b f33d
000001c0: 18e8 603d fbef 333d 2614 94bd 5386 89bd
000001d0: b4f8 dd3d 1097 9cbd 99a7 aa3d b23a 99bd
000001e0: 921d e93d b1f2 753d 999c f1bc 881c db3c
000001f0: fd22 babc f3ef b9bc d56f 9f3c 0030 973d
00000200: 8e0c 053d 29ca cfbd 7f42 a2bd 0181 0bbc
00000210: 1432 d63d 0d61 a1bc 29a8 cc3d 09f5 babc
00000220: aebe a9ba f244 543d df16 1ebd ecc8 a93d
00000230: b32a ff3c fda2 253d 1b63 dabd 5daa 9b3d
00000240: e40c b3bd 2b6f d73d d459 8cbd 29bc b23d
00000250: 0a7c 06bd c473 15bd 4410 99bd 0c7b af3d
00000260: 5d4a 5dbc 3959 debd f47f 87bc 9691 0f3d
00000270: 1318 c0bd b20a e23d ee36 f13d 187e cf3d
00000280: a36e ff3c 8af1 b0bc 0f01 f83d ccf2 943c
00000290: 72c6 71bd 73a3 b4bc 1961 733d 9fc5 693d
000002a0: a816 013e 39f7 a6bd 879e e43d 3cef bcbd
000002b0: 2947 df3c 03ab 2b3b 0640 20bd 873e 303d
000002c0: 1386 373d 089b d13d 96ed dbbd ee42 f5bd
000002d0: 9ed1 e5bd 3c97 563d 5232 5f3d 0972 5f3d
000002e0: ed20 d7bb 4d3a 113d a720 883d e13a c0bd
000002f0: 11d9 b93d 0473 f1bd d8b6 eb38 8664 d23c
00000300: 196e c4bd 0202 b23d 9009 0d3b b30b dfbd
00000310: 578f 143c 6461 26bc 10d1 d23c 65d4 513d
00000320: 92be 80bd 4bf5 383d e834 033d d45a 653d
00000330: c44d b6bc a506 19bd 94ca 883c 3052 d53d
00000340: a19c 7a3d 99ac 273d 1d3d 913c f539 383d
00000350: fbe5 d6bd 7e5e bb3d 1355 ee3d d161 babc
00000360: 7946 adbd 70b0 37bd f694 ac3a 7160 cd3d
00000370: ce83 ecbd 7cd7 c63c 0e41 bf3c 4730 e23b
00000380: bd02 bebd b89d 00bd aef5 b9bd 5398 a03d
00000390: fe46 3d3b c7f8 c1bd 4f17 7f3d d348 213d
000003a0: 80fe e0bd 2453 af3d a656 aabd dacf 9f3c
000003b0: a704 1dbd 91eb e73d 6d29 f4bd 306f abbd
000003c0: 9b28 c13d 43d3 023e 06ec f63d 7e60 afbd
000003d0: 02b1 fabd 3dcd 063d 1c24 89bc ab86 ca3c
000003e0: 7cbc 4f3d f8c5 df3b c23a 6bbd 1861 803d
000003f0: 425e 053d 9efb 3c3d 3a6c 863d da90 9cbd
0.0068981946 -0.0017512029 -0.037922833 0.09018601 -0.034371763 -0.013105411 -0.044518247 0.06928307
0.085969105 0.08873727 -0.06547413 0.08467861 0.05626288 -0.111554734 0.06068927 0.12630384
-0.023455339 -0.10207125 -0.08114372 -0.12847 0.0488169 -0.067781664 0.008627059 0.108486995
0.047401663 -0.12323064 0.11768607 0.11596625 -0.017411346 0.03723616 0.07748557 0.014852463
0.12044664 -0.07743318 -0.09117675 0.09618859 0.05195614 -0.02734245 -0.09739279 -0.08638225
0.067119874 -0.08528227 -0.12097168 0.09185599 -0.076346464 0.092015155 0.11269308 0.0126629975
-0.033218473 -0.07192024 -0.0314583 -0.113892816 0.0010766294 -0.034896083 -0.013497269 0.12170497
0.07824074 -0.08434103 -0.11328988 0.12621315 -0.047000173 0.04321462 -0.088901915 0.025689855
0.074127465 0.123196386 0.0048922314 0.039476763 0.0061910767 -0.08222462 0.12057471 -0.031152777
0.019496024 -0.07602782 0.06276167 -0.007687712 -0.079190485 0.1255677 -0.01948141 -0.041909784
0.11566285 -0.025566041 -0.09461904 0.020426389 0.054496177 -0.035203025 0.056815878 -0.0628744
0.0380428 0.019448936 -0.01878453 0.013726653 -0.106671475 0.05556759 -0.11019718 -0.10696583
-0.04027575 -0.0072976104 0.069317326 -0.099669725 0.017492345 -0.040191427 -0.015264929 0.07835958
0.118154354 -0.024987265 -0.0207871 -0.09954908 0.08480704 -0.014765648 -0.049560856 0.11888853
0.05490884 0.043930035 -0.072304055 -0.067150734 0.10838452 -0.076460004 0.08332748 -0.07481898
0.11382593 0.0600459 -0.029493617 0.026747003 -0.022721762 -0.022697425 0.019462505 0.07382202
0.032482676 -0.10145981 -0.079228394 -0.008514644 0.104587704 -0.019699598 0.099930115 -0.02282192
-0.0012950504 0.051823564 -0.03859603 0.08290276 0.03114829 0.04043864 -0.10663434 0.076008536
-0.08742693 0.105192505 -0.06853071 0.08727295 -0.032833137 -0.036487356 -0.074738055 0.08568391
-0.013506499 -0.108568616 -0.016540505 0.03505095 -0.09379592 0.11037196 0.11778055 0.10131472
0.031180685 -0.02159955 0.12109577 0.01818218 -0.059027143 -0.022050595 0.05941877 0.05707323
0.12606299 -0.08152623 0.11163049 -0.09225318 0.027255611 0.002619446 -0.039123558 0.04302838
0.044805598 0.10234648 -0.10738675 -0.119756564 -0.11221622 0.052390322 0.05449135 0.05455211
-0.0065652044 0.03545599 0.06646853 -0.0938623 0.09074605 -0.117895156 0.000112397305 0.025682699
-0.09591312 0.08691789 0.0021520592 -0.10890903 0.009067378 -0.010155056 0.025734454 0.051227946
-0.062863484 0.045155805 0.032032877 0.055994824 -0.022253878 -0.037359852 0.01669816 0.10416067
0.06118453 0.040936086 0.017729336 0.044977147 -0.10493084 0.09148882 0.1163732 -0.02275172
-0.08460707 -0.044846 0.0013166952 0.1002816 -0.11548577 0.024272673 0.02334645 0.0069027278
-0.09277866 -0.031400412 -0.09080063 0.078415535 0.0028881426 -0.09471279 0.06227809 0.03937609
-0.10986042 0.0856078 -0.08317308 0.019508291 -0.038334515 0.113242276 -0.11921964 -0.08370817
0.09431573 0.12775902 0.12056737 -0.08563326 -0.12240793 0.032910574 -0.016740851 0.024722418
0.050716862 0.0068290196 -0.057429083 0.06268519 0.032560594 0.0461384 0.06563611 -0.07644816

head.0.weight f4 [32, 64]
00000000: 1f8f 543d aefa c4bd e30f 04be a81e 1e3d
00000010: 7777 d4bd 2726 b8bd cf5b b9bd 0a9b d0bd
00000020: 85cd 6f3d c2f0 f1bd e782 973d 58c1 1abd
00000030: 0ea1 573d 92e8 c73d aaf3 bbbd c333 4bbd
00000040: fff2 53bd 22ba 193d d4bf 4b3a f6e0 d7bd
00000050: 259f af3d 82f6 bc3d 3480 8b3c a1f6 723c
00000060: 6c71 b23b 4f67 41bd 5be7 c53d 1d89 6a3d
00000070: 679f c33c 03b2 c3bd cef5 c1bd 6f3a 87bd
00000080: 7c00 0a3d 69fd abbd 2ae3 d13d 9b1a 493d
00000090: bf8f 7c3c 832b e03d 123e a33d b439 843c
000000a0: 7263 f3bc 49cb e83d 3289 febc b4bb 173d
000000b0: f1ba bfbd 4fc8 bc3d e86f e93d 8184 273d
000000c0: 6d7d b83d ffa4 603d ad0f e9bd f293 dd3d
000000d0: 9c6d f8bd 4074 71bd ec39 ccbd 948f 9c3c
000000e0: 8162 9bbc 71d1 f6bb 87fb 3abd ae99 74bd
000000f0: 1ce7 893d 4bd2 66bb 8392 b13d 0fe5 f7bd
00000100: 2080 263d 7061 12bc d850 ccbc f2c6 b03d
00000110: 9a1f dabd f8fb 083d 8c4b 24bd e0d6 0b3c
00000120: 80ed ed3d a457 cbbd 98a7 1dbd be50 c4bd
00000130: 00e0 5f38 3c1d 633d 489f b5bc f02a 633d
00000140: 48a6 bbbd 1200 843d b056 8cbd 4059 61bc
00000150: 70db 583d 18d3 563d 8ef3 f03d d00d c03d
00000160: 20a6 1c3c 0231 d83d d434 bdbd 505d e83c
00000170: 5076 32bd 0215 933d a27d dfbd 4c0e 0abd
00000180: 0082 acbc 30e7 84bd 7cfc 7b3d f46b 9f3d
00000190: 7cda e1bd 7090 a6bd d878 c4bc 3ea5 b5bd
000001a0: 7ac4 e73d c0bd cd3c ca2f 943d c0d7 163b
000001b0: 3cb6 5b3d b651 c1bd 1cb1 5c3d d2b5 bbbd
000001c0: e2f5 8a3d 4082 5c3d 6e84 d6bd a0b7 0abd
000001d0: 18fe f13c 2478 e8bd c8ef aabd 7001 72bc
000001e0: b239 d6bd ea46 bfbd a806 92bd 1cd6 773d
000001f0: b0af 553c 90b9 a9bd e8a4 793d c2d2 c53d
00000200: bdeb d63d 89d9 b1bd 2675 e0bd f069 99bc
00000210: f474 9e3d a54a e33d fed6 aebd d13b dbbd
00000220: 7886 c23c 9e0e 5dbd 7385 4bbd 8b51 49bd
00000230: 6a8b 9cbc e90e 903d fae2 f5bd f9ed 853d
00000240: 1ad5 c0bd 977a 843d 8bc0 e6bb e6ec 0c3b
00000250: 3b9c bbbd d505 f9bd 0e9b d6bc 7130 41bc
00000260: 048a 4bbd 4095 4e3d 839c 073d 2fa5 c6bd
00000270: 3ff2 d6bd 54a8 7d3d c114 febb dd87 c13d
00000280: 82bf dabd bc08 ad3d ecde 8fbd 8a3e a83d
00000290: 3083 f3bd 29d8 9b3d bc43 97bd c542 ad3d
000002a0: 94e3 dc3d 6304 92bd 905b 3fbd 13eb 913d
000002b0: 139b 493d af91 e53d 3c68 42bd 9c63 c6bd
000002c0: 78c3 ffbc bc84 11bd 00a2 84bd 0d65 f83d
000002d0: 7db9 30bd 2788 d03d 2311 debd 7c79 4a3b
000002e0: 30f8 983c b5b3 44bd 24e9 423d 5127 f6bb
000002f0: 3524 beba 1442 8ebd 5b06 7fbd a156 ad3d
00000300: d186 0b3d 6bcb 993d c4f3 d2bc 8c46 923c
00000310: f75b 613d c513 cdbd 5420 bc3d 97fc dd3d
00000320: f8b4 d0bd 28da b1bd dac8 b6bd de94 88bd
00000330: 57b0 aa3c 2ec0 f1bd 494f 523d 8ef4 9f3d
00000340: 04ea d33d c350 253d 2413 8e3d 48be 603c
00000350: 8bbe 123d a821 a3bd 7ec3 dfbd da74 c13d
00000360: c6da aabd 23ce 2a3d 7e4a 3f3d 4a04 a8bd
00000370: 9d39 ca3d 8c45 d1bd af0a f23d daf1 fbbc
00000380: 8299 843d 0ab2 853d a339 ec3d 7a71 60ba
00000390: 340c 8e3d fbe1 f03d c4c5 dbbd 6d7e 96bc
000003a0: 2e7b d3bd 7e26 203d cae6 b6bc 1149 e1bd
000003b0: af92 8ebd f69c a6bd f696 ca3d 9fd5 02bd
000003c0: 1780 d5bc 200d e53c 09c0 04bd 9e38 bbbd
000003d0: 516f 71bd 9de7 63bd fb05 c73d c15d 4bbd
000003e0: 07cc aebd 60f5 b1bd 0075 683d 45be 80bd
000003f0: 6ea2 d3bd a017 ad3d 5239 d5bd 76b4 6dbd
0.051894303 -0.09618126 -0.12896685 0.038603455 -0.103743486 -0.08991652 -0.09050714 -0.10185821
0.058545608 -0.11813499 0.073980145 -0.037782043 0.052643828 0.09761156 -0.091773346 -0.04960991
-0.05174541 0.037531026 0.000777242 -0.10540955 0.08575276 0.09226705 0.017028905 0.014829309
0.00544565 -0.047217663 0.09663268 0.057259668 0.02387972 -0.095554374 -0.09470712 -0.06602942
0.03369187 -0.083979435 0.10248406 0.04909764 0.015415131 0.10945799 0.07970823 0.016140796
-0.029710505 0.113668986 -0.03107128 0.037044242 -0.09361828 0.09217893 0.113982975 0.04089785
0.09008298 0.054844853 -0.11379943 0.10819234 -0.12130281 -0.058948755 -0.09971985 0.019111432
-0.018967869 -0.0075322916 -0.04565003 -0.059716873 0.06733534 -0.003522056 0.08670523 -0.12104236
0.040649533 -0.008934364 -0.024940893 0.08631696 -0.10650559 0.03344342 -0.04011111 0.008535117
0.11617565 -0.099288255 -0.038489908 -0.09585713 5.337596e-05 0.055447802 -0.022170678 0.05546087
-0.09162575 0.06445326 -0.06852472 -0.013754189 0.052943647 0.05244741 0.11765204 0.093776345
0.009561092 0.105562225 -0.09238592 0.028364807 -0.043569863 0.07181741 -0.109126344 -0.03370504
-0.021058083 -0.06489408 0.061520085 0.07784262 -0.11028001 -0.08133018 -0.023983404 -0.08869408
0.11316772 0.025114894 0.072356775 0.002301678 0.05364059 -0.09439413 0.053879842 -0.09165539
0.0678518 0.053835154 -0.10474478 -0.033866525 0.029540107 -0.1135104 -0.08346516 -0.014770851
-0.10460223 -0.09339698 -0.07130176 0.060506925 0.013042375 -0.08287346 0.060948282 0.096593395
0.10494182 -0.0868407 -0.10959844 -0.018727273 0.07737151 0.11098222 -0.085371 -0.107047684
0.02374576 -0.05396902 -0.049687814 -0.04915003 -0.019109447 0.07034094 -0.12006183 0.0653953
-0.09415646 0.06468695 -0.007041996 0.0021503507 -0.09160658 -0.121593155 -0.026196983 -0.0117913345
-0.04969217 0.050435305 0.033108246 -0.09699475 -0.104954235 0.06192811 -0.007753939 0.09449742
-0.106810585 0.084489316 -0.07024941 0.082150534 -0.118902564 0.07609589 -0.07385966 0.08460001
0.107855946 -0.07129743 -0.04671818 0.07124915 0.049220156 0.112094276 -0.047462687 -0.09686968
-0.031221136 -0.035526976 -0.064762115 0.12128649 -0.043145645 0.10182219 -0.10843112 0.0030895164
0.018673033 -0.048022944 0.04758562 -0.007512011 -0.001450664 -0.06946197 -0.06226192 0.08463789
0.034064118 0.07509502 -0.025751002 0.017855905 0.055019345 -0.10013536 0.091858536 0.10839193
-0.10190767 -0.08684188 -0.08925028 -0.06669019 0.020836039 -0.118042335 0.051345143 0.07810317
0.10347369 0.040360224 0.069372445 0.013717242 0.035826247 -0.07965404 -0.10925959 0.09446116
-0.08342509 0.041700494 0.0467019 -0.08203943 0.0987427 -0.10218343 0.11818444 -0.030754972
0.06474592 0.06528099 0.11534431 -0.0008561831 0.06935921 0.11761852 -0.1073108 -0.018370831
-0.10326229 0.03909921 -0.022326846 -0.110002644 -0.069615714 -0.08135407 0.09892075 -0.031942006
-0.026062055 0.02796036 -0.0324097 -0.09141658 -0.05894405 -0.055640806 0.097179376 -0.049649958
-0.08535009 -0.0868938 0.056752205 -0.06286291 -0.103337154 0.08451772 -0.104113236 -0.05803343

head.0.bias f4 [32]
00000000: 8ea8 d63c 26d2 c3bd e2b2 003e 648f 7d3d
00000010: c82c aebd 19ad 203d 2ae9 42bc 6019 893d
00000020: bc69 e73d e46d 823b 8c79 ba3d 2054 a03d
00000030: c891 023e f384 57bd c555 e23d ec40 d03d
00000040: f1e6 cf3d ca4c cfbd f464 e4bd 7813 cebd
00000050: a142 5fbd 9c62 813d e09b 84ba cad4 a6bd
00000060: 544b b0bd 0c93 bfbd fa78 e1bd 6833 c0bd
00000070: 18d1 053d 00ee a839 38bf 9bba 2b34 3a3d
0.02620342 -0.09561567 0.12568238 0.061904326 -0.08504635 0.03922758 -0.011896411 0.06694293
0.11299464 0.003980385 0.091052145 0.078285456 0.12750924 -0.052617025 0.110515155 0.10168633
0.101514705 -0.10122068 -0.11152068 -0.10062307 -0.0545069 0.06317636 -0.0010117255 -0.08146055
-0.08608118 -0.09354219 -0.110094026 -0.09384805 0.03267011 0.0003222078 -0.0011882549 0.045459908

head.2.weight f4 [1, 32]
00000000: d1b2 a63d db4e d4bd 4be5 edbd df02 29bd
00000010: 345b 013e 3894 f4bd 12ab be3d 0d95 5f3d
00000020: d40a 09bd cd92 943d 147d d33d 9106 30be
00000030: c682 bbbb e7d4 afbd 16e2 d23a ee50 5c3d
00000040: 1f15 59bd 353b 89bd e305 d73d 5162 29be
00000050: 8878 8f3d 612c 7ebd 8517 f3bd 6287 073e
00000060: 40a5 be3d f297 8ebc 4832 37bd c9f5 d9bd
00000070: a966 03be d8f1 e3bd 7b62 973a 89b7 7b3d
0.08139575 -0.10366603 -0.11616 -0.041262504 0.12632447 -0.11942333 0.09309973 0.054585505
-0.033457592 0.072545625 0.10326591 -0.17190005 -0.0057223765 -0.0858553 0.0016089107 0.053788118
-0.05299866 -0.06700746 0.1049917 -0.16541411 0.070054114 -0.06205404 -0.1186972 0.13235238
0.09308863 -0.017406438 -0.044725686 -0.10642583 -0.1283213 -0.111301124 0.0011549735 0.06145433
